{"format": "graph-model", "generatedBy": "2.14.0", "convertedBy": "TensorFlow.js Converter v4.4.0", "signature": {"inputs": {"trigger_status:0": {"name": "trigger_status:0", "dtype": "DT_INT64", "tensorShape": {"dim": [{"size": "-1"}]}}, "scope_picker_entity_list_trigger_status:0": {"name": "scope_picker_entity_list_trigger_status:0", "dtype": "DT_INT64", "tensorShape": {"dim": [{"size": "-1"}]}}, "candidate_source:0": {"name": "candidate_source:0", "dtype": "DT_INT64", "tensorShape": {"dim": [{"size": "-1"}]}}, "position:0": {"name": "position:0", "dtype": "DT_INT64", "tensorShape": {"dim": [{"size": "-1"}]}}, "position_changes_from_prev:0": {"name": "position_changes_from_prev:0", "dtype": "DT_INT64", "tensorShape": {"dim": [{"size": "-1"}]}}, "visit_num_local:0": {"name": "visit_num_local:0", "dtype": "DT_INT64", "tensorShape": {"dim": [{"size": "-1"}]}}, "status:0": {"name": "status:0", "dtype": "DT_INT64", "tensorShape": {"dim": [{"size": "-1"}]}}, "global_map_traffic_portion:0": {"name": "global_map_traffic_portion:0", "dtype": "DT_FLOAT", "tensorShape": {"dim": [{"size": "-1"}, {"size": "20"}]}}, "new_selected_hierarchy_status:0": {"name": "new_selected_hierarchy_status:0", "dtype": "DT_INT64", "tensorShape": {"dim": [{"size": "-1"}]}}, "new_place_id:0": {"name": "new_place_id:0", "dtype": "DT_INT64", "tensorShape": {"dim": [{"size": "-1"}]}}, "probability_visit:0": {"name": "probability_visit:0", "dtype": "DT_FLOAT", "tensorShape": {"dim": [{"size": "-1"}, {"size": "20"}]}}, "predict_place_id:0": {"name": "predict_place_id:0", "dtype": "DT_INT64", "tensorShape": {"dim": [{"size": "-1"}]}}, "previous_selected_campaign:0": {"name": "previous_selected_campaign:0", "dtype": "DT_INT64", "tensorShape": {"dim": [{"size": "-1"}]}}, "ad_group_list_trigger_status:0": {"name": "ad_group_list_trigger_status:0", "dtype": "DT_INT64", "tensorShape": {"dim": [{"size": "-1"}]}}, "new_selected_campaign:0": {"name": "new_selected_campaign:0", "dtype": "DT_INT64", "tensorShape": {"dim": [{"size": "-1"}]}}, "cur_session_visits_count:0": {"name": "cur_session_visits_count:0", "dtype": "DT_INT64", "tensorShape": {"dim": [{"size": "-1"}, {"size": "20"}]}}, "previous_selected_scope_picker_entity_category:0": {"name": "previous_selected_scope_picker_entity_category:0", "dtype": "DT_INT64", "tensorShape": {"dim": [{"size": "-1"}]}}, "previous_selected_ad_group:0": {"name": "previous_selected_ad_group:0", "dtype": "DT_INT64", "tensorShape": {"dim": [{"size": "-1"}]}}, "avg_visits_per_session_count:0": {"name": "avg_visits_per_session_count:0", "dtype": "DT_FLOAT", "tensorShape": {"dim": [{"size": "-1"}, {"size": "20"}]}}, "visit_fraction_local": {"name": "visit_fraction_local:0", "dtype": "DT_FLOAT", "tensorShape": {"dim": [{"size": "-1"}]}}, "trigger_type:0": {"name": "trigger_type:0", "dtype": "DT_INT64", "tensorShape": {"dim": [{"size": "-1"}]}}, "destination_places:0": {"name": "destination_places:0", "dtype": "DT_INT64", "tensorShape": {"dim": [{"size": "-1"}, {"size": "20"}]}}, "new_selected_ad_group:0": {"name": "new_selected_ad_group:0", "dtype": "DT_INT64", "tensorShape": {"dim": [{"size": "-1"}]}}, "new_parent_scope_entity_displayed_status:0": {"name": "new_parent_scope_entity_displayed_status:0", "dtype": "DT_INT64", "tensorShape": {"dim": [{"size": "-1"}]}}, "new_parent_campaign_selected_status:0": {"name": "new_parent_campaign_selected_status:0", "dtype": "DT_INT64", "tensorShape": {"dim": [{"size": "-1"}]}}, "skinny_nav_candidate_count:0": {"name": "skinny_nav_candidate_count:0", "dtype": "DT_INT64", "tensorShape": {"dim": [{"size": "-1"}]}}, "previous_selected_hierarchy_status:0": {"name": "previous_selected_hierarchy_status:0", "dtype": "DT_INT64", "tensorShape": {"dim": [{"size": "-1"}]}}, "visit_rank_local:0": {"name": "visit_rank_local:0", "dtype": "DT_INT64", "tensorShape": {"dim": [{"size": "-1"}]}}, "category:0": {"name": "category:0", "dtype": "DT_INT64", "tensorShape": {"dim": [{"size": "-1"}]}}, "new_selected_scope_picker_entity_category:0": {"name": "new_selected_scope_picker_entity_category:0", "dtype": "DT_INT64", "tensorShape": {"dim": [{"size": "-1"}]}}, "previous_parent_campaign_selected_status:0": {"name": "previous_parent_campaign_selected_status:0", "dtype": "DT_INT64", "tensorShape": {"dim": [{"size": "-1"}]}}, "last_clicked_item_type:0": {"name": "last_clicked_item_type:0", "dtype": "DT_INT64", "tensorShape": {"dim": [{"size": "-1"}]}}, "previous_parent_scope_entity_displayed_status:0": {"name": "previous_parent_scope_entity_displayed_status:0", "dtype": "DT_INT64", "tensorShape": {"dim": [{"size": "-1"}]}}, "campaign_list_trigger_status:0": {"name": "campaign_list_trigger_status:0", "dtype": "DT_INT64", "tensorShape": {"dim": [{"size": "-1"}]}}, "depth:0": {"name": "depth:0", "dtype": "DT_INT64", "tensorShape": {"dim": [{"size": "-1"}]}}, "global_map_destination_places:0": {"name": "global_map_destination_places:0", "dtype": "DT_INT64", "tensorShape": {"dim": [{"size": "-1"}, {"size": "20"}]}}, "scoping_nav_candidate_count:0": {"name": "scoping_nav_candidate_count:0", "dtype": "DT_INT64", "tensorShape": {"dim": [{"size": "-1"}]}}, "campaign_type:0": {"name": "campaign_type:0", "dtype": "DT_INT64", "tensorShape": {"dim": [{"size": "-1"}]}}, "parent_campaign_type:0": {"name": "parent_campaign_type:0", "dtype": "DT_INT64", "tensorShape": {"dim": [{"size": "-1"}]}}}, "outputs": {"output_0": {"name": "Identity:0", "dtype": "DT_FLOAT", "tensorShape": {"dim": [{"size": "-1"}, {"size": "1"}]}}}}, "modelTopology": {"node": [{"name": "StatefulPartitionedCall/model/ExpandDims_9/dim", "op": "Const", "attr": {"value": {"tensor": {"dtype": "DT_INT32", "tensorShape": {}}}, "dtype": {"type": "DT_INT32"}}}, {"name": "StatefulPartitionedCall/model/tf.reshape/Reshape/shape", "op": "Const", "attr": {"value": {"tensor": {"dtype": "DT_INT32", "tensorShape": {"dim": [{"size": "1"}]}}}, "dtype": {"type": "DT_INT32"}}}, {"name": "StatefulPartitionedCall/model/tf.one_hot/one_hot/depth", "op": "Const", "attr": {"dtype": {"type": "DT_INT32"}, "value": {"tensor": {"dtype": "DT_INT32", "tensorShape": {}}}}}, {"name": "StatefulPartitionedCall/model/tf.one_hot/one_hot/on_value", "op": "Const", "attr": {"dtype": {"type": "DT_FLOAT"}, "value": {"tensor": {"dtype": "DT_FLOAT", "tensorShape": {}}}}}, {"name": "StatefulPartitionedCall/model/tf.one_hot/one_hot/off_value", "op": "Const", "attr": {"value": {"tensor": {"dtype": "DT_FLOAT", "tensorShape": {}}}, "dtype": {"type": "DT_FLOAT"}}}, {"name": "StatefulPartitionedCall/transform_features_layer/StatefulPartitionedCall/Reshape_4/shape", "op": "Const", "attr": {"dtype": {"type": "DT_INT32"}, "value": {"tensor": {"dtype": "DT_INT32", "tensorShape": {"dim": [{"size": "1"}]}}}}}, {"name": "StatefulPartitionedCall/transform_features_layer/StatefulPartitionedCall/Repeat_2/ExpandDims/dim", "op": "Const", "attr": {"value": {"tensor": {"dtype": "DT_INT32", "tensorShape": {}}}, "dtype": {"type": "DT_INT32"}}}, {"name": "StatefulPartitionedCall/transform_features_layer/StatefulPartitionedCall/Repeat_2/Tile/multiples", "op": "Const", "attr": {"value": {"tensor": {"dtype": "DT_INT32", "tensorShape": {"dim": [{"size": "2"}]}}}, "dtype": {"type": "DT_INT32"}}}, {"name": "StatefulPartitionedCall/transform_features_layer/StatefulPartitionedCall/one_hot_2/depth", "op": "Const", "attr": {"dtype": {"type": "DT_INT32"}, "value": {"tensor": {"dtype": "DT_INT32", "tensorShape": {}}}}}, {"name": "StatefulPartitionedCall/transform_features_layer/StatefulPartitionedCall/one_hot_2/on_value", "op": "Const", "attr": {"dtype": {"type": "DT_FLOAT"}, "value": {"tensor": {"dtype": "DT_FLOAT", "tensorShape": {}}}}}, {"name": "StatefulPartitionedCall/transform_features_layer/StatefulPartitionedCall/one_hot_2/off_value", "op": "Const", "attr": {"value": {"tensor": {"dtype": "DT_FLOAT", "tensorShape": {}}}, "dtype": {"type": "DT_FLOAT"}}}, {"name": "StatefulPartitionedCall/transform_features_layer/StatefulPartitionedCall/zeros_2", "op": "Const", "attr": {"dtype": {"type": "DT_FLOAT"}, "value": {"tensor": {"dtype": "DT_FLOAT", "tensorShape": {"dim": [{"size": "595"}]}}}}}, {"name": "StatefulPartitionedCall/transform_features_layer/StatefulPartitionedCall/Sum_2/reduction_indices", "op": "Const", "attr": {"value": {"tensor": {"dtype": "DT_INT32", "tensorShape": {}}}, "dtype": {"type": "DT_INT32"}}}, {"name": "StatefulPartitionedCall/model/tf.math.reduce_sum/Sum/reduction_indices", "op": "Const", "attr": {"value": {"tensor": {"dtype": "DT_INT32", "tensorShape": {}}}, "dtype": {"type": "DT_INT32"}}}, {"name": "StatefulPartitionedCall/transform_features_layer/StatefulPartitionedCall/Reshape_2/shape", "op": "Const", "attr": {"value": {"tensor": {"dtype": "DT_INT32", "tensorShape": {"dim": [{"size": "1"}]}}}, "dtype": {"type": "DT_INT32"}}}, {"name": "StatefulPartitionedCall/transform_features_layer/StatefulPartitionedCall/Repeat_1/ExpandDims/dim", "op": "Const", "attr": {"value": {"tensor": {"dtype": "DT_INT32", "tensorShape": {}}}, "dtype": {"type": "DT_INT32"}}}, {"name": "StatefulPartitionedCall/transform_features_layer/StatefulPartitionedCall/Repeat_1/Tile/multiples", "op": "Const", "attr": {"dtype": {"type": "DT_INT32"}, "value": {"tensor": {"dtype": "DT_INT32", "tensorShape": {"dim": [{"size": "2"}]}}}}}, {"name": "StatefulPartitionedCall/transform_features_layer/StatefulPartitionedCall/one_hot_1/depth", "op": "Const", "attr": {"dtype": {"type": "DT_INT32"}, "value": {"tensor": {"dtype": "DT_INT32", "tensorShape": {}}}}}, {"name": "StatefulPartitionedCall/transform_features_layer/StatefulPartitionedCall/one_hot_1/on_value", "op": "Const", "attr": {"dtype": {"type": "DT_FLOAT"}, "value": {"tensor": {"dtype": "DT_FLOAT", "tensorShape": {}}}}}, {"name": "StatefulPartitionedCall/transform_features_layer/StatefulPartitionedCall/one_hot_1/off_value", "op": "Const", "attr": {"value": {"tensor": {"dtype": "DT_FLOAT", "tensorShape": {}}}, "dtype": {"type": "DT_FLOAT"}}}, {"name": "StatefulPartitionedCall/transform_features_layer/StatefulPartitionedCall/zeros_1", "op": "Const", "attr": {"dtype": {"type": "DT_INT64"}, "value": {"tensor": {"dtype": "DT_INT64", "tensorShape": {"dim": [{"size": "595"}]}}}}}, {"name": "StatefulPartitionedCall/transform_features_layer/StatefulPartitionedCall/Sum_1/reduction_indices", "op": "Const", "attr": {"value": {"tensor": {"dtype": "DT_INT32", "tensorShape": {}}}, "dtype": {"type": "DT_INT32"}}}, {"name": "StatefulPartitionedCall/model/tf.math.reduce_sum_1/Sum/reduction_indices", "op": "Const", "attr": {"dtype": {"type": "DT_INT32"}, "value": {"tensor": {"dtype": "DT_INT32", "tensorShape": {}}}}}, {"name": "StatefulPartitionedCall/transform_features_layer/StatefulPartitionedCall/Reshape/shape", "op": "Const", "attr": {"dtype": {"type": "DT_INT32"}, "value": {"tensor": {"dtype": "DT_INT32", "tensorShape": {"dim": [{"size": "1"}]}}}}}, {"name": "StatefulPartitionedCall/transform_features_layer/StatefulPartitionedCall/Repeat/ExpandDims/dim", "op": "Const", "attr": {"dtype": {"type": "DT_INT32"}, "value": {"tensor": {"dtype": "DT_INT32", "tensorShape": {}}}}}, {"name": "StatefulPartitionedCall/transform_features_layer/StatefulPartitionedCall/Repeat/Tile/multiples", "op": "Const", "attr": {"value": {"tensor": {"dtype": "DT_INT32", "tensorShape": {"dim": [{"size": "2"}]}}}, "dtype": {"type": "DT_INT32"}}}, {"name": "StatefulPartitionedCall/transform_features_layer/StatefulPartitionedCall/one_hot/depth", "op": "Const", "attr": {"dtype": {"type": "DT_INT32"}, "value": {"tensor": {"dtype": "DT_INT32", "tensorShape": {}}}}}, {"name": "StatefulPartitionedCall/transform_features_layer/StatefulPartitionedCall/one_hot/on_value", "op": "Const", "attr": {"dtype": {"type": "DT_FLOAT"}, "value": {"tensor": {"dtype": "DT_FLOAT", "tensorShape": {}}}}}, {"name": "StatefulPartitionedCall/transform_features_layer/StatefulPartitionedCall/one_hot/off_value", "op": "Const", "attr": {"dtype": {"type": "DT_FLOAT"}, "value": {"tensor": {"dtype": "DT_FLOAT", "tensorShape": {}}}}}, {"name": "StatefulPartitionedCall/transform_features_layer/StatefulPartitionedCall/zeros", "op": "Const", "attr": {"value": {"tensor": {"dtype": "DT_FLOAT", "tensorShape": {"dim": [{"size": "595"}]}}}, "dtype": {"type": "DT_FLOAT"}}}, {"name": "StatefulPartitionedCall/transform_features_layer/StatefulPartitionedCall/Sum/reduction_indices", "op": "Const", "attr": {"dtype": {"type": "DT_INT32"}, "value": {"tensor": {"dtype": "DT_INT32", "tensorShape": {}}}}}, {"name": "StatefulPartitionedCall/model/tf.math.reduce_sum_2/Sum/reduction_indices", "op": "Const", "attr": {"dtype": {"type": "DT_INT32"}, "value": {"tensor": {"dtype": "DT_INT32", "tensorShape": {}}}}}, {"name": "StatefulPartitionedCall/transform_features_layer/StatefulPartitionedCall/Reshape_6/shape", "op": "Const", "attr": {"dtype": {"type": "DT_INT32"}, "value": {"tensor": {"dtype": "DT_INT32", "tensorShape": {"dim": [{"size": "1"}]}}}}}, {"name": "StatefulPartitionedCall/transform_features_layer/StatefulPartitionedCall/Repeat_3/ExpandDims/dim", "op": "Const", "attr": {"dtype": {"type": "DT_INT32"}, "value": {"tensor": {"dtype": "DT_INT32", "tensorShape": {}}}}}, {"name": "StatefulPartitionedCall/transform_features_layer/StatefulPartitionedCall/Repeat_3/Tile/multiples", "op": "Const", "attr": {"value": {"tensor": {"dtype": "DT_INT32", "tensorShape": {"dim": [{"size": "2"}]}}}, "dtype": {"type": "DT_INT32"}}}, {"name": "StatefulPartitionedCall/transform_features_layer/StatefulPartitionedCall/one_hot_3/depth", "op": "Const", "attr": {"value": {"tensor": {"dtype": "DT_INT32", "tensorShape": {}}}, "dtype": {"type": "DT_INT32"}}}, {"name": "StatefulPartitionedCall/transform_features_layer/StatefulPartitionedCall/one_hot_3/on_value", "op": "Const", "attr": {"value": {"tensor": {"dtype": "DT_FLOAT", "tensorShape": {}}}, "dtype": {"type": "DT_FLOAT"}}}, {"name": "StatefulPartitionedCall/transform_features_layer/StatefulPartitionedCall/one_hot_3/off_value", "op": "Const", "attr": {"value": {"tensor": {"dtype": "DT_FLOAT", "tensorShape": {}}}, "dtype": {"type": "DT_FLOAT"}}}, {"name": "StatefulPartitionedCall/transform_features_layer/StatefulPartitionedCall/zeros_3", "op": "Const", "attr": {"dtype": {"type": "DT_FLOAT"}, "value": {"tensor": {"dtype": "DT_FLOAT", "tensorShape": {"dim": [{"size": "595"}]}}}}}, {"name": "StatefulPartitionedCall/transform_features_layer/StatefulPartitionedCall/Sum_3/reduction_indices", "op": "Const", "attr": {"value": {"tensor": {"dtype": "DT_INT32", "tensorShape": {}}}, "dtype": {"type": "DT_INT32"}}}, {"name": "StatefulPartitionedCall/model/ExpandDims_17/dim", "op": "Const", "attr": {"value": {"tensor": {"dtype": "DT_INT32", "tensorShape": {}}}, "dtype": {"type": "DT_INT32"}}}, {"name": "StatefulPartitionedCall/model/tf.reshape_2/Reshape/shape", "op": "Const", "attr": {"dtype": {"type": "DT_INT32"}, "value": {"tensor": {"dtype": "DT_INT32", "tensorShape": {"dim": [{"size": "1"}]}}}}}, {"name": "StatefulPartitionedCall/model/tf.one_hot_1/one_hot/depth", "op": "Const", "attr": {"value": {"tensor": {"dtype": "DT_INT32", "tensorShape": {}}}, "dtype": {"type": "DT_INT32"}}}, {"name": "StatefulPartitionedCall/model/tf.one_hot_1/one_hot/on_value", "op": "Const", "attr": {"value": {"tensor": {"dtype": "DT_FLOAT", "tensorShape": {}}}, "dtype": {"type": "DT_FLOAT"}}}, {"name": "StatefulPartitionedCall/model/tf.one_hot_1/one_hot/off_value", "op": "Const", "attr": {"dtype": {"type": "DT_FLOAT"}, "value": {"tensor": {"dtype": "DT_FLOAT", "tensorShape": {}}}}}, {"name": "StatefulPartitionedCall/model/tf.math.reduce_sum_3/Sum/reduction_indices", "op": "Const", "attr": {"dtype": {"type": "DT_INT32"}, "value": {"tensor": {"dtype": "DT_INT32", "tensorShape": {}}}}}, {"name": "unknown_105", "op": "Const", "attr": {"dtype": {"type": "DT_FLOAT"}, "value": {"tensor": {"dtype": "DT_FLOAT", "tensorShape": {"dim": [{"size": "10"}, {"size": "4"}]}}}}}, {"name": "StatefulPartitionedCall/transform_features_layer/StatefulPartitionedCall/Equal_16/y", "op": "Const", "attr": {"value": {"tensor": {"dtype": "DT_INT64", "tensorShape": {}}}, "dtype": {"type": "DT_INT64"}}}, {"name": "StatefulPartitionedCall/transform_features_layer/StatefulPartitionedCall/ones_like_17/Const", "op": "Const", "attr": {"value": {"tensor": {"dtype": "DT_INT64", "tensorShape": {}}}, "dtype": {"type": "DT_INT64"}}}, {"name": "StatefulPartitionedCall/transform_features_layer/StatefulPartitionedCall/add_16", "op": "Const", "attr": {"dtype": {"type": "DT_INT64"}, "value": {"tensor": {"dtype": "DT_INT64", "tensorShape": {}}}}}, {"name": "StatefulPartitionedCall/model/ExpandDims/dim", "op": "Const", "attr": {"value": {"tensor": {"dtype": "DT_INT32", "tensorShape": {}}}, "dtype": {"type": "DT_INT32"}}}, {"name": "StatefulPartitionedCall/model/embedding_17/embedding_lookup/axis", "op": "Const", "attr": {"value": {"tensor": {"dtype": "DT_INT64", "tensorShape": {}}}, "dtype": {"type": "DT_INT64"}}}, {"name": "unknown_104", "op": "Const", "attr": {"value": {"tensor": {"dtype": "DT_FLOAT", "tensorShape": {"dim": [{"size": "10"}, {"size": "4"}]}}}, "dtype": {"type": "DT_FLOAT"}}}, {"name": "StatefulPartitionedCall/transform_features_layer/StatefulPartitionedCall/Equal_11/y", "op": "Const", "attr": {"value": {"tensor": {"dtype": "DT_INT64", "tensorShape": {}}}, "dtype": {"type": "DT_INT64"}}}, {"name": "StatefulPartitionedCall/transform_features_layer/StatefulPartitionedCall/ones_like_12/Const", "op": "Const", "attr": {"dtype": {"type": "DT_INT64"}, "value": {"tensor": {"dtype": "DT_INT64", "tensorShape": {}}}}}, {"name": "StatefulPartitionedCall/transform_features_layer/StatefulPartitionedCall/add_11", "op": "Const", "attr": {"dtype": {"type": "DT_INT64"}, "value": {"tensor": {"dtype": "DT_INT64", "tensorShape": {}}}}}, {"name": "StatefulPartitionedCall/model/ExpandDims_1/dim", "op": "Const", "attr": {"dtype": {"type": "DT_INT32"}, "value": {"tensor": {"dtype": "DT_INT32", "tensorShape": {}}}}}, {"name": "StatefulPartitionedCall/model/embedding_12/embedding_lookup/axis", "op": "Const", "attr": {"value": {"tensor": {"dtype": "DT_INT64", "tensorShape": {}}}, "dtype": {"type": "DT_INT64"}}}, {"name": "unknown_103", "op": "Const", "attr": {"dtype": {"type": "DT_FLOAT"}, "value": {"tensor": {"dtype": "DT_FLOAT", "tensorShape": {"dim": [{"size": "19"}, {"size": "6"}]}}}}}, {"name": "StatefulPartitionedCall/transform_features_layer/StatefulPartitionedCall/Equal/y", "op": "Const", "attr": {"dtype": {"type": "DT_INT64"}, "value": {"tensor": {"dtype": "DT_INT64", "tensorShape": {}}}}}, {"name": "StatefulPartitionedCall/transform_features_layer/StatefulPartitionedCall/ones_like/Const", "op": "Const", "attr": {"dtype": {"type": "DT_INT64"}, "value": {"tensor": {"dtype": "DT_INT64", "tensorShape": {}}}}}, {"name": "StatefulPartitionedCall/transform_features_layer/StatefulPartitionedCall/add", "op": "Const", "attr": {"dtype": {"type": "DT_INT64"}, "value": {"tensor": {"dtype": "DT_INT64", "tensorShape": {}}}}}, {"name": "StatefulPartitionedCall/model/ExpandDims_2/dim", "op": "Const", "attr": {"dtype": {"type": "DT_INT32"}, "value": {"tensor": {"dtype": "DT_INT32", "tensorShape": {}}}}}, {"name": "StatefulPartitionedCall/model/embedding/embedding_lookup/axis", "op": "Const", "attr": {"dtype": {"type": "DT_INT64"}, "value": {"tensor": {"dtype": "DT_INT64", "tensorShape": {}}}}}, {"name": "unknown_102", "op": "Const", "attr": {"dtype": {"type": "DT_FLOAT"}, "value": {"tensor": {"dtype": "DT_FLOAT", "tensorShape": {"dim": [{"size": "6"}, {"size": "4"}]}}}}}, {"name": "StatefulPartitionedCall/transform_features_layer/StatefulPartitionedCall/Equal_20/y", "op": "Const", "attr": {"value": {"tensor": {"dtype": "DT_INT64", "tensorShape": {}}}, "dtype": {"type": "DT_INT64"}}}, {"name": "StatefulPartitionedCall/transform_features_layer/StatefulPartitionedCall/ones_like_21/Const", "op": "Const", "attr": {"dtype": {"type": "DT_INT64"}, "value": {"tensor": {"dtype": "DT_INT64", "tensorShape": {}}}}}, {"name": "StatefulPartitionedCall/transform_features_layer/StatefulPartitionedCall/add_20", "op": "Const", "attr": {"value": {"tensor": {"dtype": "DT_INT64", "tensorShape": {}}}, "dtype": {"type": "DT_INT64"}}}, {"name": "StatefulPartitionedCall/model/ExpandDims_3/dim", "op": "Const", "attr": {"dtype": {"type": "DT_INT32"}, "value": {"tensor": {"dtype": "DT_INT32", "tensorShape": {}}}}}, {"name": "StatefulPartitionedCall/model/embedding_21/embedding_lookup/axis", "op": "Const", "attr": {"dtype": {"type": "DT_INT64"}, "value": {"tensor": {"dtype": "DT_INT64", "tensorShape": {}}}}}, {"name": "unknown_101", "op": "Const", "attr": {"value": {"tensor": {"dtype": "DT_FLOAT", "tensorShape": {"dim": [{"size": "24"}, {"size": "6"}]}}}, "dtype": {"type": "DT_FLOAT"}}}, {"name": "StatefulPartitionedCall/transform_features_layer/StatefulPartitionedCall/Equal_5/y", "op": "Const", "attr": {"dtype": {"type": "DT_INT64"}, "value": {"tensor": {"dtype": "DT_INT64", "tensorShape": {}}}}}, {"name": "StatefulPartitionedCall/transform_features_layer/StatefulPartitionedCall/ones_like_5/Const", "op": "Const", "attr": {"value": {"tensor": {"dtype": "DT_INT64", "tensorShape": {}}}, "dtype": {"type": "DT_INT64"}}}, {"name": "StatefulPartitionedCall/transform_features_layer/StatefulPartitionedCall/add_5", "op": "Const", "attr": {"value": {"tensor": {"dtype": "DT_INT64", "tensorShape": {}}}, "dtype": {"type": "DT_INT64"}}}, {"name": "StatefulPartitionedCall/model/ExpandDims_4/dim", "op": "Const", "attr": {"dtype": {"type": "DT_INT32"}, "value": {"tensor": {"dtype": "DT_INT32", "tensorShape": {}}}}}, {"name": "StatefulPartitionedCall/model/embedding_6/embedding_lookup/axis", "op": "Const", "attr": {"dtype": {"type": "DT_INT64"}, "value": {"tensor": {"dtype": "DT_INT64", "tensorShape": {}}}}}, {"name": "unknown_100", "op": "Const", "attr": {"dtype": {"type": "DT_FLOAT"}, "value": {"tensor": {"dtype": "DT_FLOAT", "tensorShape": {"dim": [{"size": "10"}, {"size": "4"}]}}}}}, {"name": "StatefulPartitionedCall/transform_features_layer/StatefulPartitionedCall/Equal_1/y", "op": "Const", "attr": {"dtype": {"type": "DT_INT64"}, "value": {"tensor": {"dtype": "DT_INT64", "tensorShape": {}}}}}, {"name": "StatefulPartitionedCall/transform_features_layer/StatefulPartitionedCall/ones_like_1/Const", "op": "Const", "attr": {"dtype": {"type": "DT_INT64"}, "value": {"tensor": {"dtype": "DT_INT64", "tensorShape": {}}}}}, {"name": "StatefulPartitionedCall/transform_features_layer/StatefulPartitionedCall/add_1", "op": "Const", "attr": {"dtype": {"type": "DT_INT64"}, "value": {"tensor": {"dtype": "DT_INT64", "tensorShape": {}}}}}, {"name": "StatefulPartitionedCall/model/ExpandDims_5/dim", "op": "Const", "attr": {"value": {"tensor": {"dtype": "DT_INT32", "tensorShape": {}}}, "dtype": {"type": "DT_INT32"}}}, {"name": "StatefulPartitionedCall/model/embedding_1/embedding_lookup/axis", "op": "Const", "attr": {"value": {"tensor": {"dtype": "DT_INT64", "tensorShape": {}}}, "dtype": {"type": "DT_INT64"}}}, {"name": "unknown_99", "op": "Const", "attr": {"dtype": {"type": "DT_FLOAT"}, "value": {"tensor": {"dtype": "DT_FLOAT", "tensorShape": {"dim": [{"size": "8"}, {"size": "4"}]}}}}}, {"name": "StatefulPartitionedCall/transform_features_layer/StatefulPartitionedCall/Equal_19/y", "op": "Const", "attr": {"value": {"tensor": {"dtype": "DT_INT64", "tensorShape": {}}}, "dtype": {"type": "DT_INT64"}}}, {"name": "StatefulPartitionedCall/transform_features_layer/StatefulPartitionedCall/ones_like_20/Const", "op": "Const", "attr": {"value": {"tensor": {"dtype": "DT_INT64", "tensorShape": {}}}, "dtype": {"type": "DT_INT64"}}}, {"name": "StatefulPartitionedCall/transform_features_layer/StatefulPartitionedCall/add_19", "op": "Const", "attr": {"dtype": {"type": "DT_INT64"}, "value": {"tensor": {"dtype": "DT_INT64", "tensorShape": {}}}}}, {"name": "StatefulPartitionedCall/model/ExpandDims_6/dim", "op": "Const", "attr": {"dtype": {"type": "DT_INT32"}, "value": {"tensor": {"dtype": "DT_INT32", "tensorShape": {}}}}}, {"name": "StatefulPartitionedCall/model/embedding_20/embedding_lookup/axis", "op": "Const", "attr": {"dtype": {"type": "DT_INT64"}, "value": {"tensor": {"dtype": "DT_INT64", "tensorShape": {}}}}}, {"name": "unknown_98", "op": "Const", "attr": {"dtype": {"type": "DT_FLOAT"}, "value": {"tensor": {"dtype": "DT_FLOAT", "tensorShape": {"dim": [{"size": "7"}, {"size": "4"}]}}}}}, {"name": "StatefulPartitionedCall/transform_features_layer/StatefulPartitionedCall/Equal_17/y", "op": "Const", "attr": {"value": {"tensor": {"dtype": "DT_INT64", "tensorShape": {}}}, "dtype": {"type": "DT_INT64"}}}, {"name": "StatefulPartitionedCall/transform_features_layer/StatefulPartitionedCall/ones_like_18/Const", "op": "Const", "attr": {"value": {"tensor": {"dtype": "DT_INT64", "tensorShape": {}}}, "dtype": {"type": "DT_INT64"}}}, {"name": "StatefulPartitionedCall/transform_features_layer/StatefulPartitionedCall/add_17", "op": "Const", "attr": {"dtype": {"type": "DT_INT64"}, "value": {"tensor": {"dtype": "DT_INT64", "tensorShape": {}}}}}, {"name": "StatefulPartitionedCall/model/ExpandDims_7/dim", "op": "Const", "attr": {"value": {"tensor": {"dtype": "DT_INT32", "tensorShape": {}}}, "dtype": {"type": "DT_INT32"}}}, {"name": "StatefulPartitionedCall/model/embedding_18/embedding_lookup/axis", "op": "Const", "attr": {"dtype": {"type": "DT_INT64"}, "value": {"tensor": {"dtype": "DT_INT64", "tensorShape": {}}}}}, {"name": "unknown_97", "op": "Const", "attr": {"value": {"tensor": {"dtype": "DT_FLOAT", "tensorShape": {"dim": [{"size": "7"}, {"size": "4"}]}}}, "dtype": {"type": "DT_FLOAT"}}}, {"name": "StatefulPartitionedCall/transform_features_layer/StatefulPartitionedCall/Equal_9/y", "op": "Const", "attr": {"dtype": {"type": "DT_INT64"}, "value": {"tensor": {"dtype": "DT_INT64", "tensorShape": {}}}}}, {"name": "StatefulPartitionedCall/transform_features_layer/StatefulPartitionedCall/ones_like_10/Const", "op": "Const", "attr": {"dtype": {"type": "DT_INT64"}, "value": {"tensor": {"dtype": "DT_INT64", "tensorShape": {}}}}}, {"name": "StatefulPartitionedCall/transform_features_layer/StatefulPartitionedCall/add_9", "op": "Const", "attr": {"value": {"tensor": {"dtype": "DT_INT64", "tensorShape": {}}}, "dtype": {"type": "DT_INT64"}}}, {"name": "StatefulPartitionedCall/model/ExpandDims_8/dim", "op": "Const", "attr": {"dtype": {"type": "DT_INT32"}, "value": {"tensor": {"dtype": "DT_INT32", "tensorShape": {}}}}}, {"name": "StatefulPartitionedCall/model/embedding_10/embedding_lookup/axis", "op": "Const", "attr": {"dtype": {"type": "DT_INT64"}, "value": {"tensor": {"dtype": "DT_INT64", "tensorShape": {}}}}}, {"name": "StatefulPartitionedCall/model/ExpandDims_10/dim", "op": "Const", "attr": {"dtype": {"type": "DT_INT32"}, "value": {"tensor": {"dtype": "DT_INT32", "tensorShape": {}}}}}, {"name": "StatefulPartitionedCall/model/ExpandDims_11/dim", "op": "Const", "attr": {"dtype": {"type": "DT_INT32"}, "value": {"tensor": {"dtype": "DT_INT32", "tensorShape": {}}}}}, {"name": "unknown_96", "op": "Const", "attr": {"value": {"tensor": {"dtype": "DT_FLOAT", "tensorShape": {"dim": [{"size": "12"}, {"size": "4"}]}}}, "dtype": {"type": "DT_FLOAT"}}}, {"name": "StatefulPartitionedCall/transform_features_layer/StatefulPartitionedCall/Equal_12/y", "op": "Const", "attr": {"dtype": {"type": "DT_INT64"}, "value": {"tensor": {"dtype": "DT_INT64", "tensorShape": {}}}}}, {"name": "StatefulPartitionedCall/transform_features_layer/StatefulPartitionedCall/ones_like_13/Const", "op": "Const", "attr": {"value": {"tensor": {"dtype": "DT_INT64", "tensorShape": {}}}, "dtype": {"type": "DT_INT64"}}}, {"name": "StatefulPartitionedCall/transform_features_layer/StatefulPartitionedCall/add_12", "op": "Const", "attr": {"dtype": {"type": "DT_INT64"}, "value": {"tensor": {"dtype": "DT_INT64", "tensorShape": {}}}}}, {"name": "StatefulPartitionedCall/model/ExpandDims_12/dim", "op": "Const", "attr": {"dtype": {"type": "DT_INT32"}, "value": {"tensor": {"dtype": "DT_INT32", "tensorShape": {}}}}}, {"name": "StatefulPartitionedCall/model/embedding_13/embedding_lookup/axis", "op": "Const", "attr": {"dtype": {"type": "DT_INT64"}, "value": {"tensor": {"dtype": "DT_INT64", "tensorShape": {}}}}}, {"name": "unknown_95", "op": "Const", "attr": {"dtype": {"type": "DT_FLOAT"}, "value": {"tensor": {"dtype": "DT_FLOAT", "tensorShape": {"dim": [{"size": "23"}, {"size": "6"}]}}}}}, {"name": "StatefulPartitionedCall/transform_features_layer/StatefulPartitionedCall/Equal_7/y", "op": "Const", "attr": {"dtype": {"type": "DT_INT64"}, "value": {"tensor": {"dtype": "DT_INT64", "tensorShape": {}}}}}, {"name": "StatefulPartitionedCall/transform_features_layer/StatefulPartitionedCall/ones_like_8/Const", "op": "Const", "attr": {"value": {"tensor": {"dtype": "DT_INT64", "tensorShape": {}}}, "dtype": {"type": "DT_INT64"}}}, {"name": "StatefulPartitionedCall/transform_features_layer/StatefulPartitionedCall/add_7", "op": "Const", "attr": {"dtype": {"type": "DT_INT64"}, "value": {"tensor": {"dtype": "DT_INT64", "tensorShape": {}}}}}, {"name": "StatefulPartitionedCall/model/ExpandDims_13/dim", "op": "Const", "attr": {"dtype": {"type": "DT_INT32"}, "value": {"tensor": {"dtype": "DT_INT32", "tensorShape": {}}}}}, {"name": "StatefulPartitionedCall/model/embedding_8/embedding_lookup/axis", "op": "Const", "attr": {"value": {"tensor": {"dtype": "DT_INT64", "tensorShape": {}}}, "dtype": {"type": "DT_INT64"}}}, {"name": "unknown_94", "op": "Const", "attr": {"dtype": {"type": "DT_FLOAT"}, "value": {"tensor": {"dtype": "DT_FLOAT", "tensorShape": {"dim": [{"size": "20"}, {"size": "6"}]}}}}}, {"name": "StatefulPartitionedCall/transform_features_layer/StatefulPartitionedCall/Equal_3/y", "op": "Const", "attr": {"dtype": {"type": "DT_INT64"}, "value": {"tensor": {"dtype": "DT_INT64", "tensorShape": {}}}}}, {"name": "StatefulPartitionedCall/transform_features_layer/StatefulPartitionedCall/ones_like_3/Const", "op": "Const", "attr": {"dtype": {"type": "DT_INT64"}, "value": {"tensor": {"dtype": "DT_INT64", "tensorShape": {}}}}}, {"name": "StatefulPartitionedCall/transform_features_layer/StatefulPartitionedCall/add_3", "op": "Const", "attr": {"dtype": {"type": "DT_INT64"}, "value": {"tensor": {"dtype": "DT_INT64", "tensorShape": {}}}}}, {"name": "StatefulPartitionedCall/model/ExpandDims_14/dim", "op": "Const", "attr": {"dtype": {"type": "DT_INT32"}, "value": {"tensor": {"dtype": "DT_INT32", "tensorShape": {}}}}}, {"name": "StatefulPartitionedCall/model/embedding_4/embedding_lookup/axis", "op": "Const", "attr": {"dtype": {"type": "DT_INT64"}, "value": {"tensor": {"dtype": "DT_INT64", "tensorShape": {}}}}}, {"name": "unknown_93", "op": "Const", "attr": {"dtype": {"type": "DT_FLOAT"}, "value": {"tensor": {"dtype": "DT_FLOAT", "tensorShape": {"dim": [{"size": "22"}, {"size": "6"}]}}}}}, {"name": "StatefulPartitionedCall/transform_features_layer/StatefulPartitionedCall/Equal_6/y", "op": "Const", "attr": {"value": {"tensor": {"dtype": "DT_INT64", "tensorShape": {}}}, "dtype": {"type": "DT_INT64"}}}, {"name": "StatefulPartitionedCall/transform_features_layer/StatefulPartitionedCall/ones_like_7/Const", "op": "Const", "attr": {"dtype": {"type": "DT_INT64"}, "value": {"tensor": {"dtype": "DT_INT64", "tensorShape": {}}}}}, {"name": "StatefulPartitionedCall/transform_features_layer/StatefulPartitionedCall/add_6", "op": "Const", "attr": {"dtype": {"type": "DT_INT64"}, "value": {"tensor": {"dtype": "DT_INT64", "tensorShape": {}}}}}, {"name": "StatefulPartitionedCall/transform_features_layer/StatefulPartitionedCall/Greater/y", "op": "Const", "attr": {"value": {"tensor": {"dtype": "DT_INT64", "tensorShape": {}}}, "dtype": {"type": "DT_INT64"}}}, {"name": "StatefulPartitionedCall/transform_features_layer/StatefulPartitionedCall/ones_like_6/Const", "op": "Const", "attr": {"dtype": {"type": "DT_INT64"}, "value": {"tensor": {"dtype": "DT_INT64", "tensorShape": {}}}}}, {"name": "StatefulPartitionedCall/transform_features_layer/StatefulPartitionedCall/mul_6/y", "op": "Const", "attr": {"dtype": {"type": "DT_INT64"}, "value": {"tensor": {"dtype": "DT_INT64", "tensorShape": {}}}}}, {"name": "StatefulPartitionedCall/model/ExpandDims_15/dim", "op": "Const", "attr": {"dtype": {"type": "DT_INT32"}, "value": {"tensor": {"dtype": "DT_INT32", "tensorShape": {}}}}}, {"name": "StatefulPartitionedCall/model/embedding_7/embedding_lookup/axis", "op": "Const", "attr": {"value": {"tensor": {"dtype": "DT_INT64", "tensorShape": {}}}, "dtype": {"type": "DT_INT64"}}}, {"name": "unknown_92", "op": "Const", "attr": {"value": {"tensor": {"dtype": "DT_FLOAT", "tensorShape": {"dim": [{"size": "20"}, {"size": "6"}]}}}, "dtype": {"type": "DT_FLOAT"}}}, {"name": "StatefulPartitionedCall/transform_features_layer/StatefulPartitionedCall/bucketize/apply_buckets/assign_buckets/Reshape_2", "op": "Const", "attr": {"dtype": {"type": "DT_FLOAT"}, "value": {"tensor": {"dtype": "DT_FLOAT", "tensorShape": {"dim": [{"size": "1"}, {"size": "19"}]}}}}}, {"name": "StatefulPartitionedCall/transform_features_layer/StatefulPartitionedCall/bucketize/apply_buckets/assign_buckets/Reshape_3/shape/0", "op": "Const", "attr": {"value": {"tensor": {"dtype": "DT_INT32", "tensorShape": {}}}, "dtype": {"type": "DT_INT32"}}}, {"name": "StatefulPartitionedCall/transform_features_layer/StatefulPartitionedCall/bucketize/apply_buckets/assign_buckets/Reshape/shape", "op": "Const", "attr": {"dtype": {"type": "DT_INT32"}, "value": {"tensor": {"dtype": "DT_INT32", "tensorShape": {"dim": [{"size": "1"}]}}}}}, {"name": "StatefulPartitionedCall/transform_features_layer/StatefulPartitionedCall/bucketize/apply_buckets/assign_buckets/strided_slice_1/stack", "op": "Const", "attr": {"dtype": {"type": "DT_INT32"}, "value": {"tensor": {"dtype": "DT_INT32", "tensorShape": {"dim": [{"size": "1"}]}}}}}, {"name": "StatefulPartitionedCall/transform_features_layer/StatefulPartitionedCall/bucketize/apply_buckets/assign_buckets/strided_slice_1/stack_1", "op": "Const", "attr": {"dtype": {"type": "DT_INT32"}, "value": {"tensor": {"dtype": "DT_INT32", "tensorShape": {"dim": [{"size": "1"}]}}}}}, {"name": "StatefulPartitionedCall/transform_features_layer/StatefulPartitionedCall/bucketize/apply_buckets/assign_buckets/strided_slice_1/stack_2", "op": "Const", "attr": {"dtype": {"type": "DT_INT32"}, "value": {"tensor": {"dtype": "DT_INT32", "tensorShape": {"dim": [{"size": "1"}]}}}}}, {"name": "StatefulPartitionedCall/model/ExpandDims_16/dim", "op": "Const", "attr": {"value": {"tensor": {"dtype": "DT_INT32", "tensorShape": {}}}, "dtype": {"type": "DT_INT32"}}}, {"name": "StatefulPartitionedCall/model/embedding_3/embedding_lookup/axis", "op": "Const", "attr": {"dtype": {"type": "DT_INT64"}, "value": {"tensor": {"dtype": "DT_INT64", "tensorShape": {}}}}}, {"name": "unknown_91", "op": "Const", "attr": {"value": {"tensor": {"dtype": "DT_FLOAT", "tensorShape": {"dim": [{"size": "7"}, {"size": "4"}]}}}, "dtype": {"type": "DT_FLOAT"}}}, {"name": "StatefulPartitionedCall/transform_features_layer/StatefulPartitionedCall/Equal_18/y", "op": "Const", "attr": {"dtype": {"type": "DT_INT64"}, "value": {"tensor": {"dtype": "DT_INT64", "tensorShape": {}}}}}, {"name": "StatefulPartitionedCall/transform_features_layer/StatefulPartitionedCall/ones_like_19/Const", "op": "Const", "attr": {"value": {"tensor": {"dtype": "DT_INT64", "tensorShape": {}}}, "dtype": {"type": "DT_INT64"}}}, {"name": "StatefulPartitionedCall/transform_features_layer/StatefulPartitionedCall/add_18", "op": "Const", "attr": {"dtype": {"type": "DT_INT64"}, "value": {"tensor": {"dtype": "DT_INT64", "tensorShape": {}}}}}, {"name": "StatefulPartitionedCall/model/ExpandDims_18/dim", "op": "Const", "attr": {"dtype": {"type": "DT_INT32"}, "value": {"tensor": {"dtype": "DT_INT32", "tensorShape": {}}}}}, {"name": "StatefulPartitionedCall/model/embedding_19/embedding_lookup/axis", "op": "Const", "attr": {"value": {"tensor": {"dtype": "DT_INT64", "tensorShape": {}}}, "dtype": {"type": "DT_INT64"}}}, {"name": "unknown_90", "op": "Const", "attr": {"value": {"tensor": {"dtype": "DT_FLOAT", "tensorShape": {"dim": [{"size": "7"}, {"size": "4"}]}}}, "dtype": {"type": "DT_FLOAT"}}}, {"name": "StatefulPartitionedCall/transform_features_layer/StatefulPartitionedCall/Equal_10/y", "op": "Const", "attr": {"value": {"tensor": {"dtype": "DT_INT64", "tensorShape": {}}}, "dtype": {"type": "DT_INT64"}}}, {"name": "StatefulPartitionedCall/transform_features_layer/StatefulPartitionedCall/ones_like_11/Const", "op": "Const", "attr": {"dtype": {"type": "DT_INT64"}, "value": {"tensor": {"dtype": "DT_INT64", "tensorShape": {}}}}}, {"name": "StatefulPartitionedCall/transform_features_layer/StatefulPartitionedCall/add_10", "op": "Const", "attr": {"dtype": {"type": "DT_INT64"}, "value": {"tensor": {"dtype": "DT_INT64", "tensorShape": {}}}}}, {"name": "StatefulPartitionedCall/model/ExpandDims_19/dim", "op": "Const", "attr": {"dtype": {"type": "DT_INT32"}, "value": {"tensor": {"dtype": "DT_INT32", "tensorShape": {}}}}}, {"name": "StatefulPartitionedCall/model/embedding_11/embedding_lookup/axis", "op": "Const", "attr": {"value": {"tensor": {"dtype": "DT_INT64", "tensorShape": {}}}, "dtype": {"type": "DT_INT64"}}}, {"name": "StatefulPartitionedCall/model/ExpandDims_20/dim", "op": "Const", "attr": {"value": {"tensor": {"dtype": "DT_INT32", "tensorShape": {}}}, "dtype": {"type": "DT_INT32"}}}, {"name": "StatefulPartitionedCall/model/ExpandDims_21/dim", "op": "Const", "attr": {"value": {"tensor": {"dtype": "DT_INT32", "tensorShape": {}}}, "dtype": {"type": "DT_INT32"}}}, {"name": "unknown_89", "op": "Const", "attr": {"value": {"tensor": {"dtype": "DT_FLOAT", "tensorShape": {"dim": [{"size": "12"}, {"size": "4"}]}}}, "dtype": {"type": "DT_FLOAT"}}}, {"name": "StatefulPartitionedCall/transform_features_layer/StatefulPartitionedCall/Equal_13/y", "op": "Const", "attr": {"dtype": {"type": "DT_INT64"}, "value": {"tensor": {"dtype": "DT_INT64", "tensorShape": {}}}}}, {"name": "StatefulPartitionedCall/transform_features_layer/StatefulPartitionedCall/ones_like_14/Const", "op": "Const", "attr": {"value": {"tensor": {"dtype": "DT_INT64", "tensorShape": {}}}, "dtype": {"type": "DT_INT64"}}}, {"name": "StatefulPartitionedCall/transform_features_layer/StatefulPartitionedCall/add_13", "op": "Const", "attr": {"value": {"tensor": {"dtype": "DT_INT64", "tensorShape": {}}}, "dtype": {"type": "DT_INT64"}}}, {"name": "StatefulPartitionedCall/model/ExpandDims_22/dim", "op": "Const", "attr": {"value": {"tensor": {"dtype": "DT_INT32", "tensorShape": {}}}, "dtype": {"type": "DT_INT32"}}}, {"name": "StatefulPartitionedCall/model/embedding_14/embedding_lookup/axis", "op": "Const", "attr": {"dtype": {"type": "DT_INT64"}, "value": {"tensor": {"dtype": "DT_INT64", "tensorShape": {}}}}}, {"name": "unknown_88", "op": "Const", "attr": {"value": {"tensor": {"dtype": "DT_FLOAT", "tensorShape": {"dim": [{"size": "23"}, {"size": "6"}]}}}, "dtype": {"type": "DT_FLOAT"}}}, {"name": "StatefulPartitionedCall/transform_features_layer/StatefulPartitionedCall/Equal_8/y", "op": "Const", "attr": {"value": {"tensor": {"dtype": "DT_INT64", "tensorShape": {}}}, "dtype": {"type": "DT_INT64"}}}, {"name": "StatefulPartitionedCall/transform_features_layer/StatefulPartitionedCall/ones_like_9/Const", "op": "Const", "attr": {"dtype": {"type": "DT_INT64"}, "value": {"tensor": {"dtype": "DT_INT64", "tensorShape": {}}}}}, {"name": "StatefulPartitionedCall/transform_features_layer/StatefulPartitionedCall/add_8", "op": "Const", "attr": {"value": {"tensor": {"dtype": "DT_INT64", "tensorShape": {}}}, "dtype": {"type": "DT_INT64"}}}, {"name": "StatefulPartitionedCall/model/ExpandDims_23/dim", "op": "Const", "attr": {"dtype": {"type": "DT_INT32"}, "value": {"tensor": {"dtype": "DT_INT32", "tensorShape": {}}}}}, {"name": "StatefulPartitionedCall/model/embedding_9/embedding_lookup/axis", "op": "Const", "attr": {"dtype": {"type": "DT_INT64"}, "value": {"tensor": {"dtype": "DT_INT64", "tensorShape": {}}}}}, {"name": "unknown_87", "op": "Const", "attr": {"value": {"tensor": {"dtype": "DT_FLOAT", "tensorShape": {"dim": [{"size": "10"}, {"size": "4"}]}}}, "dtype": {"type": "DT_FLOAT"}}}, {"name": "StatefulPartitionedCall/transform_features_layer/StatefulPartitionedCall/Equal_15/y", "op": "Const", "attr": {"value": {"tensor": {"dtype": "DT_INT64", "tensorShape": {}}}, "dtype": {"type": "DT_INT64"}}}, {"name": "StatefulPartitionedCall/transform_features_layer/StatefulPartitionedCall/ones_like_16/Const", "op": "Const", "attr": {"value": {"tensor": {"dtype": "DT_INT64", "tensorShape": {}}}, "dtype": {"type": "DT_INT64"}}}, {"name": "StatefulPartitionedCall/transform_features_layer/StatefulPartitionedCall/add_15", "op": "Const", "attr": {"value": {"tensor": {"dtype": "DT_INT64", "tensorShape": {}}}, "dtype": {"type": "DT_INT64"}}}, {"name": "StatefulPartitionedCall/model/ExpandDims_24/dim", "op": "Const", "attr": {"value": {"tensor": {"dtype": "DT_INT32", "tensorShape": {}}}, "dtype": {"type": "DT_INT32"}}}, {"name": "StatefulPartitionedCall/model/embedding_16/embedding_lookup/axis", "op": "Const", "attr": {"dtype": {"type": "DT_INT64"}, "value": {"tensor": {"dtype": "DT_INT64", "tensorShape": {}}}}}, {"name": "StatefulPartitionedCall/model/ExpandDims_25/dim", "op": "Const", "attr": {"value": {"tensor": {"dtype": "DT_INT32", "tensorShape": {}}}, "dtype": {"type": "DT_INT32"}}}, {"name": "StatefulPartitionedCall/model/ExpandDims_26/dim", "op": "Const", "attr": {"value": {"tensor": {"dtype": "DT_INT32", "tensorShape": {}}}, "dtype": {"type": "DT_INT32"}}}, {"name": "unknown_86", "op": "Const", "attr": {"dtype": {"type": "DT_FLOAT"}, "value": {"tensor": {"dtype": "DT_FLOAT", "tensorShape": {"dim": [{"size": "10"}, {"size": "6"}]}}}}}, {"name": "StatefulPartitionedCall/transform_features_layer/StatefulPartitionedCall/Equal_4/y", "op": "Const", "attr": {"value": {"tensor": {"dtype": "DT_INT64", "tensorShape": {}}}, "dtype": {"type": "DT_INT64"}}}, {"name": "StatefulPartitionedCall/transform_features_layer/StatefulPartitionedCall/ones_like_4/Const", "op": "Const", "attr": {"value": {"tensor": {"dtype": "DT_INT64", "tensorShape": {}}}, "dtype": {"type": "DT_INT64"}}}, {"name": "StatefulPartitionedCall/transform_features_layer/StatefulPartitionedCall/add_4", "op": "Const", "attr": {"dtype": {"type": "DT_INT64"}, "value": {"tensor": {"dtype": "DT_INT64", "tensorShape": {}}}}}, {"name": "StatefulPartitionedCall/model/ExpandDims_27/dim", "op": "Const", "attr": {"value": {"tensor": {"dtype": "DT_INT32", "tensorShape": {}}}, "dtype": {"type": "DT_INT32"}}}, {"name": "StatefulPartitionedCall/model/embedding_5/embedding_lookup/axis", "op": "Const", "attr": {"dtype": {"type": "DT_INT64"}, "value": {"tensor": {"dtype": "DT_INT64", "tensorShape": {}}}}}, {"name": "unknown_85", "op": "Const", "attr": {"dtype": {"type": "DT_FLOAT"}, "value": {"tensor": {"dtype": "DT_FLOAT", "tensorShape": {"dim": [{"size": "10"}, {"size": "4"}]}}}}}, {"name": "StatefulPartitionedCall/transform_features_layer/StatefulPartitionedCall/Equal_14/y", "op": "Const", "attr": {"dtype": {"type": "DT_INT64"}, "value": {"tensor": {"dtype": "DT_INT64", "tensorShape": {}}}}}, {"name": "StatefulPartitionedCall/transform_features_layer/StatefulPartitionedCall/ones_like_15/Const", "op": "Const", "attr": {"value": {"tensor": {"dtype": "DT_INT64", "tensorShape": {}}}, "dtype": {"type": "DT_INT64"}}}, {"name": "StatefulPartitionedCall/transform_features_layer/StatefulPartitionedCall/add_14", "op": "Const", "attr": {"value": {"tensor": {"dtype": "DT_INT64", "tensorShape": {}}}, "dtype": {"type": "DT_INT64"}}}, {"name": "StatefulPartitionedCall/model/ExpandDims_28/dim", "op": "Const", "attr": {"dtype": {"type": "DT_INT32"}, "value": {"tensor": {"dtype": "DT_INT32", "tensorShape": {}}}}}, {"name": "StatefulPartitionedCall/model/embedding_15/embedding_lookup/axis", "op": "Const", "attr": {"dtype": {"type": "DT_INT64"}, "value": {"tensor": {"dtype": "DT_INT64", "tensorShape": {}}}}}, {"name": "unknown_84", "op": "Const", "attr": {"dtype": {"type": "DT_FLOAT"}, "value": {"tensor": {"dtype": "DT_FLOAT", "tensorShape": {"dim": [{"size": "29"}, {"size": "8"}]}}}}}, {"name": "StatefulPartitionedCall/transform_features_layer/StatefulPartitionedCall/Equal_2/y", "op": "Const", "attr": {"dtype": {"type": "DT_INT64"}, "value": {"tensor": {"dtype": "DT_INT64", "tensorShape": {}}}}}, {"name": "StatefulPartitionedCall/transform_features_layer/StatefulPartitionedCall/ones_like_2/Const", "op": "Const", "attr": {"dtype": {"type": "DT_INT64"}, "value": {"tensor": {"dtype": "DT_INT64", "tensorShape": {}}}}}, {"name": "StatefulPartitionedCall/transform_features_layer/StatefulPartitionedCall/add_2", "op": "Const", "attr": {"value": {"tensor": {"dtype": "DT_INT64", "tensorShape": {}}}, "dtype": {"type": "DT_INT64"}}}, {"name": "StatefulPartitionedCall/model/ExpandDims_29/dim", "op": "Const", "attr": {"value": {"tensor": {"dtype": "DT_INT32", "tensorShape": {}}}, "dtype": {"type": "DT_INT32"}}}, {"name": "StatefulPartitionedCall/model/embedding_2/embedding_lookup/axis", "op": "Const", "attr": {"value": {"tensor": {"dtype": "DT_INT64", "tensorShape": {}}}, "dtype": {"type": "DT_INT64"}}}, {"name": "StatefulPartitionedCall/model/ExpandDims_30/dim", "op": "Const", "attr": {"dtype": {"type": "DT_INT32"}, "value": {"tensor": {"dtype": "DT_INT32", "tensorShape": {}}}}}, {"name": "StatefulPartitionedCall/model/ExpandDims_31/dim", "op": "Const", "attr": {"value": {"tensor": {"dtype": "DT_INT32", "tensorShape": {}}}, "dtype": {"type": "DT_INT32"}}}, {"name": "StatefulPartitionedCall/model/ExpandDims_32/dim", "op": "Const", "attr": {"dtype": {"type": "DT_INT32"}, "value": {"tensor": {"dtype": "DT_INT32", "tensorShape": {}}}}}, {"name": "StatefulPartitionedCall/model/concatenate_2/concat/axis", "op": "Const", "attr": {"value": {"tensor": {"dtype": "DT_INT32", "tensorShape": {}}}, "dtype": {"type": "DT_INT32"}}}, {"name": "StatefulPartitionedCall/model/hidden_layer_1/MatMul/concat/concat/ReadVariableOp", "op": "Const", "attr": {"dtype": {"type": "DT_FLOAT"}, "value": {"tensor": {"dtype": "DT_FLOAT", "tensorShape": {"dim": [{"size": "3691"}, {"size": "256"}]}}}}}, {"name": "StatefulPartitionedCall/model/hidden_layer_1/BiasAdd/ReadVariableOp", "op": "Const", "attr": {"value": {"tensor": {"dtype": "DT_FLOAT", "tensorShape": {"dim": [{"size": "256"}]}}}, "dtype": {"type": "DT_FLOAT"}}}, {"name": "StatefulPartitionedCall/model/hidden_layer_2/MatMul/ReadVariableOp", "op": "Const", "attr": {"dtype": {"type": "DT_FLOAT"}, "value": {"tensor": {"dtype": "DT_FLOAT", "tensorShape": {"dim": [{"size": "256"}, {"size": "256"}]}}}}}, {"name": "StatefulPartitionedCall/model/hidden_layer_2/BiasAdd/ReadVariableOp", "op": "Const", "attr": {"value": {"tensor": {"dtype": "DT_FLOAT", "tensorShape": {"dim": [{"size": "256"}]}}}, "dtype": {"type": "DT_FLOAT"}}}, {"name": "StatefulPartitionedCall/model/hidden_layer_3/MatMul/ReadVariableOp", "op": "Const", "attr": {"value": {"tensor": {"dtype": "DT_FLOAT", "tensorShape": {"dim": [{"size": "256"}, {"size": "256"}]}}}, "dtype": {"type": "DT_FLOAT"}}}, {"name": "StatefulPartitionedCall/model/hidden_layer_3/BiasAdd/ReadVariableOp", "op": "Const", "attr": {"value": {"tensor": {"dtype": "DT_FLOAT", "tensorShape": {"dim": [{"size": "256"}]}}}, "dtype": {"type": "DT_FLOAT"}}}, {"name": "StatefulPartitionedCall/model/probability_output/MatMul/ReadVariableOp", "op": "Const", "attr": {"dtype": {"type": "DT_FLOAT"}, "value": {"tensor": {"dtype": "DT_FLOAT", "tensorShape": {"dim": [{"size": "256"}, {"size": "1"}]}}}}}, {"name": "StatefulPartitionedCall/model/probability_output/BiasAdd/ReadVariableOp", "op": "Const", "attr": {"value": {"tensor": {"dtype": "DT_FLOAT", "tensorShape": {"dim": [{"size": "1"}]}}}, "dtype": {"type": "DT_FLOAT"}}}, {"name": "ad_group_list_trigger_status", "op": "Placeholder", "attr": {"dtype": {"type": "DT_INT64"}, "shape": {"shape": {"dim": [{"size": "-1"}]}}}}, {"name": "avg_visits_per_session_count", "op": "Placeholder", "attr": {"shape": {"shape": {"dim": [{"size": "-1"}, {"size": "20"}]}}, "dtype": {"type": "DT_FLOAT"}}}, {"name": "campaign_list_trigger_status", "op": "Placeholder", "attr": {"shape": {"shape": {"dim": [{"size": "-1"}]}}, "dtype": {"type": "DT_INT64"}}}, {"name": "campaign_type", "op": "Placeholder", "attr": {"dtype": {"type": "DT_INT64"}, "shape": {"shape": {"dim": [{"size": "-1"}]}}}}, {"name": "candidate_source", "op": "Placeholder", "attr": {"shape": {"shape": {"dim": [{"size": "-1"}]}}, "dtype": {"type": "DT_INT64"}}}, {"name": "category", "op": "Placeholder", "attr": {"shape": {"shape": {"dim": [{"size": "-1"}]}}, "dtype": {"type": "DT_INT64"}}}, {"name": "cur_session_visits_count", "op": "Placeholder", "attr": {"shape": {"shape": {"dim": [{"size": "-1"}, {"size": "20"}]}}, "dtype": {"type": "DT_INT64"}}}, {"name": "depth", "op": "Placeholder", "attr": {"dtype": {"type": "DT_INT64"}, "shape": {"shape": {"dim": [{"size": "-1"}]}}}}, {"name": "destination_places", "op": "Placeholder", "attr": {"shape": {"shape": {"dim": [{"size": "-1"}, {"size": "20"}]}}, "dtype": {"type": "DT_INT64"}}}, {"name": "global_map_destination_places", "op": "Placeholder", "attr": {"dtype": {"type": "DT_INT64"}, "shape": {"shape": {"dim": [{"size": "-1"}, {"size": "20"}]}}}}, {"name": "global_map_traffic_portion", "op": "Placeholder", "attr": {"shape": {"shape": {"dim": [{"size": "-1"}, {"size": "20"}]}}, "dtype": {"type": "DT_FLOAT"}}}, {"name": "last_clicked_item_type", "op": "Placeholder", "attr": {"shape": {"shape": {"dim": [{"size": "-1"}]}}, "dtype": {"type": "DT_INT64"}}}, {"name": "new_parent_campaign_selected_status", "op": "Placeholder", "attr": {"shape": {"shape": {"dim": [{"size": "-1"}]}}, "dtype": {"type": "DT_INT64"}}}, {"name": "new_parent_scope_entity_displayed_status", "op": "Placeholder", "attr": {"shape": {"shape": {"dim": [{"size": "-1"}]}}, "dtype": {"type": "DT_INT64"}}}, {"name": "new_place_id", "op": "Placeholder", "attr": {"dtype": {"type": "DT_INT64"}, "shape": {"shape": {"dim": [{"size": "-1"}]}}}}, {"name": "new_selected_ad_group", "op": "Placeholder", "attr": {"shape": {"shape": {"dim": [{"size": "-1"}]}}, "dtype": {"type": "DT_INT64"}}}, {"name": "new_selected_campaign", "op": "Placeholder", "attr": {"shape": {"shape": {"dim": [{"size": "-1"}]}}, "dtype": {"type": "DT_INT64"}}}, {"name": "new_selected_hierarchy_status", "op": "Placeholder", "attr": {"shape": {"shape": {"dim": [{"size": "-1"}]}}, "dtype": {"type": "DT_INT64"}}}, {"name": "new_selected_scope_picker_entity_category", "op": "Placeholder", "attr": {"shape": {"shape": {"dim": [{"size": "-1"}]}}, "dtype": {"type": "DT_INT64"}}}, {"name": "parent_campaign_type", "op": "Placeholder", "attr": {"shape": {"shape": {"dim": [{"size": "-1"}]}}, "dtype": {"type": "DT_INT64"}}}, {"name": "position", "op": "Placeholder", "attr": {"dtype": {"type": "DT_INT64"}, "shape": {"shape": {"dim": [{"size": "-1"}]}}}}, {"name": "position_changes_from_prev", "op": "Placeholder", "attr": {"dtype": {"type": "DT_INT64"}, "shape": {"shape": {"dim": [{"size": "-1"}]}}}}, {"name": "predict_place_id", "op": "Placeholder", "attr": {"shape": {"shape": {"dim": [{"size": "-1"}]}}, "dtype": {"type": "DT_INT64"}}}, {"name": "previous_parent_campaign_selected_status", "op": "Placeholder", "attr": {"shape": {"shape": {"dim": [{"size": "-1"}]}}, "dtype": {"type": "DT_INT64"}}}, {"name": "previous_parent_scope_entity_displayed_status", "op": "Placeholder", "attr": {"dtype": {"type": "DT_INT64"}, "shape": {"shape": {"dim": [{"size": "-1"}]}}}}, {"name": "previous_selected_ad_group", "op": "Placeholder", "attr": {"dtype": {"type": "DT_INT64"}, "shape": {"shape": {"dim": [{"size": "-1"}]}}}}, {"name": "previous_selected_campaign", "op": "Placeholder", "attr": {"shape": {"shape": {"dim": [{"size": "-1"}]}}, "dtype": {"type": "DT_INT64"}}}, {"name": "previous_selected_hierarchy_status", "op": "Placeholder", "attr": {"shape": {"shape": {"dim": [{"size": "-1"}]}}, "dtype": {"type": "DT_INT64"}}}, {"name": "previous_selected_scope_picker_entity_category", "op": "Placeholder", "attr": {"shape": {"shape": {"dim": [{"size": "-1"}]}}, "dtype": {"type": "DT_INT64"}}}, {"name": "probability_visit", "op": "Placeholder", "attr": {"dtype": {"type": "DT_FLOAT"}, "shape": {"shape": {"dim": [{"size": "-1"}, {"size": "20"}]}}}}, {"name": "scope_picker_entity_list_trigger_status", "op": "Placeholder", "attr": {"shape": {"shape": {"dim": [{"size": "-1"}]}}, "dtype": {"type": "DT_INT64"}}}, {"name": "scoping_nav_candidate_count", "op": "Placeholder", "attr": {"shape": {"shape": {"dim": [{"size": "-1"}]}}, "dtype": {"type": "DT_INT64"}}}, {"name": "skinny_nav_candidate_count", "op": "Placeholder", "attr": {"dtype": {"type": "DT_INT64"}, "shape": {"shape": {"dim": [{"size": "-1"}]}}}}, {"name": "status", "op": "Placeholder", "attr": {"dtype": {"type": "DT_INT64"}, "shape": {"shape": {"dim": [{"size": "-1"}]}}}}, {"name": "trigger_status", "op": "Placeholder", "attr": {"shape": {"shape": {"dim": [{"size": "-1"}]}}, "dtype": {"type": "DT_INT64"}}}, {"name": "trigger_type", "op": "Placeholder", "attr": {"dtype": {"type": "DT_INT64"}, "shape": {"shape": {"dim": [{"size": "-1"}]}}}}, {"name": "visit_fraction_local", "op": "Placeholder", "attr": {"shape": {"shape": {"dim": [{"size": "-1"}]}}, "dtype": {"type": "DT_FLOAT"}}}, {"name": "visit_num_local", "op": "Placeholder", "attr": {"shape": {"shape": {"dim": [{"size": "-1"}]}}, "dtype": {"type": "DT_INT64"}}}, {"name": "visit_rank_local", "op": "Placeholder", "attr": {"shape": {"shape": {"dim": [{"size": "-1"}]}}, "dtype": {"type": "DT_INT64"}}}, {"name": "StatefulPartitionedCall/transform_features_layer/StatefulPartitionedCall/Equal_16", "op": "Equal", "input": ["ad_group_list_trigger_status", "StatefulPartitionedCall/transform_features_layer/StatefulPartitionedCall/Equal_16/y"], "attr": {"incompatible_shape_error": {"b": true}, "T": {"type": "DT_INT64"}}}, {"name": "StatefulPartitionedCall/transform_features_layer/StatefulPartitionedCall/ones_like_17/Shape", "op": "Shape", "input": ["ad_group_list_trigger_status"], "attr": {"T": {"type": "DT_INT64"}, "out_type": {"type": "DT_INT32"}}, "experimentalType": {"typeId": "TFT_PRODUCT", "args": [{"typeId": "TFT_SHAPE_TENSOR", "args": [{"typeId": "TFT_INT32"}]}]}}, {"name": "StatefulPartitionedCall/transform_features_layer/StatefulPartitionedCall/Reshape_4", "op": "Reshape", "input": ["avg_visits_per_session_count", "StatefulPartitionedCall/transform_features_layer/StatefulPartitionedCall/Reshape_4/shape"], "attr": {"Tshape": {"type": "DT_INT32"}, "T": {"type": "DT_FLOAT"}}}, {"name": "StatefulPartitionedCall/transform_features_layer/StatefulPartitionedCall/Equal_11", "op": "Equal", "input": ["campaign_list_trigger_status", "StatefulPartitionedCall/transform_features_layer/StatefulPartitionedCall/Equal_11/y"], "attr": {"incompatible_shape_error": {"b": true}, "T": {"type": "DT_INT64"}}}, {"name": "StatefulPartitionedCall/transform_features_layer/StatefulPartitionedCall/ones_like_12/Shape", "op": "Shape", "input": ["campaign_list_trigger_status"], "attr": {"out_type": {"type": "DT_INT32"}, "T": {"type": "DT_INT64"}}, "experimentalType": {"typeId": "TFT_PRODUCT", "args": [{"typeId": "TFT_SHAPE_TENSOR", "args": [{"typeId": "TFT_INT32"}]}]}}, {"name": "StatefulPartitionedCall/transform_features_layer/StatefulPartitionedCall/Equal", "op": "Equal", "input": ["campaign_type", "StatefulPartitionedCall/transform_features_layer/StatefulPartitionedCall/Equal/y"], "attr": {"incompatible_shape_error": {"b": true}, "T": {"type": "DT_INT64"}}}, {"name": "StatefulPartitionedCall/transform_features_layer/StatefulPartitionedCall/ones_like/Shape", "op": "Shape", "input": ["campaign_type"], "attr": {"out_type": {"type": "DT_INT32"}, "T": {"type": "DT_INT64"}}, "experimentalType": {"typeId": "TFT_PRODUCT", "args": [{"typeId": "TFT_SHAPE_TENSOR", "args": [{"typeId": "TFT_INT32"}]}]}}, {"name": "StatefulPartitionedCall/transform_features_layer/StatefulPartitionedCall/Equal_20", "op": "Equal", "input": ["candidate_source", "StatefulPartitionedCall/transform_features_layer/StatefulPartitionedCall/Equal_20/y"], "attr": {"T": {"type": "DT_INT64"}, "incompatible_shape_error": {"b": true}}}, {"name": "StatefulPartitionedCall/transform_features_layer/StatefulPartitionedCall/ones_like_21/Shape", "op": "Shape", "input": ["candidate_source"], "attr": {"T": {"type": "DT_INT64"}, "out_type": {"type": "DT_INT32"}}, "experimentalType": {"typeId": "TFT_PRODUCT", "args": [{"typeId": "TFT_SHAPE_TENSOR", "args": [{"typeId": "TFT_INT32"}]}]}}, {"name": "StatefulPartitionedCall/transform_features_layer/StatefulPartitionedCall/Equal_5", "op": "Equal", "input": ["category", "StatefulPartitionedCall/transform_features_layer/StatefulPartitionedCall/Equal_5/y"], "attr": {"T": {"type": "DT_INT64"}, "incompatible_shape_error": {"b": true}}}, {"name": "StatefulPartitionedCall/transform_features_layer/StatefulPartitionedCall/ones_like_5/Shape", "op": "Shape", "input": ["category"], "attr": {"T": {"type": "DT_INT64"}, "out_type": {"type": "DT_INT32"}}, "experimentalType": {"typeId": "TFT_PRODUCT", "args": [{"typeId": "TFT_SHAPE_TENSOR", "args": [{"typeId": "TFT_INT32"}]}]}}, {"name": "StatefulPartitionedCall/transform_features_layer/StatefulPartitionedCall/Reshape_2", "op": "Reshape", "input": ["cur_session_visits_count", "StatefulPartitionedCall/transform_features_layer/StatefulPartitionedCall/Reshape_2/shape"], "attr": {"T": {"type": "DT_INT64"}, "Tshape": {"type": "DT_INT32"}}}, {"name": "StatefulPartitionedCall/transform_features_layer/StatefulPartitionedCall/Equal_1", "op": "Equal", "input": ["depth", "StatefulPartitionedCall/transform_features_layer/StatefulPartitionedCall/Equal_1/y"], "attr": {"T": {"type": "DT_INT64"}, "incompatible_shape_error": {"b": true}}}, {"name": "StatefulPartitionedCall/transform_features_layer/StatefulPartitionedCall/ones_like_1/Shape", "op": "Shape", "input": ["depth"], "attr": {"T": {"type": "DT_INT64"}, "out_type": {"type": "DT_INT32"}}, "experimentalType": {"typeId": "TFT_PRODUCT", "args": [{"typeId": "TFT_SHAPE_TENSOR", "args": [{"typeId": "TFT_INT32"}]}]}}, {"name": "StatefulPartitionedCall/transform_features_layer/StatefulPartitionedCall/one_hot_2", "op": "OneHot", "input": ["destination_places", "StatefulPartitionedCall/transform_features_layer/StatefulPartitionedCall/one_hot_2/depth", "StatefulPartitionedCall/transform_features_layer/StatefulPartitionedCall/one_hot_2/on_value", "StatefulPartitionedCall/transform_features_layer/StatefulPartitionedCall/one_hot_2/off_value"], "attr": {"axis": {"i": "-1"}, "TI": {"type": "DT_INT64"}, "T": {"type": "DT_FLOAT"}}}, {"name": "StatefulPartitionedCall/transform_features_layer/StatefulPartitionedCall/one_hot_1", "op": "OneHot", "input": ["destination_places", "StatefulPartitionedCall/transform_features_layer/StatefulPartitionedCall/one_hot_1/depth", "StatefulPartitionedCall/transform_features_layer/StatefulPartitionedCall/one_hot_1/on_value", "StatefulPartitionedCall/transform_features_layer/StatefulPartitionedCall/one_hot_1/off_value"], "attr": {"TI": {"type": "DT_INT64"}, "axis": {"i": "-1"}, "T": {"type": "DT_FLOAT"}}}, {"name": "StatefulPartitionedCall/transform_features_layer/StatefulPartitionedCall/one_hot", "op": "OneHot", "input": ["destination_places", "StatefulPartitionedCall/transform_features_layer/StatefulPartitionedCall/one_hot/depth", "StatefulPartitionedCall/transform_features_layer/StatefulPartitionedCall/one_hot/on_value", "StatefulPartitionedCall/transform_features_layer/StatefulPartitionedCall/one_hot/off_value"], "attr": {"TI": {"type": "DT_INT64"}, "T": {"type": "DT_FLOAT"}, "axis": {"i": "-1"}}}, {"name": "StatefulPartitionedCall/transform_features_layer/StatefulPartitionedCall/one_hot_3", "op": "OneHot", "input": ["global_map_destination_places", "StatefulPartitionedCall/transform_features_layer/StatefulPartitionedCall/one_hot_3/depth", "StatefulPartitionedCall/transform_features_layer/StatefulPartitionedCall/one_hot_3/on_value", "StatefulPartitionedCall/transform_features_layer/StatefulPartitionedCall/one_hot_3/off_value"], "attr": {"TI": {"type": "DT_INT64"}, "T": {"type": "DT_FLOAT"}, "axis": {"i": "-1"}}}, {"name": "StatefulPartitionedCall/transform_features_layer/StatefulPartitionedCall/Reshape_6", "op": "Reshape", "input": ["global_map_traffic_portion", "StatefulPartitionedCall/transform_features_layer/StatefulPartitionedCall/Reshape_6/shape"], "attr": {"Tshape": {"type": "DT_INT32"}, "T": {"type": "DT_FLOAT"}}}, {"name": "StatefulPartitionedCall/transform_features_layer/StatefulPartitionedCall/Equal_19", "op": "Equal", "input": ["last_clicked_item_type", "StatefulPartitionedCall/transform_features_layer/StatefulPartitionedCall/Equal_19/y"], "attr": {"incompatible_shape_error": {"b": true}, "T": {"type": "DT_INT64"}}}, {"name": "StatefulPartitionedCall/transform_features_layer/StatefulPartitionedCall/ones_like_20/Shape", "op": "Shape", "input": ["last_clicked_item_type"], "attr": {"out_type": {"type": "DT_INT32"}, "T": {"type": "DT_INT64"}}, "experimentalType": {"typeId": "TFT_PRODUCT", "args": [{"typeId": "TFT_SHAPE_TENSOR", "args": [{"typeId": "TFT_INT32"}]}]}}, {"name": "StatefulPartitionedCall/transform_features_layer/StatefulPartitionedCall/Equal_17", "op": "Equal", "input": ["new_parent_campaign_selected_status", "StatefulPartitionedCall/transform_features_layer/StatefulPartitionedCall/Equal_17/y"], "attr": {"T": {"type": "DT_INT64"}, "incompatible_shape_error": {"b": true}}}, {"name": "StatefulPartitionedCall/transform_features_layer/StatefulPartitionedCall/ones_like_18/Shape", "op": "Shape", "input": ["new_parent_campaign_selected_status"], "attr": {"T": {"type": "DT_INT64"}, "out_type": {"type": "DT_INT32"}}, "experimentalType": {"typeId": "TFT_PRODUCT", "args": [{"typeId": "TFT_SHAPE_TENSOR", "args": [{"typeId": "TFT_INT32"}]}]}}, {"name": "StatefulPartitionedCall/transform_features_layer/StatefulPartitionedCall/Equal_9", "op": "Equal", "input": ["new_parent_scope_entity_displayed_status", "StatefulPartitionedCall/transform_features_layer/StatefulPartitionedCall/Equal_9/y"], "attr": {"T": {"type": "DT_INT64"}, "incompatible_shape_error": {"b": true}}}, {"name": "StatefulPartitionedCall/transform_features_layer/StatefulPartitionedCall/ones_like_10/Shape", "op": "Shape", "input": ["new_parent_scope_entity_displayed_status"], "attr": {"T": {"type": "DT_INT64"}, "out_type": {"type": "DT_INT32"}}, "experimentalType": {"typeId": "TFT_PRODUCT", "args": [{"typeId": "TFT_SHAPE_TENSOR", "args": [{"typeId": "TFT_INT32"}]}]}}, {"name": "StatefulPartitionedCall/model/ExpandDims_9", "op": "ExpandDims", "input": ["new_place_id", "StatefulPartitionedCall/model/ExpandDims_9/dim"], "attr": {"Tdim": {"type": "DT_INT32"}, "T": {"type": "DT_INT64"}}}, {"name": "StatefulPartitionedCall/transform_features_layer/StatefulPartitionedCall/Cast_5", "op": "Cast", "input": ["new_selected_ad_group"], "attr": {"SrcT": {"type": "DT_INT64"}, "DstT": {"type": "DT_FLOAT"}, "Truncate": {"b": false}}}, {"name": "StatefulPartitionedCall/transform_features_layer/StatefulPartitionedCall/Cast_7", "op": "Cast", "input": ["new_selected_campaign"], "attr": {"DstT": {"type": "DT_FLOAT"}, "Truncate": {"b": false}, "SrcT": {"type": "DT_INT64"}}}, {"name": "StatefulPartitionedCall/transform_features_layer/StatefulPartitionedCall/Equal_12", "op": "Equal", "input": ["new_selected_hierarchy_status", "StatefulPartitionedCall/transform_features_layer/StatefulPartitionedCall/Equal_12/y"], "attr": {"incompatible_shape_error": {"b": true}, "T": {"type": "DT_INT64"}}}, {"name": "StatefulPartitionedCall/transform_features_layer/StatefulPartitionedCall/ones_like_13/Shape", "op": "Shape", "input": ["new_selected_hierarchy_status"], "attr": {"T": {"type": "DT_INT64"}, "out_type": {"type": "DT_INT32"}}, "experimentalType": {"typeId": "TFT_PRODUCT", "args": [{"typeId": "TFT_SHAPE_TENSOR", "args": [{"typeId": "TFT_INT32"}]}]}}, {"name": "StatefulPartitionedCall/transform_features_layer/StatefulPartitionedCall/Equal_7", "op": "Equal", "input": ["new_selected_scope_picker_entity_category", "StatefulPartitionedCall/transform_features_layer/StatefulPartitionedCall/Equal_7/y"], "attr": {"incompatible_shape_error": {"b": true}, "T": {"type": "DT_INT64"}}}, {"name": "StatefulPartitionedCall/transform_features_layer/StatefulPartitionedCall/ones_like_8/Shape", "op": "Shape", "input": ["new_selected_scope_picker_entity_category"], "attr": {"out_type": {"type": "DT_INT32"}, "T": {"type": "DT_INT64"}}, "experimentalType": {"typeId": "TFT_PRODUCT", "args": [{"typeId": "TFT_SHAPE_TENSOR", "args": [{"typeId": "TFT_INT32"}]}]}}, {"name": "StatefulPartitionedCall/transform_features_layer/StatefulPartitionedCall/Equal_3", "op": "Equal", "input": ["parent_campaign_type", "StatefulPartitionedCall/transform_features_layer/StatefulPartitionedCall/Equal_3/y"], "attr": {"T": {"type": "DT_INT64"}, "incompatible_shape_error": {"b": true}}}, {"name": "StatefulPartitionedCall/transform_features_layer/StatefulPartitionedCall/ones_like_3/Shape", "op": "Shape", "input": ["parent_campaign_type"], "attr": {"out_type": {"type": "DT_INT32"}, "T": {"type": "DT_INT64"}}, "experimentalType": {"typeId": "TFT_PRODUCT", "args": [{"typeId": "TFT_SHAPE_TENSOR", "args": [{"typeId": "TFT_INT32"}]}]}}, {"name": "StatefulPartitionedCall/transform_features_layer/StatefulPartitionedCall/Greater", "op": "Greater", "input": ["position", "StatefulPartitionedCall/transform_features_layer/StatefulPartitionedCall/Greater/y"], "attr": {"T": {"type": "DT_INT64"}}}, {"name": "StatefulPartitionedCall/transform_features_layer/StatefulPartitionedCall/ones_like_6/Shape", "op": "Shape", "input": ["position"], "attr": {"T": {"type": "DT_INT64"}, "out_type": {"type": "DT_INT32"}}, "experimentalType": {"typeId": "TFT_PRODUCT", "args": [{"typeId": "TFT_SHAPE_TENSOR", "args": [{"typeId": "TFT_INT32"}]}]}}, {"name": "StatefulPartitionedCall/transform_features_layer/StatefulPartitionedCall/bucketize/apply_buckets/assign_buckets/Reshape", "op": "Reshape", "input": ["position_changes_from_prev", "StatefulPartitionedCall/transform_features_layer/StatefulPartitionedCall/bucketize/apply_buckets/assign_buckets/Reshape/shape"], "attr": {"T": {"type": "DT_INT64"}, "Tshape": {"type": "DT_INT32"}}}, {"name": "StatefulPartitionedCall/transform_features_layer/StatefulPartitionedCall/bucketize/apply_buckets/assign_buckets/Shape_3", "op": "Shape", "input": ["position_changes_from_prev"], "attr": {"T": {"type": "DT_INT64"}, "out_type": {"type": "DT_INT32"}}, "experimentalType": {"typeId": "TFT_PRODUCT", "args": [{"typeId": "TFT_SHAPE_TENSOR", "args": [{"typeId": "TFT_INT32"}]}]}}, {"name": "StatefulPartitionedCall/model/ExpandDims_17", "op": "ExpandDims", "input": ["predict_place_id", "StatefulPartitionedCall/model/ExpandDims_17/dim"], "attr": {"T": {"type": "DT_INT64"}, "Tdim": {"type": "DT_INT32"}}}, {"name": "StatefulPartitionedCall/transform_features_layer/StatefulPartitionedCall/Equal_18", "op": "Equal", "input": ["previous_parent_campaign_selected_status", "StatefulPartitionedCall/transform_features_layer/StatefulPartitionedCall/Equal_18/y"], "attr": {"incompatible_shape_error": {"b": true}, "T": {"type": "DT_INT64"}}}, {"name": "StatefulPartitionedCall/transform_features_layer/StatefulPartitionedCall/ones_like_19/Shape", "op": "Shape", "input": ["previous_parent_campaign_selected_status"], "attr": {"out_type": {"type": "DT_INT32"}, "T": {"type": "DT_INT64"}}, "experimentalType": {"typeId": "TFT_PRODUCT", "args": [{"typeId": "TFT_SHAPE_TENSOR", "args": [{"typeId": "TFT_INT32"}]}]}}, {"name": "StatefulPartitionedCall/transform_features_layer/StatefulPartitionedCall/Equal_10", "op": "Equal", "input": ["previous_parent_scope_entity_displayed_status", "StatefulPartitionedCall/transform_features_layer/StatefulPartitionedCall/Equal_10/y"], "attr": {"incompatible_shape_error": {"b": true}, "T": {"type": "DT_INT64"}}}, {"name": "StatefulPartitionedCall/transform_features_layer/StatefulPartitionedCall/ones_like_11/Shape", "op": "Shape", "input": ["previous_parent_scope_entity_displayed_status"], "attr": {"out_type": {"type": "DT_INT32"}, "T": {"type": "DT_INT64"}}, "experimentalType": {"typeId": "TFT_PRODUCT", "args": [{"typeId": "TFT_SHAPE_TENSOR", "args": [{"typeId": "TFT_INT32"}]}]}}, {"name": "StatefulPartitionedCall/transform_features_layer/StatefulPartitionedCall/Cast_6", "op": "Cast", "input": ["previous_selected_ad_group"], "attr": {"Truncate": {"b": false}, "SrcT": {"type": "DT_INT64"}, "DstT": {"type": "DT_FLOAT"}}}, {"name": "StatefulPartitionedCall/transform_features_layer/StatefulPartitionedCall/Cast_8", "op": "Cast", "input": ["previous_selected_campaign"], "attr": {"DstT": {"type": "DT_FLOAT"}, "Truncate": {"b": false}, "SrcT": {"type": "DT_INT64"}}}, {"name": "StatefulPartitionedCall/transform_features_layer/StatefulPartitionedCall/Equal_13", "op": "Equal", "input": ["previous_selected_hierarchy_status", "StatefulPartitionedCall/transform_features_layer/StatefulPartitionedCall/Equal_13/y"], "attr": {"T": {"type": "DT_INT64"}, "incompatible_shape_error": {"b": true}}}, {"name": "StatefulPartitionedCall/transform_features_layer/StatefulPartitionedCall/ones_like_14/Shape", "op": "Shape", "input": ["previous_selected_hierarchy_status"], "attr": {"T": {"type": "DT_INT64"}, "out_type": {"type": "DT_INT32"}}, "experimentalType": {"typeId": "TFT_PRODUCT", "args": [{"typeId": "TFT_SHAPE_TENSOR", "args": [{"typeId": "TFT_INT32"}]}]}}, {"name": "StatefulPartitionedCall/transform_features_layer/StatefulPartitionedCall/Equal_8", "op": "Equal", "input": ["previous_selected_scope_picker_entity_category", "StatefulPartitionedCall/transform_features_layer/StatefulPartitionedCall/Equal_8/y"], "attr": {"T": {"type": "DT_INT64"}, "incompatible_shape_error": {"b": true}}}, {"name": "StatefulPartitionedCall/transform_features_layer/StatefulPartitionedCall/ones_like_9/Shape", "op": "Shape", "input": ["previous_selected_scope_picker_entity_category"], "attr": {"out_type": {"type": "DT_INT32"}, "T": {"type": "DT_INT64"}}, "experimentalType": {"typeId": "TFT_PRODUCT", "args": [{"typeId": "TFT_SHAPE_TENSOR", "args": [{"typeId": "TFT_INT32"}]}]}}, {"name": "StatefulPartitionedCall/transform_features_layer/StatefulPartitionedCall/Reshape", "op": "Reshape", "input": ["probability_visit", "StatefulPartitionedCall/transform_features_layer/StatefulPartitionedCall/Reshape/shape"], "attr": {"Tshape": {"type": "DT_INT32"}, "T": {"type": "DT_FLOAT"}}}, {"name": "StatefulPartitionedCall/transform_features_layer/StatefulPartitionedCall/Equal_15", "op": "Equal", "input": ["scope_picker_entity_list_trigger_status", "StatefulPartitionedCall/transform_features_layer/StatefulPartitionedCall/Equal_15/y"], "attr": {"incompatible_shape_error": {"b": true}, "T": {"type": "DT_INT64"}}}, {"name": "StatefulPartitionedCall/transform_features_layer/StatefulPartitionedCall/ones_like_16/Shape", "op": "Shape", "input": ["scope_picker_entity_list_trigger_status"], "attr": {"T": {"type": "DT_INT64"}, "out_type": {"type": "DT_INT32"}}, "experimentalType": {"typeId": "TFT_PRODUCT", "args": [{"typeId": "TFT_SHAPE_TENSOR", "args": [{"typeId": "TFT_INT32"}]}]}}, {"name": "StatefulPartitionedCall/transform_features_layer/StatefulPartitionedCall/Cast_12", "op": "Cast", "input": ["scoping_nav_candidate_count"], "attr": {"Truncate": {"b": false}, "DstT": {"type": "DT_FLOAT"}, "SrcT": {"type": "DT_INT64"}}}, {"name": "StatefulPartitionedCall/transform_features_layer/StatefulPartitionedCall/Cast_11", "op": "Cast", "input": ["skinny_nav_candidate_count"], "attr": {"Truncate": {"b": false}, "DstT": {"type": "DT_FLOAT"}, "SrcT": {"type": "DT_INT64"}}}, {"name": "StatefulPartitionedCall/transform_features_layer/StatefulPartitionedCall/Equal_4", "op": "Equal", "input": ["status", "StatefulPartitionedCall/transform_features_layer/StatefulPartitionedCall/Equal_4/y"], "attr": {"T": {"type": "DT_INT64"}, "incompatible_shape_error": {"b": true}}}, {"name": "StatefulPartitionedCall/transform_features_layer/StatefulPartitionedCall/ones_like_4/Shape", "op": "Shape", "input": ["status"], "attr": {"T": {"type": "DT_INT64"}, "out_type": {"type": "DT_INT32"}}, "experimentalType": {"typeId": "TFT_PRODUCT", "args": [{"typeId": "TFT_SHAPE_TENSOR", "args": [{"typeId": "TFT_INT32"}]}]}}, {"name": "StatefulPartitionedCall/transform_features_layer/StatefulPartitionedCall/Equal_14", "op": "Equal", "input": ["trigger_status", "StatefulPartitionedCall/transform_features_layer/StatefulPartitionedCall/Equal_14/y"], "attr": {"T": {"type": "DT_INT64"}, "incompatible_shape_error": {"b": true}}}, {"name": "StatefulPartitionedCall/transform_features_layer/StatefulPartitionedCall/ones_like_15/Shape", "op": "Shape", "input": ["trigger_status"], "attr": {"out_type": {"type": "DT_INT32"}, "T": {"type": "DT_INT64"}}, "experimentalType": {"typeId": "TFT_PRODUCT", "args": [{"typeId": "TFT_SHAPE_TENSOR", "args": [{"typeId": "TFT_INT32"}]}]}}, {"name": "StatefulPartitionedCall/transform_features_layer/StatefulPartitionedCall/Equal_2", "op": "Equal", "input": ["trigger_type", "StatefulPartitionedCall/transform_features_layer/StatefulPartitionedCall/Equal_2/y"], "attr": {"T": {"type": "DT_INT64"}, "incompatible_shape_error": {"b": true}}}, {"name": "StatefulPartitionedCall/transform_features_layer/StatefulPartitionedCall/ones_like_2/Shape", "op": "Shape", "input": ["trigger_type"], "attr": {"out_type": {"type": "DT_INT32"}, "T": {"type": "DT_INT64"}}, "experimentalType": {"typeId": "TFT_PRODUCT", "args": [{"typeId": "TFT_SHAPE_TENSOR", "args": [{"typeId": "TFT_INT32"}]}]}}, {"name": "StatefulPartitionedCall/model/ExpandDims_30", "op": "ExpandDims", "input": ["visit_fraction_local", "StatefulPartitionedCall/model/ExpandDims_30/dim"], "attr": {"Tdim": {"type": "DT_INT32"}, "T": {"type": "DT_FLOAT"}}}, {"name": "StatefulPartitionedCall/transform_features_layer/StatefulPartitionedCall/Cast_9", "op": "Cast", "input": ["visit_num_local"], "attr": {"SrcT": {"type": "DT_INT64"}, "DstT": {"type": "DT_FLOAT"}, "Truncate": {"b": false}}}, {"name": "StatefulPartitionedCall/transform_features_layer/StatefulPartitionedCall/Cast_10", "op": "Cast", "input": ["visit_rank_local"], "attr": {"SrcT": {"type": "DT_INT64"}, "DstT": {"type": "DT_FLOAT"}, "Truncate": {"b": false}}}, {"name": "StatefulPartitionedCall/transform_features_layer/StatefulPartitionedCall/ones_like_17", "op": "Fill", "input": ["StatefulPartitionedCall/transform_features_layer/StatefulPartitionedCall/ones_like_17/Shape", "StatefulPartitionedCall/transform_features_layer/StatefulPartitionedCall/ones_like_17/Const"], "attr": {"T": {"type": "DT_INT64"}, "index_type": {"type": "DT_INT32"}}}, {"name": "StatefulPartitionedCall/transform_features_layer/StatefulPartitionedCall/Repeat_2/ExpandDims", "op": "ExpandDims", "input": ["StatefulPartitionedCall/transform_features_layer/StatefulPartitionedCall/Reshape_4", "StatefulPartitionedCall/transform_features_layer/StatefulPartitionedCall/Repeat_2/ExpandDims/dim"], "attr": {"T": {"type": "DT_FLOAT"}, "Tdim": {"type": "DT_INT32"}}}, {"name": "StatefulPartitionedCall/transform_features_layer/StatefulPartitionedCall/ones_like_12", "op": "Fill", "input": ["StatefulPartitionedCall/transform_features_layer/StatefulPartitionedCall/ones_like_12/Shape", "StatefulPartitionedCall/transform_features_layer/StatefulPartitionedCall/ones_like_12/Const"], "attr": {"T": {"type": "DT_INT64"}, "index_type": {"type": "DT_INT32"}}}, {"name": "StatefulPartitionedCall/transform_features_layer/StatefulPartitionedCall/ones_like", "op": "Fill", "input": ["StatefulPartitionedCall/transform_features_layer/StatefulPartitionedCall/ones_like/Shape", "StatefulPartitionedCall/transform_features_layer/StatefulPartitionedCall/ones_like/Const"], "attr": {"index_type": {"type": "DT_INT32"}, "T": {"type": "DT_INT64"}}}, {"name": "StatefulPartitionedCall/transform_features_layer/StatefulPartitionedCall/ones_like_21", "op": "Fill", "input": ["StatefulPartitionedCall/transform_features_layer/StatefulPartitionedCall/ones_like_21/Shape", "StatefulPartitionedCall/transform_features_layer/StatefulPartitionedCall/ones_like_21/Const"], "attr": {"T": {"type": "DT_INT64"}, "index_type": {"type": "DT_INT32"}}}, {"name": "StatefulPartitionedCall/transform_features_layer/StatefulPartitionedCall/ones_like_5", "op": "Fill", "input": ["StatefulPartitionedCall/transform_features_layer/StatefulPartitionedCall/ones_like_5/Shape", "StatefulPartitionedCall/transform_features_layer/StatefulPartitionedCall/ones_like_5/Const"], "attr": {"T": {"type": "DT_INT64"}, "index_type": {"type": "DT_INT32"}}}, {"name": "StatefulPartitionedCall/transform_features_layer/StatefulPartitionedCall/Repeat_1/ExpandDims", "op": "ExpandDims", "input": ["StatefulPartitionedCall/transform_features_layer/StatefulPartitionedCall/Reshape_2", "StatefulPartitionedCall/transform_features_layer/StatefulPartitionedCall/Repeat_1/ExpandDims/dim"], "attr": {"Tdim": {"type": "DT_INT32"}, "T": {"type": "DT_INT64"}}}, {"name": "StatefulPartitionedCall/transform_features_layer/StatefulPartitionedCall/ones_like_1", "op": "Fill", "input": ["StatefulPartitionedCall/transform_features_layer/StatefulPartitionedCall/ones_like_1/Shape", "StatefulPartitionedCall/transform_features_layer/StatefulPartitionedCall/ones_like_1/Const"], "attr": {"index_type": {"type": "DT_INT32"}, "T": {"type": "DT_INT64"}}}, {"name": "StatefulPartitionedCall/transform_features_layer/StatefulPartitionedCall/Cast_2", "op": "Cast", "input": ["StatefulPartitionedCall/transform_features_layer/StatefulPartitionedCall/one_hot_2"], "attr": {"SrcT": {"type": "DT_FLOAT"}, "DstT": {"type": "DT_BOOL"}, "Truncate": {"b": false}}}, {"name": "StatefulPartitionedCall/transform_features_layer/StatefulPartitionedCall/Cast_1", "op": "Cast", "input": ["StatefulPartitionedCall/transform_features_layer/StatefulPartitionedCall/one_hot_1"], "attr": {"DstT": {"type": "DT_BOOL"}, "SrcT": {"type": "DT_FLOAT"}, "Truncate": {"b": false}}}, {"name": "StatefulPartitionedCall/transform_features_layer/StatefulPartitionedCall/Cast", "op": "Cast", "input": ["StatefulPartitionedCall/transform_features_layer/StatefulPartitionedCall/one_hot"], "attr": {"Truncate": {"b": false}, "DstT": {"type": "DT_BOOL"}, "SrcT": {"type": "DT_FLOAT"}}}, {"name": "StatefulPartitionedCall/transform_features_layer/StatefulPartitionedCall/Cast_3", "op": "Cast", "input": ["StatefulPartitionedCall/transform_features_layer/StatefulPartitionedCall/one_hot_3"], "attr": {"SrcT": {"type": "DT_FLOAT"}, "Truncate": {"b": false}, "DstT": {"type": "DT_BOOL"}}}, {"name": "StatefulPartitionedCall/transform_features_layer/StatefulPartitionedCall/Repeat_3/ExpandDims", "op": "ExpandDims", "input": ["StatefulPartitionedCall/transform_features_layer/StatefulPartitionedCall/Reshape_6", "StatefulPartitionedCall/transform_features_layer/StatefulPartitionedCall/Repeat_3/ExpandDims/dim"], "attr": {"Tdim": {"type": "DT_INT32"}, "T": {"type": "DT_FLOAT"}}}, {"name": "StatefulPartitionedCall/transform_features_layer/StatefulPartitionedCall/ones_like_20", "op": "Fill", "input": ["StatefulPartitionedCall/transform_features_layer/StatefulPartitionedCall/ones_like_20/Shape", "StatefulPartitionedCall/transform_features_layer/StatefulPartitionedCall/ones_like_20/Const"], "attr": {"index_type": {"type": "DT_INT32"}, "T": {"type": "DT_INT64"}}}, {"name": "StatefulPartitionedCall/transform_features_layer/StatefulPartitionedCall/ones_like_18", "op": "Fill", "input": ["StatefulPartitionedCall/transform_features_layer/StatefulPartitionedCall/ones_like_18/Shape", "StatefulPartitionedCall/transform_features_layer/StatefulPartitionedCall/ones_like_18/Const"], "attr": {"T": {"type": "DT_INT64"}, "index_type": {"type": "DT_INT32"}}}, {"name": "StatefulPartitionedCall/transform_features_layer/StatefulPartitionedCall/ones_like_10", "op": "Fill", "input": ["StatefulPartitionedCall/transform_features_layer/StatefulPartitionedCall/ones_like_10/Shape", "StatefulPartitionedCall/transform_features_layer/StatefulPartitionedCall/ones_like_10/Const"], "attr": {"index_type": {"type": "DT_INT32"}, "T": {"type": "DT_INT64"}}}, {"name": "StatefulPartitionedCall/model/tf.reshape/Reshape", "op": "Reshape", "input": ["StatefulPartitionedCall/model/ExpandDims_9", "StatefulPartitionedCall/model/tf.reshape/Reshape/shape"], "attr": {"T": {"type": "DT_INT64"}, "Tshape": {"type": "DT_INT32"}}}, {"name": "StatefulPartitionedCall/model/ExpandDims_10", "op": "ExpandDims", "input": ["StatefulPartitionedCall/transform_features_layer/StatefulPartitionedCall/Cast_5", "StatefulPartitionedCall/model/ExpandDims_10/dim"], "attr": {"T": {"type": "DT_FLOAT"}, "Tdim": {"type": "DT_INT32"}}}, {"name": "StatefulPartitionedCall/model/ExpandDims_11", "op": "ExpandDims", "input": ["StatefulPartitionedCall/transform_features_layer/StatefulPartitionedCall/Cast_7", "StatefulPartitionedCall/model/ExpandDims_11/dim"], "attr": {"T": {"type": "DT_FLOAT"}, "Tdim": {"type": "DT_INT32"}}}, {"name": "StatefulPartitionedCall/transform_features_layer/StatefulPartitionedCall/ones_like_13", "op": "Fill", "input": ["StatefulPartitionedCall/transform_features_layer/StatefulPartitionedCall/ones_like_13/Shape", "StatefulPartitionedCall/transform_features_layer/StatefulPartitionedCall/ones_like_13/Const"], "attr": {"index_type": {"type": "DT_INT32"}, "T": {"type": "DT_INT64"}}}, {"name": "StatefulPartitionedCall/transform_features_layer/StatefulPartitionedCall/ones_like_8", "op": "Fill", "input": ["StatefulPartitionedCall/transform_features_layer/StatefulPartitionedCall/ones_like_8/Shape", "StatefulPartitionedCall/transform_features_layer/StatefulPartitionedCall/ones_like_8/Const"], "attr": {"index_type": {"type": "DT_INT32"}, "T": {"type": "DT_INT64"}}}, {"name": "StatefulPartitionedCall/transform_features_layer/StatefulPartitionedCall/ones_like_3", "op": "Fill", "input": ["StatefulPartitionedCall/transform_features_layer/StatefulPartitionedCall/ones_like_3/Shape", "StatefulPartitionedCall/transform_features_layer/StatefulPartitionedCall/ones_like_3/Const"], "attr": {"T": {"type": "DT_INT64"}, "index_type": {"type": "DT_INT32"}}}, {"name": "StatefulPartitionedCall/transform_features_layer/StatefulPartitionedCall/ones_like_6", "op": "Fill", "input": ["StatefulPartitionedCall/transform_features_layer/StatefulPartitionedCall/ones_like_6/Shape", "StatefulPartitionedCall/transform_features_layer/StatefulPartitionedCall/ones_like_6/Const"], "attr": {"T": {"type": "DT_INT64"}, "index_type": {"type": "DT_INT32"}}}, {"name": "StatefulPartitionedCall/transform_features_layer/StatefulPartitionedCall/bucketize/apply_buckets/assign_buckets/Cast", "op": "Cast", "input": ["StatefulPartitionedCall/transform_features_layer/StatefulPartitionedCall/bucketize/apply_buckets/assign_buckets/Reshape"], "attr": {"SrcT": {"type": "DT_INT64"}, "DstT": {"type": "DT_FLOAT"}, "Truncate": {"b": false}}}, {"name": "StatefulPartitionedCall/model/tf.reshape_2/Reshape", "op": "Reshape", "input": ["StatefulPartitionedCall/model/ExpandDims_17", "StatefulPartitionedCall/model/tf.reshape_2/Reshape/shape"], "attr": {"Tshape": {"type": "DT_INT32"}, "T": {"type": "DT_INT64"}}}, {"name": "StatefulPartitionedCall/transform_features_layer/StatefulPartitionedCall/ones_like_19", "op": "Fill", "input": ["StatefulPartitionedCall/transform_features_layer/StatefulPartitionedCall/ones_like_19/Shape", "StatefulPartitionedCall/transform_features_layer/StatefulPartitionedCall/ones_like_19/Const"], "attr": {"T": {"type": "DT_INT64"}, "index_type": {"type": "DT_INT32"}}}, {"name": "StatefulPartitionedCall/transform_features_layer/StatefulPartitionedCall/ones_like_11", "op": "Fill", "input": ["StatefulPartitionedCall/transform_features_layer/StatefulPartitionedCall/ones_like_11/Shape", "StatefulPartitionedCall/transform_features_layer/StatefulPartitionedCall/ones_like_11/Const"], "attr": {"index_type": {"type": "DT_INT32"}, "T": {"type": "DT_INT64"}}}, {"name": "StatefulPartitionedCall/model/ExpandDims_20", "op": "ExpandDims", "input": ["StatefulPartitionedCall/transform_features_layer/StatefulPartitionedCall/Cast_6", "StatefulPartitionedCall/model/ExpandDims_20/dim"], "attr": {"Tdim": {"type": "DT_INT32"}, "T": {"type": "DT_FLOAT"}}}, {"name": "StatefulPartitionedCall/model/ExpandDims_21", "op": "ExpandDims", "input": ["StatefulPartitionedCall/transform_features_layer/StatefulPartitionedCall/Cast_8", "StatefulPartitionedCall/model/ExpandDims_21/dim"], "attr": {"T": {"type": "DT_FLOAT"}, "Tdim": {"type": "DT_INT32"}}}, {"name": "StatefulPartitionedCall/transform_features_layer/StatefulPartitionedCall/ones_like_14", "op": "Fill", "input": ["StatefulPartitionedCall/transform_features_layer/StatefulPartitionedCall/ones_like_14/Shape", "StatefulPartitionedCall/transform_features_layer/StatefulPartitionedCall/ones_like_14/Const"], "attr": {"T": {"type": "DT_INT64"}, "index_type": {"type": "DT_INT32"}}}, {"name": "StatefulPartitionedCall/transform_features_layer/StatefulPartitionedCall/ones_like_9", "op": "Fill", "input": ["StatefulPartitionedCall/transform_features_layer/StatefulPartitionedCall/ones_like_9/Shape", "StatefulPartitionedCall/transform_features_layer/StatefulPartitionedCall/ones_like_9/Const"], "attr": {"T": {"type": "DT_INT64"}, "index_type": {"type": "DT_INT32"}}}, {"name": "StatefulPartitionedCall/transform_features_layer/StatefulPartitionedCall/Repeat/ExpandDims", "op": "ExpandDims", "input": ["StatefulPartitionedCall/transform_features_layer/StatefulPartitionedCall/Reshape", "StatefulPartitionedCall/transform_features_layer/StatefulPartitionedCall/Repeat/ExpandDims/dim"], "attr": {"Tdim": {"type": "DT_INT32"}, "T": {"type": "DT_FLOAT"}}}, {"name": "StatefulPartitionedCall/transform_features_layer/StatefulPartitionedCall/ones_like_16", "op": "Fill", "input": ["StatefulPartitionedCall/transform_features_layer/StatefulPartitionedCall/ones_like_16/Shape", "StatefulPartitionedCall/transform_features_layer/StatefulPartitionedCall/ones_like_16/Const"], "attr": {"index_type": {"type": "DT_INT32"}, "T": {"type": "DT_INT64"}}}, {"name": "StatefulPartitionedCall/model/ExpandDims_25", "op": "ExpandDims", "input": ["StatefulPartitionedCall/transform_features_layer/StatefulPartitionedCall/Cast_12", "StatefulPartitionedCall/model/ExpandDims_25/dim"], "attr": {"T": {"type": "DT_FLOAT"}, "Tdim": {"type": "DT_INT32"}}}, {"name": "StatefulPartitionedCall/model/ExpandDims_26", "op": "ExpandDims", "input": ["StatefulPartitionedCall/transform_features_layer/StatefulPartitionedCall/Cast_11", "StatefulPartitionedCall/model/ExpandDims_26/dim"], "attr": {"Tdim": {"type": "DT_INT32"}, "T": {"type": "DT_FLOAT"}}}, {"name": "StatefulPartitionedCall/transform_features_layer/StatefulPartitionedCall/ones_like_4", "op": "Fill", "input": ["StatefulPartitionedCall/transform_features_layer/StatefulPartitionedCall/ones_like_4/Shape", "StatefulPartitionedCall/transform_features_layer/StatefulPartitionedCall/ones_like_4/Const"], "attr": {"index_type": {"type": "DT_INT32"}, "T": {"type": "DT_INT64"}}}, {"name": "StatefulPartitionedCall/transform_features_layer/StatefulPartitionedCall/ones_like_15", "op": "Fill", "input": ["StatefulPartitionedCall/transform_features_layer/StatefulPartitionedCall/ones_like_15/Shape", "StatefulPartitionedCall/transform_features_layer/StatefulPartitionedCall/ones_like_15/Const"], "attr": {"T": {"type": "DT_INT64"}, "index_type": {"type": "DT_INT32"}}}, {"name": "StatefulPartitionedCall/transform_features_layer/StatefulPartitionedCall/ones_like_2", "op": "Fill", "input": ["StatefulPartitionedCall/transform_features_layer/StatefulPartitionedCall/ones_like_2/Shape", "StatefulPartitionedCall/transform_features_layer/StatefulPartitionedCall/ones_like_2/Const"], "attr": {"index_type": {"type": "DT_INT32"}, "T": {"type": "DT_INT64"}}}, {"name": "StatefulPartitionedCall/model/ExpandDims_31", "op": "ExpandDims", "input": ["StatefulPartitionedCall/transform_features_layer/StatefulPartitionedCall/Cast_9", "StatefulPartitionedCall/model/ExpandDims_31/dim"], "attr": {"Tdim": {"type": "DT_INT32"}, "T": {"type": "DT_FLOAT"}}}, {"name": "StatefulPartitionedCall/model/ExpandDims_32", "op": "ExpandDims", "input": ["StatefulPartitionedCall/transform_features_layer/StatefulPartitionedCall/Cast_10", "StatefulPartitionedCall/model/ExpandDims_32/dim"], "attr": {"T": {"type": "DT_FLOAT"}, "Tdim": {"type": "DT_INT32"}}}, {"name": "StatefulPartitionedCall/transform_features_layer/StatefulPartitionedCall/mul_17", "op": "Mul", "input": ["StatefulPartitionedCall/transform_features_layer/StatefulPartitionedCall/ones_like_17", "StatefulPartitionedCall/transform_features_layer/StatefulPartitionedCall/add_16"], "attr": {"T": {"type": "DT_INT64"}}}, {"name": "StatefulPartitionedCall/transform_features_layer/StatefulPartitionedCall/Repeat_2/Tile", "op": "Tile", "input": ["StatefulPartitionedCall/transform_features_layer/StatefulPartitionedCall/Repeat_2/ExpandDims", "StatefulPartitionedCall/transform_features_layer/StatefulPartitionedCall/Repeat_2/Tile/multiples"], "attr": {"Tmultiples": {"type": "DT_INT32"}, "T": {"type": "DT_FLOAT"}}}, {"name": "StatefulPartitionedCall/transform_features_layer/StatefulPartitionedCall/mul_12", "op": "Mul", "input": ["StatefulPartitionedCall/transform_features_layer/StatefulPartitionedCall/ones_like_12", "StatefulPartitionedCall/transform_features_layer/StatefulPartitionedCall/add_11"], "attr": {"T": {"type": "DT_INT64"}}}, {"name": "StatefulPartitionedCall/transform_features_layer/StatefulPartitionedCall/mul", "op": "Mul", "input": ["StatefulPartitionedCall/transform_features_layer/StatefulPartitionedCall/ones_like", "StatefulPartitionedCall/transform_features_layer/StatefulPartitionedCall/add"], "attr": {"T": {"type": "DT_INT64"}}}, {"name": "StatefulPartitionedCall/transform_features_layer/StatefulPartitionedCall/mul_21", "op": "Mul", "input": ["StatefulPartitionedCall/transform_features_layer/StatefulPartitionedCall/ones_like_21", "StatefulPartitionedCall/transform_features_layer/StatefulPartitionedCall/add_20"], "attr": {"T": {"type": "DT_INT64"}}}, {"name": "StatefulPartitionedCall/transform_features_layer/StatefulPartitionedCall/mul_5", "op": "Mul", "input": ["StatefulPartitionedCall/transform_features_layer/StatefulPartitionedCall/ones_like_5", "StatefulPartitionedCall/transform_features_layer/StatefulPartitionedCall/add_5"], "attr": {"T": {"type": "DT_INT64"}}}, {"name": "StatefulPartitionedCall/transform_features_layer/StatefulPartitionedCall/Repeat_1/Tile", "op": "Tile", "input": ["StatefulPartitionedCall/transform_features_layer/StatefulPartitionedCall/Repeat_1/ExpandDims", "StatefulPartitionedCall/transform_features_layer/StatefulPartitionedCall/Repeat_1/Tile/multiples"], "attr": {"Tmultiples": {"type": "DT_INT32"}, "T": {"type": "DT_INT64"}}}, {"name": "StatefulPartitionedCall/transform_features_layer/StatefulPartitionedCall/mul_1", "op": "Mul", "input": ["StatefulPartitionedCall/transform_features_layer/StatefulPartitionedCall/ones_like_1", "StatefulPartitionedCall/transform_features_layer/StatefulPartitionedCall/add_1"], "attr": {"T": {"type": "DT_INT64"}}}, {"name": "StatefulPartitionedCall/transform_features_layer/StatefulPartitionedCall/Shape_2", "op": "Shape", "input": ["StatefulPartitionedCall/transform_features_layer/StatefulPartitionedCall/Cast_2"], "attr": {"out_type": {"type": "DT_INT32"}, "T": {"type": "DT_BOOL"}}, "experimentalType": {"typeId": "TFT_PRODUCT", "args": [{"typeId": "TFT_SHAPE_TENSOR", "args": [{"typeId": "TFT_INT32"}]}]}}, {"name": "StatefulPartitionedCall/transform_features_layer/StatefulPartitionedCall/Shape_1", "op": "Shape", "input": ["StatefulPartitionedCall/transform_features_layer/StatefulPartitionedCall/Cast_1"], "attr": {"T": {"type": "DT_BOOL"}, "out_type": {"type": "DT_INT32"}}, "experimentalType": {"typeId": "TFT_PRODUCT", "args": [{"typeId": "TFT_SHAPE_TENSOR", "args": [{"typeId": "TFT_INT32"}]}]}}, {"name": "StatefulPartitionedCall/transform_features_layer/StatefulPartitionedCall/Shape", "op": "Shape", "input": ["StatefulPartitionedCall/transform_features_layer/StatefulPartitionedCall/Cast"], "attr": {"T": {"type": "DT_BOOL"}, "out_type": {"type": "DT_INT32"}}, "experimentalType": {"typeId": "TFT_PRODUCT", "args": [{"typeId": "TFT_SHAPE_TENSOR", "args": [{"typeId": "TFT_INT32"}]}]}}, {"name": "StatefulPartitionedCall/transform_features_layer/StatefulPartitionedCall/Shape_3", "op": "Shape", "input": ["StatefulPartitionedCall/transform_features_layer/StatefulPartitionedCall/Cast_3"], "attr": {"out_type": {"type": "DT_INT32"}, "T": {"type": "DT_BOOL"}}, "experimentalType": {"typeId": "TFT_PRODUCT", "args": [{"typeId": "TFT_SHAPE_TENSOR", "args": [{"typeId": "TFT_INT32"}]}]}}, {"name": "StatefulPartitionedCall/transform_features_layer/StatefulPartitionedCall/Repeat_3/Tile", "op": "Tile", "input": ["StatefulPartitionedCall/transform_features_layer/StatefulPartitionedCall/Repeat_3/ExpandDims", "StatefulPartitionedCall/transform_features_layer/StatefulPartitionedCall/Repeat_3/Tile/multiples"], "attr": {"Tmultiples": {"type": "DT_INT32"}, "T": {"type": "DT_FLOAT"}}}, {"name": "StatefulPartitionedCall/transform_features_layer/StatefulPartitionedCall/mul_20", "op": "Mul", "input": ["StatefulPartitionedCall/transform_features_layer/StatefulPartitionedCall/ones_like_20", "StatefulPartitionedCall/transform_features_layer/StatefulPartitionedCall/add_19"], "attr": {"T": {"type": "DT_INT64"}}}, {"name": "StatefulPartitionedCall/transform_features_layer/StatefulPartitionedCall/mul_18", "op": "Mul", "input": ["StatefulPartitionedCall/transform_features_layer/StatefulPartitionedCall/ones_like_18", "StatefulPartitionedCall/transform_features_layer/StatefulPartitionedCall/add_17"], "attr": {"T": {"type": "DT_INT64"}}}, {"name": "StatefulPartitionedCall/transform_features_layer/StatefulPartitionedCall/mul_10", "op": "Mul", "input": ["StatefulPartitionedCall/transform_features_layer/StatefulPartitionedCall/ones_like_10", "StatefulPartitionedCall/transform_features_layer/StatefulPartitionedCall/add_9"], "attr": {"T": {"type": "DT_INT64"}}}, {"name": "StatefulPartitionedCall/model/tf.one_hot/one_hot", "op": "OneHot", "input": ["StatefulPartitionedCall/model/tf.reshape/Reshape", "StatefulPartitionedCall/model/tf.one_hot/one_hot/depth", "StatefulPartitionedCall/model/tf.one_hot/one_hot/on_value", "StatefulPartitionedCall/model/tf.one_hot/one_hot/off_value"], "attr": {"TI": {"type": "DT_INT64"}, "axis": {"i": "-1"}, "T": {"type": "DT_FLOAT"}}}, {"name": "StatefulPartitionedCall/transform_features_layer/StatefulPartitionedCall/mul_13", "op": "Mul", "input": ["StatefulPartitionedCall/transform_features_layer/StatefulPartitionedCall/ones_like_13", "StatefulPartitionedCall/transform_features_layer/StatefulPartitionedCall/add_12"], "attr": {"T": {"type": "DT_INT64"}}}, {"name": "StatefulPartitionedCall/transform_features_layer/StatefulPartitionedCall/mul_8", "op": "Mul", "input": ["StatefulPartitionedCall/transform_features_layer/StatefulPartitionedCall/ones_like_8", "StatefulPartitionedCall/transform_features_layer/StatefulPartitionedCall/add_7"], "attr": {"T": {"type": "DT_INT64"}}}, {"name": "StatefulPartitionedCall/transform_features_layer/StatefulPartitionedCall/mul_3", "op": "Mul", "input": ["StatefulPartitionedCall/transform_features_layer/StatefulPartitionedCall/ones_like_3", "StatefulPartitionedCall/transform_features_layer/StatefulPartitionedCall/add_3"], "attr": {"T": {"type": "DT_INT64"}}}, {"name": "StatefulPartitionedCall/transform_features_layer/StatefulPartitionedCall/mul_6", "op": "Mul", "input": ["StatefulPartitionedCall/transform_features_layer/StatefulPartitionedCall/ones_like_6", "StatefulPartitionedCall/transform_features_layer/StatefulPartitionedCall/mul_6/y"], "attr": {"T": {"type": "DT_INT64"}}}, {"name": "StatefulPartitionedCall/transform_features_layer/StatefulPartitionedCall/bucketize/apply_buckets/assign_buckets/Shape_1", "op": "Shape", "input": ["StatefulPartitionedCall/transform_features_layer/StatefulPartitionedCall/bucketize/apply_buckets/assign_buckets/Cast"], "attr": {"out_type": {"type": "DT_INT32"}, "T": {"type": "DT_FLOAT"}}, "experimentalType": {"typeId": "TFT_PRODUCT", "args": [{"typeId": "TFT_SHAPE_TENSOR", "args": [{"typeId": "TFT_INT32"}]}]}}, {"name": "StatefulPartitionedCall/model/tf.one_hot_1/one_hot", "op": "OneHot", "input": ["StatefulPartitionedCall/model/tf.reshape_2/Reshape", "StatefulPartitionedCall/model/tf.one_hot_1/one_hot/depth", "StatefulPartitionedCall/model/tf.one_hot_1/one_hot/on_value", "StatefulPartitionedCall/model/tf.one_hot_1/one_hot/off_value"], "attr": {"T": {"type": "DT_FLOAT"}, "TI": {"type": "DT_INT64"}, "axis": {"i": "-1"}}}, {"name": "StatefulPartitionedCall/transform_features_layer/StatefulPartitionedCall/mul_19", "op": "Mul", "input": ["StatefulPartitionedCall/transform_features_layer/StatefulPartitionedCall/ones_like_19", "StatefulPartitionedCall/transform_features_layer/StatefulPartitionedCall/add_18"], "attr": {"T": {"type": "DT_INT64"}}}, {"name": "StatefulPartitionedCall/transform_features_layer/StatefulPartitionedCall/mul_11", "op": "Mul", "input": ["StatefulPartitionedCall/transform_features_layer/StatefulPartitionedCall/ones_like_11", "StatefulPartitionedCall/transform_features_layer/StatefulPartitionedCall/add_10"], "attr": {"T": {"type": "DT_INT64"}}}, {"name": "StatefulPartitionedCall/transform_features_layer/StatefulPartitionedCall/mul_14", "op": "Mul", "input": ["StatefulPartitionedCall/transform_features_layer/StatefulPartitionedCall/ones_like_14", "StatefulPartitionedCall/transform_features_layer/StatefulPartitionedCall/add_13"], "attr": {"T": {"type": "DT_INT64"}}}, {"name": "StatefulPartitionedCall/transform_features_layer/StatefulPartitionedCall/mul_9", "op": "Mul", "input": ["StatefulPartitionedCall/transform_features_layer/StatefulPartitionedCall/ones_like_9", "StatefulPartitionedCall/transform_features_layer/StatefulPartitionedCall/add_8"], "attr": {"T": {"type": "DT_INT64"}}}, {"name": "StatefulPartitionedCall/transform_features_layer/StatefulPartitionedCall/Repeat/Tile", "op": "Tile", "input": ["StatefulPartitionedCall/transform_features_layer/StatefulPartitionedCall/Repeat/ExpandDims", "StatefulPartitionedCall/transform_features_layer/StatefulPartitionedCall/Repeat/Tile/multiples"], "attr": {"T": {"type": "DT_FLOAT"}, "Tmultiples": {"type": "DT_INT32"}}}, {"name": "StatefulPartitionedCall/transform_features_layer/StatefulPartitionedCall/mul_16", "op": "Mul", "input": ["StatefulPartitionedCall/transform_features_layer/StatefulPartitionedCall/ones_like_16", "StatefulPartitionedCall/transform_features_layer/StatefulPartitionedCall/add_15"], "attr": {"T": {"type": "DT_INT64"}}}, {"name": "StatefulPartitionedCall/transform_features_layer/StatefulPartitionedCall/mul_4", "op": "Mul", "input": ["StatefulPartitionedCall/transform_features_layer/StatefulPartitionedCall/ones_like_4", "StatefulPartitionedCall/transform_features_layer/StatefulPartitionedCall/add_4"], "attr": {"T": {"type": "DT_INT64"}}}, {"name": "StatefulPartitionedCall/transform_features_layer/StatefulPartitionedCall/mul_15", "op": "Mul", "input": ["StatefulPartitionedCall/transform_features_layer/StatefulPartitionedCall/ones_like_15", "StatefulPartitionedCall/transform_features_layer/StatefulPartitionedCall/add_14"], "attr": {"T": {"type": "DT_INT64"}}}, {"name": "StatefulPartitionedCall/transform_features_layer/StatefulPartitionedCall/mul_2", "op": "Mul", "input": ["StatefulPartitionedCall/transform_features_layer/StatefulPartitionedCall/ones_like_2", "StatefulPartitionedCall/transform_features_layer/StatefulPartitionedCall/add_2"], "attr": {"T": {"type": "DT_INT64"}}}, {"name": "StatefulPartitionedCall/transform_features_layer/StatefulPartitionedCall/SelectV2_21", "op": "SelectV2", "input": ["StatefulPartitionedCall/transform_features_layer/StatefulPartitionedCall/Equal_16", "StatefulPartitionedCall/transform_features_layer/StatefulPartitionedCall/mul_17", "ad_group_list_trigger_status"], "attr": {"T": {"type": "DT_INT64"}}}, {"name": "StatefulPartitionedCall/transform_features_layer/StatefulPartitionedCall/SelectV2_16", "op": "SelectV2", "input": ["StatefulPartitionedCall/transform_features_layer/StatefulPartitionedCall/Equal_11", "StatefulPartitionedCall/transform_features_layer/StatefulPartitionedCall/mul_12", "campaign_list_trigger_status"], "attr": {"T": {"type": "DT_INT64"}}}, {"name": "StatefulPartitionedCall/transform_features_layer/StatefulPartitionedCall/SelectV2_4", "op": "SelectV2", "input": ["StatefulPartitionedCall/transform_features_layer/StatefulPartitionedCall/Equal", "StatefulPartitionedCall/transform_features_layer/StatefulPartitionedCall/mul", "campaign_type"], "attr": {"T": {"type": "DT_INT64"}}}, {"name": "StatefulPartitionedCall/transform_features_layer/StatefulPartitionedCall/SelectV2_25", "op": "SelectV2", "input": ["StatefulPartitionedCall/transform_features_layer/StatefulPartitionedCall/Equal_20", "StatefulPartitionedCall/transform_features_layer/StatefulPartitionedCall/mul_21", "candidate_source"], "attr": {"T": {"type": "DT_INT64"}}}, {"name": "StatefulPartitionedCall/transform_features_layer/StatefulPartitionedCall/SelectV2_9", "op": "SelectV2", "input": ["StatefulPartitionedCall/transform_features_layer/StatefulPartitionedCall/Equal_5", "StatefulPartitionedCall/transform_features_layer/StatefulPartitionedCall/mul_5", "category"], "attr": {"T": {"type": "DT_INT64"}}}, {"name": "StatefulPartitionedCall/transform_features_layer/StatefulPartitionedCall/SelectV2_5", "op": "SelectV2", "input": ["StatefulPartitionedCall/transform_features_layer/StatefulPartitionedCall/Equal_1", "StatefulPartitionedCall/transform_features_layer/StatefulPartitionedCall/mul_1", "depth"], "attr": {"T": {"type": "DT_INT64"}}}, {"name": "StatefulPartitionedCall/transform_features_layer/StatefulPartitionedCall/Reshape_5", "op": "Reshape", "input": ["StatefulPartitionedCall/transform_features_layer/StatefulPartitionedCall/Repeat_2/Tile", "StatefulPartitionedCall/transform_features_layer/StatefulPartitionedCall/Shape_2"], "attr": {"Tshape": {"type": "DT_INT32"}, "T": {"type": "DT_FLOAT"}}}, {"name": "StatefulPartitionedCall/transform_features_layer/StatefulPartitionedCall/Reshape_3", "op": "Reshape", "input": ["StatefulPartitionedCall/transform_features_layer/StatefulPartitionedCall/Repeat_1/Tile", "StatefulPartitionedCall/transform_features_layer/StatefulPartitionedCall/Shape_1"], "attr": {"Tshape": {"type": "DT_INT32"}, "T": {"type": "DT_INT64"}}}, {"name": "StatefulPartitionedCall/transform_features_layer/StatefulPartitionedCall/Reshape_7", "op": "Reshape", "input": ["StatefulPartitionedCall/transform_features_layer/StatefulPartitionedCall/Repeat_3/Tile", "StatefulPartitionedCall/transform_features_layer/StatefulPartitionedCall/Shape_3"], "attr": {"Tshape": {"type": "DT_INT32"}, "T": {"type": "DT_FLOAT"}}}, {"name": "StatefulPartitionedCall/transform_features_layer/StatefulPartitionedCall/SelectV2_24", "op": "SelectV2", "input": ["StatefulPartitionedCall/transform_features_layer/StatefulPartitionedCall/Equal_19", "StatefulPartitionedCall/transform_features_layer/StatefulPartitionedCall/mul_20", "last_clicked_item_type"], "attr": {"T": {"type": "DT_INT64"}}}, {"name": "StatefulPartitionedCall/transform_features_layer/StatefulPartitionedCall/SelectV2_22", "op": "SelectV2", "input": ["StatefulPartitionedCall/transform_features_layer/StatefulPartitionedCall/Equal_17", "StatefulPartitionedCall/transform_features_layer/StatefulPartitionedCall/mul_18", "new_parent_campaign_selected_status"], "attr": {"T": {"type": "DT_INT64"}}}, {"name": "StatefulPartitionedCall/transform_features_layer/StatefulPartitionedCall/SelectV2_14", "op": "SelectV2", "input": ["StatefulPartitionedCall/transform_features_layer/StatefulPartitionedCall/Equal_9", "StatefulPartitionedCall/transform_features_layer/StatefulPartitionedCall/mul_10", "new_parent_scope_entity_displayed_status"], "attr": {"T": {"type": "DT_INT64"}}}, {"name": "StatefulPartitionedCall/transform_features_layer/StatefulPartitionedCall/SelectV2_17", "op": "SelectV2", "input": ["StatefulPartitionedCall/transform_features_layer/StatefulPartitionedCall/Equal_12", "StatefulPartitionedCall/transform_features_layer/StatefulPartitionedCall/mul_13", "new_selected_hierarchy_status"], "attr": {"T": {"type": "DT_INT64"}}}, {"name": "StatefulPartitionedCall/transform_features_layer/StatefulPartitionedCall/SelectV2_12", "op": "SelectV2", "input": ["StatefulPartitionedCall/transform_features_layer/StatefulPartitionedCall/Equal_7", "StatefulPartitionedCall/transform_features_layer/StatefulPartitionedCall/mul_8", "new_selected_scope_picker_entity_category"], "attr": {"T": {"type": "DT_INT64"}}}, {"name": "StatefulPartitionedCall/transform_features_layer/StatefulPartitionedCall/SelectV2_7", "op": "SelectV2", "input": ["StatefulPartitionedCall/transform_features_layer/StatefulPartitionedCall/Equal_3", "StatefulPartitionedCall/transform_features_layer/StatefulPartitionedCall/mul_3", "parent_campaign_type"], "attr": {"T": {"type": "DT_INT64"}}}, {"name": "StatefulPartitionedCall/transform_features_layer/StatefulPartitionedCall/SelectV2_10", "op": "SelectV2", "input": ["StatefulPartitionedCall/transform_features_layer/StatefulPartitionedCall/Greater", "StatefulPartitionedCall/transform_features_layer/StatefulPartitionedCall/mul_6", "position"], "attr": {"T": {"type": "DT_INT64"}}}, {"name": "StatefulPartitionedCall/transform_features_layer/StatefulPartitionedCall/bucketize/apply_buckets/assign_buckets/strided_slice_1", "op": "StridedSlice", "input": ["StatefulPartitionedCall/transform_features_layer/StatefulPartitionedCall/bucketize/apply_buckets/assign_buckets/Shape_1", "StatefulPartitionedCall/transform_features_layer/StatefulPartitionedCall/bucketize/apply_buckets/assign_buckets/strided_slice_1/stack", "StatefulPartitionedCall/transform_features_layer/StatefulPartitionedCall/bucketize/apply_buckets/assign_buckets/strided_slice_1/stack_1", "StatefulPartitionedCall/transform_features_layer/StatefulPartitionedCall/bucketize/apply_buckets/assign_buckets/strided_slice_1/stack_2"], "attr": {"new_axis_mask": {"i": "0"}, "end_mask": {"i": "0"}, "shrink_axis_mask": {"i": "1"}, "T": {"type": "DT_INT32"}, "begin_mask": {"i": "0"}, "Index": {"type": "DT_INT32"}, "ellipsis_mask": {"i": "0"}}}, {"name": "StatefulPartitionedCall/transform_features_layer/StatefulPartitionedCall/SelectV2_23", "op": "SelectV2", "input": ["StatefulPartitionedCall/transform_features_layer/StatefulPartitionedCall/Equal_18", "StatefulPartitionedCall/transform_features_layer/StatefulPartitionedCall/mul_19", "previous_parent_campaign_selected_status"], "attr": {"T": {"type": "DT_INT64"}}}, {"name": "StatefulPartitionedCall/transform_features_layer/StatefulPartitionedCall/SelectV2_15", "op": "SelectV2", "input": ["StatefulPartitionedCall/transform_features_layer/StatefulPartitionedCall/Equal_10", "StatefulPartitionedCall/transform_features_layer/StatefulPartitionedCall/mul_11", "previous_parent_scope_entity_displayed_status"], "attr": {"T": {"type": "DT_INT64"}}}, {"name": "StatefulPartitionedCall/transform_features_layer/StatefulPartitionedCall/SelectV2_18", "op": "SelectV2", "input": ["StatefulPartitionedCall/transform_features_layer/StatefulPartitionedCall/Equal_13", "StatefulPartitionedCall/transform_features_layer/StatefulPartitionedCall/mul_14", "previous_selected_hierarchy_status"], "attr": {"T": {"type": "DT_INT64"}}}, {"name": "StatefulPartitionedCall/transform_features_layer/StatefulPartitionedCall/SelectV2_13", "op": "SelectV2", "input": ["StatefulPartitionedCall/transform_features_layer/StatefulPartitionedCall/Equal_8", "StatefulPartitionedCall/transform_features_layer/StatefulPartitionedCall/mul_9", "previous_selected_scope_picker_entity_category"], "attr": {"T": {"type": "DT_INT64"}}}, {"name": "StatefulPartitionedCall/transform_features_layer/StatefulPartitionedCall/Reshape_1", "op": "Reshape", "input": ["StatefulPartitionedCall/transform_features_layer/StatefulPartitionedCall/Repeat/Tile", "StatefulPartitionedCall/transform_features_layer/StatefulPartitionedCall/Shape"], "attr": {"Tshape": {"type": "DT_INT32"}, "T": {"type": "DT_FLOAT"}}}, {"name": "StatefulPartitionedCall/transform_features_layer/StatefulPartitionedCall/SelectV2_20", "op": "SelectV2", "input": ["StatefulPartitionedCall/transform_features_layer/StatefulPartitionedCall/Equal_15", "StatefulPartitionedCall/transform_features_layer/StatefulPartitionedCall/mul_16", "scope_picker_entity_list_trigger_status"], "attr": {"T": {"type": "DT_INT64"}}}, {"name": "StatefulPartitionedCall/transform_features_layer/StatefulPartitionedCall/SelectV2_8", "op": "SelectV2", "input": ["StatefulPartitionedCall/transform_features_layer/StatefulPartitionedCall/Equal_4", "StatefulPartitionedCall/transform_features_layer/StatefulPartitionedCall/mul_4", "status"], "attr": {"T": {"type": "DT_INT64"}}}, {"name": "StatefulPartitionedCall/transform_features_layer/StatefulPartitionedCall/SelectV2_19", "op": "SelectV2", "input": ["StatefulPartitionedCall/transform_features_layer/StatefulPartitionedCall/Equal_14", "StatefulPartitionedCall/transform_features_layer/StatefulPartitionedCall/mul_15", "trigger_status"], "attr": {"T": {"type": "DT_INT64"}}}, {"name": "StatefulPartitionedCall/transform_features_layer/StatefulPartitionedCall/SelectV2_6", "op": "SelectV2", "input": ["StatefulPartitionedCall/transform_features_layer/StatefulPartitionedCall/Equal_2", "StatefulPartitionedCall/transform_features_layer/StatefulPartitionedCall/mul_2", "trigger_type"], "attr": {"T": {"type": "DT_INT64"}}}, {"name": "StatefulPartitionedCall/model/ExpandDims", "op": "ExpandDims", "input": ["StatefulPartitionedCall/transform_features_layer/StatefulPartitionedCall/SelectV2_21", "StatefulPartitionedCall/model/ExpandDims/dim"], "attr": {"T": {"type": "DT_INT64"}, "Tdim": {"type": "DT_INT32"}}}, {"name": "StatefulPartitionedCall/model/ExpandDims_1", "op": "ExpandDims", "input": ["StatefulPartitionedCall/transform_features_layer/StatefulPartitionedCall/SelectV2_16", "StatefulPartitionedCall/model/ExpandDims_1/dim"], "attr": {"Tdim": {"type": "DT_INT32"}, "T": {"type": "DT_INT64"}}}, {"name": "StatefulPartitionedCall/model/ExpandDims_2", "op": "ExpandDims", "input": ["StatefulPartitionedCall/transform_features_layer/StatefulPartitionedCall/SelectV2_4", "StatefulPartitionedCall/model/ExpandDims_2/dim"], "attr": {"Tdim": {"type": "DT_INT32"}, "T": {"type": "DT_INT64"}}}, {"name": "StatefulPartitionedCall/model/ExpandDims_3", "op": "ExpandDims", "input": ["StatefulPartitionedCall/transform_features_layer/StatefulPartitionedCall/SelectV2_25", "StatefulPartitionedCall/model/ExpandDims_3/dim"], "attr": {"T": {"type": "DT_INT64"}, "Tdim": {"type": "DT_INT32"}}}, {"name": "StatefulPartitionedCall/model/ExpandDims_4", "op": "ExpandDims", "input": ["StatefulPartitionedCall/transform_features_layer/StatefulPartitionedCall/SelectV2_9", "StatefulPartitionedCall/model/ExpandDims_4/dim"], "attr": {"Tdim": {"type": "DT_INT32"}, "T": {"type": "DT_INT64"}}}, {"name": "StatefulPartitionedCall/model/ExpandDims_5", "op": "ExpandDims", "input": ["StatefulPartitionedCall/transform_features_layer/StatefulPartitionedCall/SelectV2_5", "StatefulPartitionedCall/model/ExpandDims_5/dim"], "attr": {"T": {"type": "DT_INT64"}, "Tdim": {"type": "DT_INT32"}}}, {"name": "StatefulPartitionedCall/transform_features_layer/StatefulPartitionedCall/SelectV2_2", "op": "SelectV2", "input": ["StatefulPartitionedCall/transform_features_layer/StatefulPartitionedCall/Cast_2", "StatefulPartitionedCall/transform_features_layer/StatefulPartitionedCall/Reshape_5", "StatefulPartitionedCall/transform_features_layer/StatefulPartitionedCall/zeros_2"], "attr": {"T": {"type": "DT_FLOAT"}}}, {"name": "StatefulPartitionedCall/transform_features_layer/StatefulPartitionedCall/SelectV2_1", "op": "SelectV2", "input": ["StatefulPartitionedCall/transform_features_layer/StatefulPartitionedCall/Cast_1", "StatefulPartitionedCall/transform_features_layer/StatefulPartitionedCall/Reshape_3", "StatefulPartitionedCall/transform_features_layer/StatefulPartitionedCall/zeros_1"], "attr": {"T": {"type": "DT_INT64"}}}, {"name": "StatefulPartitionedCall/transform_features_layer/StatefulPartitionedCall/SelectV2_3", "op": "SelectV2", "input": ["StatefulPartitionedCall/transform_features_layer/StatefulPartitionedCall/Cast_3", "StatefulPartitionedCall/transform_features_layer/StatefulPartitionedCall/Reshape_7", "StatefulPartitionedCall/transform_features_layer/StatefulPartitionedCall/zeros_3"], "attr": {"T": {"type": "DT_FLOAT"}}}, {"name": "StatefulPartitionedCall/model/ExpandDims_6", "op": "ExpandDims", "input": ["StatefulPartitionedCall/transform_features_layer/StatefulPartitionedCall/SelectV2_24", "StatefulPartitionedCall/model/ExpandDims_6/dim"], "attr": {"Tdim": {"type": "DT_INT32"}, "T": {"type": "DT_INT64"}}}, {"name": "StatefulPartitionedCall/model/ExpandDims_7", "op": "ExpandDims", "input": ["StatefulPartitionedCall/transform_features_layer/StatefulPartitionedCall/SelectV2_22", "StatefulPartitionedCall/model/ExpandDims_7/dim"], "attr": {"Tdim": {"type": "DT_INT32"}, "T": {"type": "DT_INT64"}}}, {"name": "StatefulPartitionedCall/model/ExpandDims_8", "op": "ExpandDims", "input": ["StatefulPartitionedCall/transform_features_layer/StatefulPartitionedCall/SelectV2_14", "StatefulPartitionedCall/model/ExpandDims_8/dim"], "attr": {"T": {"type": "DT_INT64"}, "Tdim": {"type": "DT_INT32"}}}, {"name": "StatefulPartitionedCall/model/ExpandDims_12", "op": "ExpandDims", "input": ["StatefulPartitionedCall/transform_features_layer/StatefulPartitionedCall/SelectV2_17", "StatefulPartitionedCall/model/ExpandDims_12/dim"], "attr": {"T": {"type": "DT_INT64"}, "Tdim": {"type": "DT_INT32"}}}, {"name": "StatefulPartitionedCall/model/ExpandDims_13", "op": "ExpandDims", "input": ["StatefulPartitionedCall/transform_features_layer/StatefulPartitionedCall/SelectV2_12", "StatefulPartitionedCall/model/ExpandDims_13/dim"], "attr": {"Tdim": {"type": "DT_INT32"}, "T": {"type": "DT_INT64"}}}, {"name": "StatefulPartitionedCall/model/ExpandDims_14", "op": "ExpandDims", "input": ["StatefulPartitionedCall/transform_features_layer/StatefulPartitionedCall/SelectV2_7", "StatefulPartitionedCall/model/ExpandDims_14/dim"], "attr": {"Tdim": {"type": "DT_INT32"}, "T": {"type": "DT_INT64"}}}, {"name": "StatefulPartitionedCall/transform_features_layer/StatefulPartitionedCall/Equal_6", "op": "Equal", "input": ["StatefulPartitionedCall/transform_features_layer/StatefulPartitionedCall/SelectV2_10", "StatefulPartitionedCall/transform_features_layer/StatefulPartitionedCall/Equal_6/y"], "attr": {"incompatible_shape_error": {"b": true}, "T": {"type": "DT_INT64"}}}, {"name": "StatefulPartitionedCall/transform_features_layer/StatefulPartitionedCall/ones_like_7/Shape", "op": "Shape", "input": ["StatefulPartitionedCall/transform_features_layer/StatefulPartitionedCall/SelectV2_10"], "attr": {"out_type": {"type": "DT_INT32"}, "T": {"type": "DT_INT64"}}, "experimentalType": {"typeId": "TFT_PRODUCT", "args": [{"typeId": "TFT_SHAPE_TENSOR", "args": [{"typeId": "TFT_INT32"}]}]}}, {"name": "StatefulPartitionedCall/transform_features_layer/StatefulPartitionedCall/bucketize/apply_buckets/assign_buckets/Reshape_3/shape", "op": "Pack", "input": ["StatefulPartitionedCall/transform_features_layer/StatefulPartitionedCall/bucketize/apply_buckets/assign_buckets/Reshape_3/shape/0", "StatefulPartitionedCall/transform_features_layer/StatefulPartitionedCall/bucketize/apply_buckets/assign_buckets/strided_slice_1"], "attr": {"axis": {"i": "0"}, "N": {"i": "2"}, "T": {"type": "DT_INT32"}}}, {"name": "StatefulPartitionedCall/model/ExpandDims_18", "op": "ExpandDims", "input": ["StatefulPartitionedCall/transform_features_layer/StatefulPartitionedCall/SelectV2_23", "StatefulPartitionedCall/model/ExpandDims_18/dim"], "attr": {"Tdim": {"type": "DT_INT32"}, "T": {"type": "DT_INT64"}}}, {"name": "StatefulPartitionedCall/model/ExpandDims_19", "op": "ExpandDims", "input": ["StatefulPartitionedCall/transform_features_layer/StatefulPartitionedCall/SelectV2_15", "StatefulPartitionedCall/model/ExpandDims_19/dim"], "attr": {"Tdim": {"type": "DT_INT32"}, "T": {"type": "DT_INT64"}}}, {"name": "StatefulPartitionedCall/model/ExpandDims_22", "op": "ExpandDims", "input": ["StatefulPartitionedCall/transform_features_layer/StatefulPartitionedCall/SelectV2_18", "StatefulPartitionedCall/model/ExpandDims_22/dim"], "attr": {"T": {"type": "DT_INT64"}, "Tdim": {"type": "DT_INT32"}}}, {"name": "StatefulPartitionedCall/model/ExpandDims_23", "op": "ExpandDims", "input": ["StatefulPartitionedCall/transform_features_layer/StatefulPartitionedCall/SelectV2_13", "StatefulPartitionedCall/model/ExpandDims_23/dim"], "attr": {"T": {"type": "DT_INT64"}, "Tdim": {"type": "DT_INT32"}}}, {"name": "StatefulPartitionedCall/transform_features_layer/StatefulPartitionedCall/SelectV2", "op": "SelectV2", "input": ["StatefulPartitionedCall/transform_features_layer/StatefulPartitionedCall/Cast", "StatefulPartitionedCall/transform_features_layer/StatefulPartitionedCall/Reshape_1", "StatefulPartitionedCall/transform_features_layer/StatefulPartitionedCall/zeros"], "attr": {"T": {"type": "DT_FLOAT"}}}, {"name": "StatefulPartitionedCall/model/ExpandDims_24", "op": "ExpandDims", "input": ["StatefulPartitionedCall/transform_features_layer/StatefulPartitionedCall/SelectV2_20", "StatefulPartitionedCall/model/ExpandDims_24/dim"], "attr": {"Tdim": {"type": "DT_INT32"}, "T": {"type": "DT_INT64"}}}, {"name": "StatefulPartitionedCall/model/ExpandDims_27", "op": "ExpandDims", "input": ["StatefulPartitionedCall/transform_features_layer/StatefulPartitionedCall/SelectV2_8", "StatefulPartitionedCall/model/ExpandDims_27/dim"], "attr": {"T": {"type": "DT_INT64"}, "Tdim": {"type": "DT_INT32"}}}, {"name": "StatefulPartitionedCall/model/ExpandDims_28", "op": "ExpandDims", "input": ["StatefulPartitionedCall/transform_features_layer/StatefulPartitionedCall/SelectV2_19", "StatefulPartitionedCall/model/ExpandDims_28/dim"], "attr": {"T": {"type": "DT_INT64"}, "Tdim": {"type": "DT_INT32"}}}, {"name": "StatefulPartitionedCall/model/ExpandDims_29", "op": "ExpandDims", "input": ["StatefulPartitionedCall/transform_features_layer/StatefulPartitionedCall/SelectV2_6", "StatefulPartitionedCall/model/ExpandDims_29/dim"], "attr": {"T": {"type": "DT_INT64"}, "Tdim": {"type": "DT_INT32"}}}, {"name": "StatefulPartitionedCall/model/embedding_17/embedding_lookup", "op": "GatherV2", "input": ["unknown_105", "StatefulPartitionedCall/model/ExpandDims", "StatefulPartitionedCall/model/embedding_17/embedding_lookup/axis"], "attr": {"batch_dims": {"i": "0"}, "Taxis": {"type": "DT_INT64"}, "Tparams": {"type": "DT_FLOAT"}, "Tindices": {"type": "DT_INT64"}, "_has_manual_control_dependencies": {"b": true}}}, {"name": "StatefulPartitionedCall/model/embedding_12/embedding_lookup", "op": "GatherV2", "input": ["unknown_104", "StatefulPartitionedCall/model/ExpandDims_1", "StatefulPartitionedCall/model/embedding_12/embedding_lookup/axis"], "attr": {"Taxis": {"type": "DT_INT64"}, "_has_manual_control_dependencies": {"b": true}, "batch_dims": {"i": "0"}, "Tparams": {"type": "DT_FLOAT"}, "Tindices": {"type": "DT_INT64"}}}, {"name": "StatefulPartitionedCall/model/embedding/embedding_lookup", "op": "GatherV2", "input": ["unknown_103", "StatefulPartitionedCall/model/ExpandDims_2", "StatefulPartitionedCall/model/embedding/embedding_lookup/axis"], "attr": {"batch_dims": {"i": "0"}, "Taxis": {"type": "DT_INT64"}, "_has_manual_control_dependencies": {"b": true}, "Tindices": {"type": "DT_INT64"}, "Tparams": {"type": "DT_FLOAT"}}}, {"name": "StatefulPartitionedCall/model/embedding_21/embedding_lookup", "op": "GatherV2", "input": ["unknown_102", "StatefulPartitionedCall/model/ExpandDims_3", "StatefulPartitionedCall/model/embedding_21/embedding_lookup/axis"], "attr": {"Tindices": {"type": "DT_INT64"}, "Tparams": {"type": "DT_FLOAT"}, "_has_manual_control_dependencies": {"b": true}, "Taxis": {"type": "DT_INT64"}, "batch_dims": {"i": "0"}}}, {"name": "StatefulPartitionedCall/model/embedding_6/embedding_lookup", "op": "GatherV2", "input": ["unknown_101", "StatefulPartitionedCall/model/ExpandDims_4", "StatefulPartitionedCall/model/embedding_6/embedding_lookup/axis"], "attr": {"Tparams": {"type": "DT_FLOAT"}, "Tindices": {"type": "DT_INT64"}, "_has_manual_control_dependencies": {"b": true}, "batch_dims": {"i": "0"}, "Taxis": {"type": "DT_INT64"}}}, {"name": "StatefulPartitionedCall/model/embedding_1/embedding_lookup", "op": "GatherV2", "input": ["unknown_100", "StatefulPartitionedCall/model/ExpandDims_5", "StatefulPartitionedCall/model/embedding_1/embedding_lookup/axis"], "attr": {"Tparams": {"type": "DT_FLOAT"}, "_has_manual_control_dependencies": {"b": true}, "Tindices": {"type": "DT_INT64"}, "batch_dims": {"i": "0"}, "Taxis": {"type": "DT_INT64"}}}, {"name": "StatefulPartitionedCall/transform_features_layer/StatefulPartitionedCall/Sum_2", "op": "Sum", "input": ["StatefulPartitionedCall/transform_features_layer/StatefulPartitionedCall/SelectV2_2", "StatefulPartitionedCall/transform_features_layer/StatefulPartitionedCall/Sum_2/reduction_indices"], "attr": {"T": {"type": "DT_FLOAT"}, "keep_dims": {"b": false}, "Tidx": {"type": "DT_INT32"}}}, {"name": "StatefulPartitionedCall/transform_features_layer/StatefulPartitionedCall/Sum_1", "op": "Sum", "input": ["StatefulPartitionedCall/transform_features_layer/StatefulPartitionedCall/SelectV2_1", "StatefulPartitionedCall/transform_features_layer/StatefulPartitionedCall/Sum_1/reduction_indices"], "attr": {"keep_dims": {"b": false}, "Tidx": {"type": "DT_INT32"}, "T": {"type": "DT_INT64"}}}, {"name": "StatefulPartitionedCall/transform_features_layer/StatefulPartitionedCall/Sum_3", "op": "Sum", "input": ["StatefulPartitionedCall/transform_features_layer/StatefulPartitionedCall/SelectV2_3", "StatefulPartitionedCall/transform_features_layer/StatefulPartitionedCall/Sum_3/reduction_indices"], "attr": {"keep_dims": {"b": false}, "T": {"type": "DT_FLOAT"}, "Tidx": {"type": "DT_INT32"}}}, {"name": "StatefulPartitionedCall/model/embedding_20/embedding_lookup", "op": "GatherV2", "input": ["unknown_99", "StatefulPartitionedCall/model/ExpandDims_6", "StatefulPartitionedCall/model/embedding_20/embedding_lookup/axis"], "attr": {"_has_manual_control_dependencies": {"b": true}, "Tindices": {"type": "DT_INT64"}, "batch_dims": {"i": "0"}, "Tparams": {"type": "DT_FLOAT"}, "Taxis": {"type": "DT_INT64"}}}, {"name": "StatefulPartitionedCall/model/embedding_18/embedding_lookup", "op": "GatherV2", "input": ["unknown_98", "StatefulPartitionedCall/model/ExpandDims_7", "StatefulPartitionedCall/model/embedding_18/embedding_lookup/axis"], "attr": {"batch_dims": {"i": "0"}, "Taxis": {"type": "DT_INT64"}, "Tindices": {"type": "DT_INT64"}, "Tparams": {"type": "DT_FLOAT"}, "_has_manual_control_dependencies": {"b": true}}}, {"name": "StatefulPartitionedCall/model/embedding_10/embedding_lookup", "op": "GatherV2", "input": ["unknown_97", "StatefulPartitionedCall/model/ExpandDims_8", "StatefulPartitionedCall/model/embedding_10/embedding_lookup/axis"], "attr": {"Taxis": {"type": "DT_INT64"}, "Tindices": {"type": "DT_INT64"}, "Tparams": {"type": "DT_FLOAT"}, "batch_dims": {"i": "0"}, "_has_manual_control_dependencies": {"b": true}}}, {"name": "StatefulPartitionedCall/model/embedding_13/embedding_lookup", "op": "GatherV2", "input": ["unknown_96", "StatefulPartitionedCall/model/ExpandDims_12", "StatefulPartitionedCall/model/embedding_13/embedding_lookup/axis"], "attr": {"Tparams": {"type": "DT_FLOAT"}, "_has_manual_control_dependencies": {"b": true}, "batch_dims": {"i": "0"}, "Taxis": {"type": "DT_INT64"}, "Tindices": {"type": "DT_INT64"}}}, {"name": "StatefulPartitionedCall/model/embedding_8/embedding_lookup", "op": "GatherV2", "input": ["unknown_95", "StatefulPartitionedCall/model/ExpandDims_13", "StatefulPartitionedCall/model/embedding_8/embedding_lookup/axis"], "attr": {"_has_manual_control_dependencies": {"b": true}, "Tindices": {"type": "DT_INT64"}, "batch_dims": {"i": "0"}, "Tparams": {"type": "DT_FLOAT"}, "Taxis": {"type": "DT_INT64"}}}, {"name": "StatefulPartitionedCall/model/embedding_4/embedding_lookup", "op": "GatherV2", "input": ["unknown_94", "StatefulPartitionedCall/model/ExpandDims_14", "StatefulPartitionedCall/model/embedding_4/embedding_lookup/axis"], "attr": {"Tindices": {"type": "DT_INT64"}, "Tparams": {"type": "DT_FLOAT"}, "_has_manual_control_dependencies": {"b": true}, "Taxis": {"type": "DT_INT64"}, "batch_dims": {"i": "0"}}}, {"name": "StatefulPartitionedCall/transform_features_layer/StatefulPartitionedCall/ones_like_7", "op": "Fill", "input": ["StatefulPartitionedCall/transform_features_layer/StatefulPartitionedCall/ones_like_7/Shape", "StatefulPartitionedCall/transform_features_layer/StatefulPartitionedCall/ones_like_7/Const"], "attr": {"T": {"type": "DT_INT64"}, "index_type": {"type": "DT_INT32"}}}, {"name": "StatefulPartitionedCall/transform_features_layer/StatefulPartitionedCall/bucketize/apply_buckets/assign_buckets/Reshape_3", "op": "Reshape", "input": ["StatefulPartitionedCall/transform_features_layer/StatefulPartitionedCall/bucketize/apply_buckets/assign_buckets/Cast", "StatefulPartitionedCall/transform_features_layer/StatefulPartitionedCall/bucketize/apply_buckets/assign_buckets/Reshape_3/shape"], "attr": {"T": {"type": "DT_FLOAT"}, "Tshape": {"type": "DT_INT32"}}}, {"name": "StatefulPartitionedCall/model/embedding_19/embedding_lookup", "op": "GatherV2", "input": ["unknown_91", "StatefulPartitionedCall/model/ExpandDims_18", "StatefulPartitionedCall/model/embedding_19/embedding_lookup/axis"], "attr": {"batch_dims": {"i": "0"}, "_has_manual_control_dependencies": {"b": true}, "Taxis": {"type": "DT_INT64"}, "Tparams": {"type": "DT_FLOAT"}, "Tindices": {"type": "DT_INT64"}}}, {"name": "StatefulPartitionedCall/model/embedding_11/embedding_lookup", "op": "GatherV2", "input": ["unknown_90", "StatefulPartitionedCall/model/ExpandDims_19", "StatefulPartitionedCall/model/embedding_11/embedding_lookup/axis"], "attr": {"_has_manual_control_dependencies": {"b": true}, "Tparams": {"type": "DT_FLOAT"}, "Tindices": {"type": "DT_INT64"}, "Taxis": {"type": "DT_INT64"}, "batch_dims": {"i": "0"}}}, {"name": "StatefulPartitionedCall/model/embedding_14/embedding_lookup", "op": "GatherV2", "input": ["unknown_89", "StatefulPartitionedCall/model/ExpandDims_22", "StatefulPartitionedCall/model/embedding_14/embedding_lookup/axis"], "attr": {"Taxis": {"type": "DT_INT64"}, "Tindices": {"type": "DT_INT64"}, "Tparams": {"type": "DT_FLOAT"}, "batch_dims": {"i": "0"}, "_has_manual_control_dependencies": {"b": true}}}, {"name": "StatefulPartitionedCall/model/embedding_9/embedding_lookup", "op": "GatherV2", "input": ["unknown_88", "StatefulPartitionedCall/model/ExpandDims_23", "StatefulPartitionedCall/model/embedding_9/embedding_lookup/axis"], "attr": {"Tparams": {"type": "DT_FLOAT"}, "Tindices": {"type": "DT_INT64"}, "_has_manual_control_dependencies": {"b": true}, "Taxis": {"type": "DT_INT64"}, "batch_dims": {"i": "0"}}}, {"name": "StatefulPartitionedCall/transform_features_layer/StatefulPartitionedCall/Sum", "op": "Sum", "input": ["StatefulPartitionedCall/transform_features_layer/StatefulPartitionedCall/SelectV2", "StatefulPartitionedCall/transform_features_layer/StatefulPartitionedCall/Sum/reduction_indices"], "attr": {"T": {"type": "DT_FLOAT"}, "keep_dims": {"b": false}, "Tidx": {"type": "DT_INT32"}}}, {"name": "StatefulPartitionedCall/model/embedding_16/embedding_lookup", "op": "GatherV2", "input": ["unknown_87", "StatefulPartitionedCall/model/ExpandDims_24", "StatefulPartitionedCall/model/embedding_16/embedding_lookup/axis"], "attr": {"Taxis": {"type": "DT_INT64"}, "batch_dims": {"i": "0"}, "_has_manual_control_dependencies": {"b": true}, "Tparams": {"type": "DT_FLOAT"}, "Tindices": {"type": "DT_INT64"}}}, {"name": "StatefulPartitionedCall/model/embedding_5/embedding_lookup", "op": "GatherV2", "input": ["unknown_86", "StatefulPartitionedCall/model/ExpandDims_27", "StatefulPartitionedCall/model/embedding_5/embedding_lookup/axis"], "attr": {"Taxis": {"type": "DT_INT64"}, "_has_manual_control_dependencies": {"b": true}, "Tindices": {"type": "DT_INT64"}, "Tparams": {"type": "DT_FLOAT"}, "batch_dims": {"i": "0"}}}, {"name": "StatefulPartitionedCall/model/embedding_15/embedding_lookup", "op": "GatherV2", "input": ["unknown_85", "StatefulPartitionedCall/model/ExpandDims_28", "StatefulPartitionedCall/model/embedding_15/embedding_lookup/axis"], "attr": {"batch_dims": {"i": "0"}, "Tindices": {"type": "DT_INT64"}, "_has_manual_control_dependencies": {"b": true}, "Taxis": {"type": "DT_INT64"}, "Tparams": {"type": "DT_FLOAT"}}}, {"name": "StatefulPartitionedCall/model/embedding_2/embedding_lookup", "op": "GatherV2", "input": ["unknown_84", "StatefulPartitionedCall/model/ExpandDims_29", "StatefulPartitionedCall/model/embedding_2/embedding_lookup/axis"], "attr": {"Tparams": {"type": "DT_FLOAT"}, "Taxis": {"type": "DT_INT64"}, "_has_manual_control_dependencies": {"b": true}, "batch_dims": {"i": "0"}, "Tindices": {"type": "DT_INT64"}}}, {"name": "StatefulPartitionedCall/model/tf.compat.v1.squeeze_17/Squeeze", "op": "Squeeze", "input": ["StatefulPartitionedCall/model/embedding_17/embedding_lookup"], "attr": {"T": {"type": "DT_FLOAT"}, "squeeze_dims": {"list": {"i": ["1"]}}}}, {"name": "StatefulPartitionedCall/model/tf.compat.v1.squeeze_12/Squeeze", "op": "Squeeze", "input": ["StatefulPartitionedCall/model/embedding_12/embedding_lookup"], "attr": {"squeeze_dims": {"list": {"i": ["1"]}}, "T": {"type": "DT_FLOAT"}}}, {"name": "StatefulPartitionedCall/model/tf.compat.v1.squeeze/Squeeze", "op": "Squeeze", "input": ["StatefulPartitionedCall/model/embedding/embedding_lookup"], "attr": {"squeeze_dims": {"list": {"i": ["1"]}}, "T": {"type": "DT_FLOAT"}}}, {"name": "StatefulPartitionedCall/model/tf.compat.v1.squeeze_21/Squeeze", "op": "Squeeze", "input": ["StatefulPartitionedCall/model/embedding_21/embedding_lookup"], "attr": {"T": {"type": "DT_FLOAT"}, "squeeze_dims": {"list": {"i": ["1"]}}}}, {"name": "StatefulPartitionedCall/model/tf.compat.v1.squeeze_6/Squeeze", "op": "Squeeze", "input": ["StatefulPartitionedCall/model/embedding_6/embedding_lookup"], "attr": {"squeeze_dims": {"list": {"i": ["1"]}}, "T": {"type": "DT_FLOAT"}}}, {"name": "StatefulPartitionedCall/model/tf.compat.v1.squeeze_1/Squeeze", "op": "Squeeze", "input": ["StatefulPartitionedCall/model/embedding_1/embedding_lookup"], "attr": {"T": {"type": "DT_FLOAT"}, "squeeze_dims": {"list": {"i": ["1"]}}}}, {"name": "StatefulPartitionedCall/transform_features_layer/StatefulPartitionedCall/Log1p", "op": "Log1p", "input": ["StatefulPartitionedCall/transform_features_layer/StatefulPartitionedCall/Sum_2"], "attr": {"T": {"type": "DT_FLOAT"}}}, {"name": "StatefulPartitionedCall/transform_features_layer/StatefulPartitionedCall/Cast_4", "op": "Cast", "input": ["StatefulPartitionedCall/transform_features_layer/StatefulPartitionedCall/Sum_1"], "attr": {"DstT": {"type": "DT_FLOAT"}, "SrcT": {"type": "DT_INT64"}, "Truncate": {"b": false}}}, {"name": "StatefulPartitionedCall/model/tf.math.multiply_3/Mul", "op": "Mul", "input": ["StatefulPartitionedCall/transform_features_layer/StatefulPartitionedCall/Sum_3", "StatefulPartitionedCall/model/tf.one_hot_1/one_hot"], "attr": {"T": {"type": "DT_FLOAT"}}}, {"name": "StatefulPartitionedCall/model/tf.compat.v1.squeeze_20/Squeeze", "op": "Squeeze", "input": ["StatefulPartitionedCall/model/embedding_20/embedding_lookup"], "attr": {"squeeze_dims": {"list": {"i": ["1"]}}, "T": {"type": "DT_FLOAT"}}}, {"name": "StatefulPartitionedCall/model/tf.compat.v1.squeeze_18/Squeeze", "op": "Squeeze", "input": ["StatefulPartitionedCall/model/embedding_18/embedding_lookup"], "attr": {"squeeze_dims": {"list": {"i": ["1"]}}, "T": {"type": "DT_FLOAT"}}}, {"name": "StatefulPartitionedCall/model/tf.compat.v1.squeeze_10/Squeeze", "op": "Squeeze", "input": ["StatefulPartitionedCall/model/embedding_10/embedding_lookup"], "attr": {"T": {"type": "DT_FLOAT"}, "squeeze_dims": {"list": {"i": ["1"]}}}}, {"name": "StatefulPartitionedCall/model/tf.compat.v1.squeeze_13/Squeeze", "op": "Squeeze", "input": ["StatefulPartitionedCall/model/embedding_13/embedding_lookup"], "attr": {"squeeze_dims": {"list": {"i": ["1"]}}, "T": {"type": "DT_FLOAT"}}}, {"name": "StatefulPartitionedCall/model/tf.compat.v1.squeeze_8/Squeeze", "op": "Squeeze", "input": ["StatefulPartitionedCall/model/embedding_8/embedding_lookup"], "attr": {"T": {"type": "DT_FLOAT"}, "squeeze_dims": {"list": {"i": ["1"]}}}}, {"name": "StatefulPartitionedCall/model/tf.compat.v1.squeeze_4/Squeeze", "op": "Squeeze", "input": ["StatefulPartitionedCall/model/embedding_4/embedding_lookup"], "attr": {"squeeze_dims": {"list": {"i": ["1"]}}, "T": {"type": "DT_FLOAT"}}}, {"name": "StatefulPartitionedCall/transform_features_layer/StatefulPartitionedCall/mul_7", "op": "Mul", "input": ["StatefulPartitionedCall/transform_features_layer/StatefulPartitionedCall/ones_like_7", "StatefulPartitionedCall/transform_features_layer/StatefulPartitionedCall/add_6"], "attr": {"T": {"type": "DT_INT64"}}}, {"name": "StatefulPartitionedCall/transform_features_layer/StatefulPartitionedCall/bucketize/apply_buckets/assign_buckets/UpperBound", "op": "UpperBound", "input": ["StatefulPartitionedCall/transform_features_layer/StatefulPartitionedCall/bucketize/apply_buckets/assign_buckets/Reshape_2", "StatefulPartitionedCall/transform_features_layer/StatefulPartitionedCall/bucketize/apply_buckets/assign_buckets/Reshape_3"], "attr": {"out_type": {"type": "DT_INT64"}, "T": {"type": "DT_FLOAT"}}}, {"name": "StatefulPartitionedCall/model/tf.compat.v1.squeeze_19/Squeeze", "op": "Squeeze", "input": ["StatefulPartitionedCall/model/embedding_19/embedding_lookup"], "attr": {"T": {"type": "DT_FLOAT"}, "squeeze_dims": {"list": {"i": ["1"]}}}}, {"name": "StatefulPartitionedCall/model/tf.compat.v1.squeeze_11/Squeeze", "op": "Squeeze", "input": ["StatefulPartitionedCall/model/embedding_11/embedding_lookup"], "attr": {"squeeze_dims": {"list": {"i": ["1"]}}, "T": {"type": "DT_FLOAT"}}}, {"name": "StatefulPartitionedCall/model/tf.compat.v1.squeeze_14/Squeeze", "op": "Squeeze", "input": ["StatefulPartitionedCall/model/embedding_14/embedding_lookup"], "attr": {"T": {"type": "DT_FLOAT"}, "squeeze_dims": {"list": {"i": ["1"]}}}}, {"name": "StatefulPartitionedCall/model/tf.compat.v1.squeeze_9/Squeeze", "op": "Squeeze", "input": ["StatefulPartitionedCall/model/embedding_9/embedding_lookup"], "attr": {"T": {"type": "DT_FLOAT"}, "squeeze_dims": {"list": {"i": ["1"]}}}}, {"name": "StatefulPartitionedCall/model/tf.math.multiply_2/Mul", "op": "Mul", "input": ["StatefulPartitionedCall/transform_features_layer/StatefulPartitionedCall/Sum", "StatefulPartitionedCall/model/tf.one_hot_1/one_hot"], "attr": {"T": {"type": "DT_FLOAT"}}}, {"name": "StatefulPartitionedCall/model/tf.compat.v1.squeeze_16/Squeeze", "op": "Squeeze", "input": ["StatefulPartitionedCall/model/embedding_16/embedding_lookup"], "attr": {"squeeze_dims": {"list": {"i": ["1"]}}, "T": {"type": "DT_FLOAT"}}}, {"name": "StatefulPartitionedCall/model/tf.compat.v1.squeeze_5/Squeeze", "op": "Squeeze", "input": ["StatefulPartitionedCall/model/embedding_5/embedding_lookup"], "attr": {"T": {"type": "DT_FLOAT"}, "squeeze_dims": {"list": {"i": ["1"]}}}}, {"name": "StatefulPartitionedCall/model/tf.compat.v1.squeeze_15/Squeeze", "op": "Squeeze", "input": ["StatefulPartitionedCall/model/embedding_15/embedding_lookup"], "attr": {"T": {"type": "DT_FLOAT"}, "squeeze_dims": {"list": {"i": ["1"]}}}}, {"name": "StatefulPartitionedCall/model/tf.compat.v1.squeeze_2/Squeeze", "op": "Squeeze", "input": ["StatefulPartitionedCall/model/embedding_2/embedding_lookup"], "attr": {"T": {"type": "DT_FLOAT"}, "squeeze_dims": {"list": {"i": ["1"]}}}}, {"name": "StatefulPartitionedCall/model/tf.math.multiply/Mul", "op": "Mul", "input": ["StatefulPartitionedCall/transform_features_layer/StatefulPartitionedCall/Log1p", "StatefulPartitionedCall/model/tf.one_hot_1/one_hot"], "attr": {"T": {"type": "DT_FLOAT"}}}, {"name": "StatefulPartitionedCall/transform_features_layer/StatefulPartitionedCall/Log1p_1", "op": "Log1p", "input": ["StatefulPartitionedCall/transform_features_layer/StatefulPartitionedCall/Cast_4"], "attr": {"T": {"type": "DT_FLOAT"}}}, {"name": "StatefulPartitionedCall/model/tf.math.reduce_sum_3/Sum", "op": "Sum", "input": ["StatefulPartitionedCall/model/tf.math.multiply_3/Mul", "StatefulPartitionedCall/model/tf.math.reduce_sum_3/Sum/reduction_indices"], "attr": {"T": {"type": "DT_FLOAT"}, "keep_dims": {"b": true}, "Tidx": {"type": "DT_INT32"}}}, {"name": "StatefulPartitionedCall/transform_features_layer/StatefulPartitionedCall/SelectV2_11", "op": "SelectV2", "input": ["StatefulPartitionedCall/transform_features_layer/StatefulPartitionedCall/Equal_6", "StatefulPartitionedCall/transform_features_layer/StatefulPartitionedCall/mul_7", "StatefulPartitionedCall/transform_features_layer/StatefulPartitionedCall/SelectV2_10"], "attr": {"T": {"type": "DT_INT64"}}}, {"name": "StatefulPartitionedCall/transform_features_layer/StatefulPartitionedCall/bucketize/apply_buckets/assign_buckets/Reshape_5", "op": "Reshape", "input": ["StatefulPartitionedCall/transform_features_layer/StatefulPartitionedCall/bucketize/apply_buckets/assign_buckets/UpperBound", "StatefulPartitionedCall/transform_features_layer/StatefulPartitionedCall/bucketize/apply_buckets/assign_buckets/Shape_3"], "attr": {"Tshape": {"type": "DT_INT32"}, "T": {"type": "DT_INT64"}}}, {"name": "StatefulPartitionedCall/model/tf.math.reduce_sum_2/Sum", "op": "Sum", "input": ["StatefulPartitionedCall/model/tf.math.multiply_2/Mul", "StatefulPartitionedCall/model/tf.math.reduce_sum_2/Sum/reduction_indices"], "attr": {"keep_dims": {"b": true}, "Tidx": {"type": "DT_INT32"}, "T": {"type": "DT_FLOAT"}}}, {"name": "StatefulPartitionedCall/model/tf.math.reduce_sum/Sum", "op": "Sum", "input": ["StatefulPartitionedCall/model/tf.math.multiply/Mul", "StatefulPartitionedCall/model/tf.math.reduce_sum/Sum/reduction_indices"], "attr": {"T": {"type": "DT_FLOAT"}, "keep_dims": {"b": true}, "Tidx": {"type": "DT_INT32"}}}, {"name": "StatefulPartitionedCall/model/tf.math.multiply_1/Mul", "op": "Mul", "input": ["StatefulPartitionedCall/transform_features_layer/StatefulPartitionedCall/Log1p_1", "StatefulPartitionedCall/model/tf.one_hot_1/one_hot"], "attr": {"T": {"type": "DT_FLOAT"}}}, {"name": "StatefulPartitionedCall/model/ExpandDims_15", "op": "ExpandDims", "input": ["StatefulPartitionedCall/transform_features_layer/StatefulPartitionedCall/SelectV2_11", "StatefulPartitionedCall/model/ExpandDims_15/dim"], "attr": {"T": {"type": "DT_INT64"}, "Tdim": {"type": "DT_INT32"}}}, {"name": "StatefulPartitionedCall/model/ExpandDims_16", "op": "ExpandDims", "input": ["StatefulPartitionedCall/transform_features_layer/StatefulPartitionedCall/bucketize/apply_buckets/assign_buckets/Reshape_5", "StatefulPartitionedCall/model/ExpandDims_16/dim"], "attr": {"Tdim": {"type": "DT_INT32"}, "T": {"type": "DT_INT64"}}}, {"name": "StatefulPartitionedCall/model/tf.math.reduce_sum_1/Sum", "op": "Sum", "input": ["StatefulPartitionedCall/model/tf.math.multiply_1/Mul", "StatefulPartitionedCall/model/tf.math.reduce_sum_1/Sum/reduction_indices"], "attr": {"Tidx": {"type": "DT_INT32"}, "keep_dims": {"b": true}, "T": {"type": "DT_FLOAT"}}}, {"name": "StatefulPartitionedCall/model/embedding_7/embedding_lookup", "op": "GatherV2", "input": ["unknown_93", "StatefulPartitionedCall/model/ExpandDims_15", "StatefulPartitionedCall/model/embedding_7/embedding_lookup/axis"], "attr": {"batch_dims": {"i": "0"}, "_has_manual_control_dependencies": {"b": true}, "Taxis": {"type": "DT_INT64"}, "Tindices": {"type": "DT_INT64"}, "Tparams": {"type": "DT_FLOAT"}}}, {"name": "StatefulPartitionedCall/model/embedding_3/embedding_lookup", "op": "GatherV2", "input": ["unknown_92", "StatefulPartitionedCall/model/ExpandDims_16", "StatefulPartitionedCall/model/embedding_3/embedding_lookup/axis"], "attr": {"_has_manual_control_dependencies": {"b": true}, "Taxis": {"type": "DT_INT64"}, "batch_dims": {"i": "0"}, "Tindices": {"type": "DT_INT64"}, "Tparams": {"type": "DT_FLOAT"}}}, {"name": "StatefulPartitionedCall/model/tf.compat.v1.squeeze_7/Squeeze", "op": "Squeeze", "input": ["StatefulPartitionedCall/model/embedding_7/embedding_lookup"], "attr": {"squeeze_dims": {"list": {"i": ["1"]}}, "T": {"type": "DT_FLOAT"}}}, {"name": "StatefulPartitionedCall/model/tf.compat.v1.squeeze_3/Squeeze", "op": "Squeeze", "input": ["StatefulPartitionedCall/model/embedding_3/embedding_lookup"], "attr": {"squeeze_dims": {"list": {"i": ["1"]}}, "T": {"type": "DT_FLOAT"}}}, {"name": "StatefulPartitionedCall/model/concatenate_2/concat", "op": "ConcatV2", "input": ["StatefulPartitionedCall/model/tf.one_hot/one_hot", "StatefulPartitionedCall/model/tf.one_hot_1/one_hot", "StatefulPartitionedCall/transform_features_layer/StatefulPartitionedCall/Log1p", "StatefulPartitionedCall/model/tf.math.reduce_sum/Sum", "StatefulPartitionedCall/transform_features_layer/StatefulPartitionedCall/Log1p_1", "StatefulPartitionedCall/model/tf.math.reduce_sum_1/Sum", "StatefulPartitionedCall/transform_features_layer/StatefulPartitionedCall/Sum", "StatefulPartitionedCall/model/tf.math.reduce_sum_2/Sum", "StatefulPartitionedCall/transform_features_layer/StatefulPartitionedCall/Sum_3", "StatefulPartitionedCall/model/tf.math.reduce_sum_3/Sum", "StatefulPartitionedCall/model/tf.compat.v1.squeeze_17/Squeeze", "StatefulPartitionedCall/model/tf.compat.v1.squeeze_12/Squeeze", "StatefulPartitionedCall/model/tf.compat.v1.squeeze/Squeeze", "StatefulPartitionedCall/model/tf.compat.v1.squeeze_21/Squeeze", "StatefulPartitionedCall/model/tf.compat.v1.squeeze_6/Squeeze", "StatefulPartitionedCall/model/tf.compat.v1.squeeze_1/Squeeze", "StatefulPartitionedCall/model/tf.compat.v1.squeeze_20/Squeeze", "StatefulPartitionedCall/model/tf.compat.v1.squeeze_18/Squeeze", "StatefulPartitionedCall/model/tf.compat.v1.squeeze_10/Squeeze", "StatefulPartitionedCall/model/ExpandDims_10", "StatefulPartitionedCall/model/ExpandDims_11", "StatefulPartitionedCall/model/tf.compat.v1.squeeze_13/Squeeze", "StatefulPartitionedCall/model/tf.compat.v1.squeeze_8/Squeeze", "StatefulPartitionedCall/model/tf.compat.v1.squeeze_4/Squeeze", "StatefulPartitionedCall/model/tf.compat.v1.squeeze_7/Squeeze", "StatefulPartitionedCall/model/tf.compat.v1.squeeze_3/Squeeze", "StatefulPartitionedCall/model/tf.compat.v1.squeeze_19/Squeeze", "StatefulPartitionedCall/model/tf.compat.v1.squeeze_11/Squeeze", "StatefulPartitionedCall/model/ExpandDims_20", "StatefulPartitionedCall/model/ExpandDims_21", "StatefulPartitionedCall/model/tf.compat.v1.squeeze_14/Squeeze", "StatefulPartitionedCall/model/tf.compat.v1.squeeze_9/Squeeze", "StatefulPartitionedCall/model/tf.compat.v1.squeeze_16/Squeeze", "StatefulPartitionedCall/model/ExpandDims_25", "StatefulPartitionedCall/model/ExpandDims_26", "StatefulPartitionedCall/model/tf.compat.v1.squeeze_5/Squeeze", "StatefulPartitionedCall/model/tf.compat.v1.squeeze_15/Squeeze", "StatefulPartitionedCall/model/tf.compat.v1.squeeze_2/Squeeze", "StatefulPartitionedCall/model/ExpandDims_30", "StatefulPartitionedCall/model/ExpandDims_31", "StatefulPartitionedCall/model/ExpandDims_32", "StatefulPartitionedCall/model/concatenate_2/concat/axis"], "attr": {"T": {"type": "DT_FLOAT"}, "N": {"i": "41"}, "Tidx": {"type": "DT_INT32"}}}, {"name": "StatefulPartitionedCall/model/hidden_layer_1/Relu", "op": "_FusedMatMul", "input": ["StatefulPartitionedCall/model/concatenate_2/concat", "StatefulPartitionedCall/model/hidden_layer_1/MatMul/concat/concat/ReadVariableOp", "StatefulPartitionedCall/model/hidden_layer_1/BiasAdd/ReadVariableOp"], "device": "/device:CPU:0", "attr": {"T": {"type": "DT_FLOAT"}, "transpose_b": {"b": false}, "num_args": {"i": "1"}, "leakyrelu_alpha": {"f": 0.2}, "fused_ops": {"list": {"s": ["Qmlhc0FkZA==", "UmVsdQ=="]}}, "epsilon": {"f": 0.0}, "transpose_a": {"b": false}}}, {"name": "StatefulPartitionedCall/model/hidden_layer_2/Relu", "op": "_FusedMatMul", "input": ["StatefulPartitionedCall/model/hidden_layer_1/Relu", "StatefulPartitionedCall/model/hidden_layer_2/MatMul/ReadVariableOp", "StatefulPartitionedCall/model/hidden_layer_2/BiasAdd/ReadVariableOp"], "device": "/device:CPU:0", "attr": {"transpose_a": {"b": false}, "fused_ops": {"list": {"s": ["Qmlhc0FkZA==", "UmVsdQ=="]}}, "num_args": {"i": "1"}, "transpose_b": {"b": false}, "leakyrelu_alpha": {"f": 0.2}, "T": {"type": "DT_FLOAT"}, "epsilon": {"f": 0.0}}}, {"name": "StatefulPartitionedCall/model/hidden_layer_3/Relu", "op": "_FusedMatMul", "input": ["StatefulPartitionedCall/model/hidden_layer_2/Relu", "StatefulPartitionedCall/model/hidden_layer_3/MatMul/ReadVariableOp", "StatefulPartitionedCall/model/hidden_layer_3/BiasAdd/ReadVariableOp"], "device": "/device:CPU:0", "attr": {"fused_ops": {"list": {"s": ["Qmlhc0FkZA==", "UmVsdQ=="]}}, "transpose_a": {"b": false}, "T": {"type": "DT_FLOAT"}, "transpose_b": {"b": false}, "num_args": {"i": "1"}, "epsilon": {"f": 0.0}, "leakyrelu_alpha": {"f": 0.2}}}, {"name": "StatefulPartitionedCall/model/probability_output/BiasAdd", "op": "_FusedMatMul", "input": ["StatefulPartitionedCall/model/hidden_layer_3/Relu", "StatefulPartitionedCall/model/probability_output/MatMul/ReadVariableOp", "StatefulPartitionedCall/model/probability_output/BiasAdd/ReadVariableOp"], "device": "/device:CPU:0", "attr": {"leakyrelu_alpha": {"f": 0.2}, "transpose_a": {"b": false}, "num_args": {"i": "1"}, "T": {"type": "DT_FLOAT"}, "epsilon": {"f": 0.0}, "transpose_b": {"b": false}, "fused_ops": {"list": {"s": ["Qmlhc0FkZA=="]}}}}, {"name": "StatefulPartitionedCall/model/probability_output/Sigmoid", "op": "Sigmoid", "input": ["StatefulPartitionedCall/model/probability_output/BiasAdd"], "attr": {"T": {"type": "DT_FLOAT"}}}, {"name": "Identity", "op": "Identity", "input": ["StatefulPartitionedCall/model/probability_output/Sigmoid"], "attr": {"T": {"type": "DT_FLOAT"}}}], "library": {}, "versions": {"producer": 1492}}, "weightsManifest": [{"paths": ["group1-shard1of2.bin", "group1-shard2of2.bin"], "weights": [{"name": "StatefulPartitionedCall/model/ExpandDims_9/dim", "shape": [], "dtype": "int32"}, {"name": "StatefulPartitionedCall/model/tf.reshape/Reshape/shape", "shape": [1], "dtype": "int32"}, {"name": "StatefulPartitionedCall/model/tf.one_hot/one_hot/depth", "shape": [], "dtype": "int32"}, {"name": "StatefulPartitionedCall/model/tf.one_hot/one_hot/on_value", "shape": [], "dtype": "float32"}, {"name": "StatefulPartitionedCall/model/tf.one_hot/one_hot/off_value", "shape": [], "dtype": "float32"}, {"name": "StatefulPartitionedCall/transform_features_layer/StatefulPartitionedCall/Reshape_4/shape", "shape": [1], "dtype": "int32"}, {"name": "StatefulPartitionedCall/transform_features_layer/StatefulPartitionedCall/Repeat_2/ExpandDims/dim", "shape": [], "dtype": "int32"}, {"name": "StatefulPartitionedCall/transform_features_layer/StatefulPartitionedCall/Repeat_2/Tile/multiples", "shape": [2], "dtype": "int32"}, {"name": "StatefulPartitionedCall/transform_features_layer/StatefulPartitionedCall/one_hot_2/depth", "shape": [], "dtype": "int32"}, {"name": "StatefulPartitionedCall/transform_features_layer/StatefulPartitionedCall/one_hot_2/on_value", "shape": [], "dtype": "float32"}, {"name": "StatefulPartitionedCall/transform_features_layer/StatefulPartitionedCall/one_hot_2/off_value", "shape": [], "dtype": "float32"}, {"name": "StatefulPartitionedCall/transform_features_layer/StatefulPartitionedCall/zeros_2", "shape": [595], "dtype": "float32"}, {"name": "StatefulPartitionedCall/transform_features_layer/StatefulPartitionedCall/Sum_2/reduction_indices", "shape": [], "dtype": "int32"}, {"name": "StatefulPartitionedCall/model/tf.math.reduce_sum/Sum/reduction_indices", "shape": [], "dtype": "int32"}, {"name": "StatefulPartitionedCall/transform_features_layer/StatefulPartitionedCall/Reshape_2/shape", "shape": [1], "dtype": "int32"}, {"name": "StatefulPartitionedCall/transform_features_layer/StatefulPartitionedCall/Repeat_1/ExpandDims/dim", "shape": [], "dtype": "int32"}, {"name": "StatefulPartitionedCall/transform_features_layer/StatefulPartitionedCall/Repeat_1/Tile/multiples", "shape": [2], "dtype": "int32"}, {"name": "StatefulPartitionedCall/transform_features_layer/StatefulPartitionedCall/one_hot_1/depth", "shape": [], "dtype": "int32"}, {"name": "StatefulPartitionedCall/transform_features_layer/StatefulPartitionedCall/one_hot_1/on_value", "shape": [], "dtype": "float32"}, {"name": "StatefulPartitionedCall/transform_features_layer/StatefulPartitionedCall/one_hot_1/off_value", "shape": [], "dtype": "float32"}, {"name": "StatefulPartitionedCall/transform_features_layer/StatefulPartitionedCall/zeros_1", "shape": [595], "dtype": "int32"}, {"name": "StatefulPartitionedCall/transform_features_layer/StatefulPartitionedCall/Sum_1/reduction_indices", "shape": [], "dtype": "int32"}, {"name": "StatefulPartitionedCall/model/tf.math.reduce_sum_1/Sum/reduction_indices", "shape": [], "dtype": "int32"}, {"name": "StatefulPartitionedCall/transform_features_layer/StatefulPartitionedCall/Reshape/shape", "shape": [1], "dtype": "int32"}, {"name": "StatefulPartitionedCall/transform_features_layer/StatefulPartitionedCall/Repeat/ExpandDims/dim", "shape": [], "dtype": "int32"}, {"name": "StatefulPartitionedCall/transform_features_layer/StatefulPartitionedCall/Repeat/Tile/multiples", "shape": [2], "dtype": "int32"}, {"name": "StatefulPartitionedCall/transform_features_layer/StatefulPartitionedCall/one_hot/depth", "shape": [], "dtype": "int32"}, {"name": "StatefulPartitionedCall/transform_features_layer/StatefulPartitionedCall/one_hot/on_value", "shape": [], "dtype": "float32"}, {"name": "StatefulPartitionedCall/transform_features_layer/StatefulPartitionedCall/one_hot/off_value", "shape": [], "dtype": "float32"}, {"name": "StatefulPartitionedCall/transform_features_layer/StatefulPartitionedCall/zeros", "shape": [595], "dtype": "float32"}, {"name": "StatefulPartitionedCall/transform_features_layer/StatefulPartitionedCall/Sum/reduction_indices", "shape": [], "dtype": "int32"}, {"name": "StatefulPartitionedCall/model/tf.math.reduce_sum_2/Sum/reduction_indices", "shape": [], "dtype": "int32"}, {"name": "StatefulPartitionedCall/transform_features_layer/StatefulPartitionedCall/Reshape_6/shape", "shape": [1], "dtype": "int32"}, {"name": "StatefulPartitionedCall/transform_features_layer/StatefulPartitionedCall/Repeat_3/ExpandDims/dim", "shape": [], "dtype": "int32"}, {"name": "StatefulPartitionedCall/transform_features_layer/StatefulPartitionedCall/Repeat_3/Tile/multiples", "shape": [2], "dtype": "int32"}, {"name": "StatefulPartitionedCall/transform_features_layer/StatefulPartitionedCall/one_hot_3/depth", "shape": [], "dtype": "int32"}, {"name": "StatefulPartitionedCall/transform_features_layer/StatefulPartitionedCall/one_hot_3/on_value", "shape": [], "dtype": "float32"}, {"name": "StatefulPartitionedCall/transform_features_layer/StatefulPartitionedCall/one_hot_3/off_value", "shape": [], "dtype": "float32"}, {"name": "StatefulPartitionedCall/transform_features_layer/StatefulPartitionedCall/zeros_3", "shape": [595], "dtype": "float32"}, {"name": "StatefulPartitionedCall/transform_features_layer/StatefulPartitionedCall/Sum_3/reduction_indices", "shape": [], "dtype": "int32"}, {"name": "StatefulPartitionedCall/model/ExpandDims_17/dim", "shape": [], "dtype": "int32"}, {"name": "StatefulPartitionedCall/model/tf.reshape_2/Reshape/shape", "shape": [1], "dtype": "int32"}, {"name": "StatefulPartitionedCall/model/tf.one_hot_1/one_hot/depth", "shape": [], "dtype": "int32"}, {"name": "StatefulPartitionedCall/model/tf.one_hot_1/one_hot/on_value", "shape": [], "dtype": "float32"}, {"name": "StatefulPartitionedCall/model/tf.one_hot_1/one_hot/off_value", "shape": [], "dtype": "float32"}, {"name": "StatefulPartitionedCall/model/tf.math.reduce_sum_3/Sum/reduction_indices", "shape": [], "dtype": "int32"}, {"name": "unknown_105", "shape": [10, 4], "dtype": "float32"}, {"name": "StatefulPartitionedCall/transform_features_layer/StatefulPartitionedCall/Equal_16/y", "shape": [], "dtype": "int32"}, {"name": "StatefulPartitionedCall/transform_features_layer/StatefulPartitionedCall/ones_like_17/Const", "shape": [], "dtype": "int32"}, {"name": "StatefulPartitionedCall/transform_features_layer/StatefulPartitionedCall/add_16", "shape": [], "dtype": "int32"}, {"name": "StatefulPartitionedCall/model/ExpandDims/dim", "shape": [], "dtype": "int32"}, {"name": "StatefulPartitionedCall/model/embedding_17/embedding_lookup/axis", "shape": [], "dtype": "int32"}, {"name": "unknown_104", "shape": [10, 4], "dtype": "float32"}, {"name": "StatefulPartitionedCall/transform_features_layer/StatefulPartitionedCall/Equal_11/y", "shape": [], "dtype": "int32"}, {"name": "StatefulPartitionedCall/transform_features_layer/StatefulPartitionedCall/ones_like_12/Const", "shape": [], "dtype": "int32"}, {"name": "StatefulPartitionedCall/transform_features_layer/StatefulPartitionedCall/add_11", "shape": [], "dtype": "int32"}, {"name": "StatefulPartitionedCall/model/ExpandDims_1/dim", "shape": [], "dtype": "int32"}, {"name": "StatefulPartitionedCall/model/embedding_12/embedding_lookup/axis", "shape": [], "dtype": "int32"}, {"name": "unknown_103", "shape": [19, 6], "dtype": "float32"}, {"name": "StatefulPartitionedCall/transform_features_layer/StatefulPartitionedCall/Equal/y", "shape": [], "dtype": "int32"}, {"name": "StatefulPartitionedCall/transform_features_layer/StatefulPartitionedCall/ones_like/Const", "shape": [], "dtype": "int32"}, {"name": "StatefulPartitionedCall/transform_features_layer/StatefulPartitionedCall/add", "shape": [], "dtype": "int32"}, {"name": "StatefulPartitionedCall/model/ExpandDims_2/dim", "shape": [], "dtype": "int32"}, {"name": "StatefulPartitionedCall/model/embedding/embedding_lookup/axis", "shape": [], "dtype": "int32"}, {"name": "unknown_102", "shape": [6, 4], "dtype": "float32"}, {"name": "StatefulPartitionedCall/transform_features_layer/StatefulPartitionedCall/Equal_20/y", "shape": [], "dtype": "int32"}, {"name": "StatefulPartitionedCall/transform_features_layer/StatefulPartitionedCall/ones_like_21/Const", "shape": [], "dtype": "int32"}, {"name": "StatefulPartitionedCall/transform_features_layer/StatefulPartitionedCall/add_20", "shape": [], "dtype": "int32"}, {"name": "StatefulPartitionedCall/model/ExpandDims_3/dim", "shape": [], "dtype": "int32"}, {"name": "StatefulPartitionedCall/model/embedding_21/embedding_lookup/axis", "shape": [], "dtype": "int32"}, {"name": "unknown_101", "shape": [24, 6], "dtype": "float32"}, {"name": "StatefulPartitionedCall/transform_features_layer/StatefulPartitionedCall/Equal_5/y", "shape": [], "dtype": "int32"}, {"name": "StatefulPartitionedCall/transform_features_layer/StatefulPartitionedCall/ones_like_5/Const", "shape": [], "dtype": "int32"}, {"name": "StatefulPartitionedCall/transform_features_layer/StatefulPartitionedCall/add_5", "shape": [], "dtype": "int32"}, {"name": "StatefulPartitionedCall/model/ExpandDims_4/dim", "shape": [], "dtype": "int32"}, {"name": "StatefulPartitionedCall/model/embedding_6/embedding_lookup/axis", "shape": [], "dtype": "int32"}, {"name": "unknown_100", "shape": [10, 4], "dtype": "float32"}, {"name": "StatefulPartitionedCall/transform_features_layer/StatefulPartitionedCall/Equal_1/y", "shape": [], "dtype": "int32"}, {"name": "StatefulPartitionedCall/transform_features_layer/StatefulPartitionedCall/ones_like_1/Const", "shape": [], "dtype": "int32"}, {"name": "StatefulPartitionedCall/transform_features_layer/StatefulPartitionedCall/add_1", "shape": [], "dtype": "int32"}, {"name": "StatefulPartitionedCall/model/ExpandDims_5/dim", "shape": [], "dtype": "int32"}, {"name": "StatefulPartitionedCall/model/embedding_1/embedding_lookup/axis", "shape": [], "dtype": "int32"}, {"name": "unknown_99", "shape": [8, 4], "dtype": "float32"}, {"name": "StatefulPartitionedCall/transform_features_layer/StatefulPartitionedCall/Equal_19/y", "shape": [], "dtype": "int32"}, {"name": "StatefulPartitionedCall/transform_features_layer/StatefulPartitionedCall/ones_like_20/Const", "shape": [], "dtype": "int32"}, {"name": "StatefulPartitionedCall/transform_features_layer/StatefulPartitionedCall/add_19", "shape": [], "dtype": "int32"}, {"name": "StatefulPartitionedCall/model/ExpandDims_6/dim", "shape": [], "dtype": "int32"}, {"name": "StatefulPartitionedCall/model/embedding_20/embedding_lookup/axis", "shape": [], "dtype": "int32"}, {"name": "unknown_98", "shape": [7, 4], "dtype": "float32"}, {"name": "StatefulPartitionedCall/transform_features_layer/StatefulPartitionedCall/Equal_17/y", "shape": [], "dtype": "int32"}, {"name": "StatefulPartitionedCall/transform_features_layer/StatefulPartitionedCall/ones_like_18/Const", "shape": [], "dtype": "int32"}, {"name": "StatefulPartitionedCall/transform_features_layer/StatefulPartitionedCall/add_17", "shape": [], "dtype": "int32"}, {"name": "StatefulPartitionedCall/model/ExpandDims_7/dim", "shape": [], "dtype": "int32"}, {"name": "StatefulPartitionedCall/model/embedding_18/embedding_lookup/axis", "shape": [], "dtype": "int32"}, {"name": "unknown_97", "shape": [7, 4], "dtype": "float32"}, {"name": "StatefulPartitionedCall/transform_features_layer/StatefulPartitionedCall/Equal_9/y", "shape": [], "dtype": "int32"}, {"name": "StatefulPartitionedCall/transform_features_layer/StatefulPartitionedCall/ones_like_10/Const", "shape": [], "dtype": "int32"}, {"name": "StatefulPartitionedCall/transform_features_layer/StatefulPartitionedCall/add_9", "shape": [], "dtype": "int32"}, {"name": "StatefulPartitionedCall/model/ExpandDims_8/dim", "shape": [], "dtype": "int32"}, {"name": "StatefulPartitionedCall/model/embedding_10/embedding_lookup/axis", "shape": [], "dtype": "int32"}, {"name": "StatefulPartitionedCall/model/ExpandDims_10/dim", "shape": [], "dtype": "int32"}, {"name": "StatefulPartitionedCall/model/ExpandDims_11/dim", "shape": [], "dtype": "int32"}, {"name": "unknown_96", "shape": [12, 4], "dtype": "float32"}, {"name": "StatefulPartitionedCall/transform_features_layer/StatefulPartitionedCall/Equal_12/y", "shape": [], "dtype": "int32"}, {"name": "StatefulPartitionedCall/transform_features_layer/StatefulPartitionedCall/ones_like_13/Const", "shape": [], "dtype": "int32"}, {"name": "StatefulPartitionedCall/transform_features_layer/StatefulPartitionedCall/add_12", "shape": [], "dtype": "int32"}, {"name": "StatefulPartitionedCall/model/ExpandDims_12/dim", "shape": [], "dtype": "int32"}, {"name": "StatefulPartitionedCall/model/embedding_13/embedding_lookup/axis", "shape": [], "dtype": "int32"}, {"name": "unknown_95", "shape": [23, 6], "dtype": "float32"}, {"name": "StatefulPartitionedCall/transform_features_layer/StatefulPartitionedCall/Equal_7/y", "shape": [], "dtype": "int32"}, {"name": "StatefulPartitionedCall/transform_features_layer/StatefulPartitionedCall/ones_like_8/Const", "shape": [], "dtype": "int32"}, {"name": "StatefulPartitionedCall/transform_features_layer/StatefulPartitionedCall/add_7", "shape": [], "dtype": "int32"}, {"name": "StatefulPartitionedCall/model/ExpandDims_13/dim", "shape": [], "dtype": "int32"}, {"name": "StatefulPartitionedCall/model/embedding_8/embedding_lookup/axis", "shape": [], "dtype": "int32"}, {"name": "unknown_94", "shape": [20, 6], "dtype": "float32"}, {"name": "StatefulPartitionedCall/transform_features_layer/StatefulPartitionedCall/Equal_3/y", "shape": [], "dtype": "int32"}, {"name": "StatefulPartitionedCall/transform_features_layer/StatefulPartitionedCall/ones_like_3/Const", "shape": [], "dtype": "int32"}, {"name": "StatefulPartitionedCall/transform_features_layer/StatefulPartitionedCall/add_3", "shape": [], "dtype": "int32"}, {"name": "StatefulPartitionedCall/model/ExpandDims_14/dim", "shape": [], "dtype": "int32"}, {"name": "StatefulPartitionedCall/model/embedding_4/embedding_lookup/axis", "shape": [], "dtype": "int32"}, {"name": "unknown_93", "shape": [22, 6], "dtype": "float32"}, {"name": "StatefulPartitionedCall/transform_features_layer/StatefulPartitionedCall/Equal_6/y", "shape": [], "dtype": "int32"}, {"name": "StatefulPartitionedCall/transform_features_layer/StatefulPartitionedCall/ones_like_7/Const", "shape": [], "dtype": "int32"}, {"name": "StatefulPartitionedCall/transform_features_layer/StatefulPartitionedCall/add_6", "shape": [], "dtype": "int32"}, {"name": "StatefulPartitionedCall/transform_features_layer/StatefulPartitionedCall/Greater/y", "shape": [], "dtype": "int32"}, {"name": "StatefulPartitionedCall/transform_features_layer/StatefulPartitionedCall/ones_like_6/Const", "shape": [], "dtype": "int32"}, {"name": "StatefulPartitionedCall/transform_features_layer/StatefulPartitionedCall/mul_6/y", "shape": [], "dtype": "int32"}, {"name": "StatefulPartitionedCall/model/ExpandDims_15/dim", "shape": [], "dtype": "int32"}, {"name": "StatefulPartitionedCall/model/embedding_7/embedding_lookup/axis", "shape": [], "dtype": "int32"}, {"name": "unknown_92", "shape": [20, 6], "dtype": "float32"}, {"name": "StatefulPartitionedCall/transform_features_layer/StatefulPartitionedCall/bucketize/apply_buckets/assign_buckets/Reshape_2", "shape": [1, 19], "dtype": "float32"}, {"name": "StatefulPartitionedCall/transform_features_layer/StatefulPartitionedCall/bucketize/apply_buckets/assign_buckets/Reshape_3/shape/0", "shape": [], "dtype": "int32"}, {"name": "StatefulPartitionedCall/transform_features_layer/StatefulPartitionedCall/bucketize/apply_buckets/assign_buckets/Reshape/shape", "shape": [1], "dtype": "int32"}, {"name": "StatefulPartitionedCall/transform_features_layer/StatefulPartitionedCall/bucketize/apply_buckets/assign_buckets/strided_slice_1/stack", "shape": [1], "dtype": "int32"}, {"name": "StatefulPartitionedCall/transform_features_layer/StatefulPartitionedCall/bucketize/apply_buckets/assign_buckets/strided_slice_1/stack_1", "shape": [1], "dtype": "int32"}, {"name": "StatefulPartitionedCall/transform_features_layer/StatefulPartitionedCall/bucketize/apply_buckets/assign_buckets/strided_slice_1/stack_2", "shape": [1], "dtype": "int32"}, {"name": "StatefulPartitionedCall/model/ExpandDims_16/dim", "shape": [], "dtype": "int32"}, {"name": "StatefulPartitionedCall/model/embedding_3/embedding_lookup/axis", "shape": [], "dtype": "int32"}, {"name": "unknown_91", "shape": [7, 4], "dtype": "float32"}, {"name": "StatefulPartitionedCall/transform_features_layer/StatefulPartitionedCall/Equal_18/y", "shape": [], "dtype": "int32"}, {"name": "StatefulPartitionedCall/transform_features_layer/StatefulPartitionedCall/ones_like_19/Const", "shape": [], "dtype": "int32"}, {"name": "StatefulPartitionedCall/transform_features_layer/StatefulPartitionedCall/add_18", "shape": [], "dtype": "int32"}, {"name": "StatefulPartitionedCall/model/ExpandDims_18/dim", "shape": [], "dtype": "int32"}, {"name": "StatefulPartitionedCall/model/embedding_19/embedding_lookup/axis", "shape": [], "dtype": "int32"}, {"name": "unknown_90", "shape": [7, 4], "dtype": "float32"}, {"name": "StatefulPartitionedCall/transform_features_layer/StatefulPartitionedCall/Equal_10/y", "shape": [], "dtype": "int32"}, {"name": "StatefulPartitionedCall/transform_features_layer/StatefulPartitionedCall/ones_like_11/Const", "shape": [], "dtype": "int32"}, {"name": "StatefulPartitionedCall/transform_features_layer/StatefulPartitionedCall/add_10", "shape": [], "dtype": "int32"}, {"name": "StatefulPartitionedCall/model/ExpandDims_19/dim", "shape": [], "dtype": "int32"}, {"name": "StatefulPartitionedCall/model/embedding_11/embedding_lookup/axis", "shape": [], "dtype": "int32"}, {"name": "StatefulPartitionedCall/model/ExpandDims_20/dim", "shape": [], "dtype": "int32"}, {"name": "StatefulPartitionedCall/model/ExpandDims_21/dim", "shape": [], "dtype": "int32"}, {"name": "unknown_89", "shape": [12, 4], "dtype": "float32"}, {"name": "StatefulPartitionedCall/transform_features_layer/StatefulPartitionedCall/Equal_13/y", "shape": [], "dtype": "int32"}, {"name": "StatefulPartitionedCall/transform_features_layer/StatefulPartitionedCall/ones_like_14/Const", "shape": [], "dtype": "int32"}, {"name": "StatefulPartitionedCall/transform_features_layer/StatefulPartitionedCall/add_13", "shape": [], "dtype": "int32"}, {"name": "StatefulPartitionedCall/model/ExpandDims_22/dim", "shape": [], "dtype": "int32"}, {"name": "StatefulPartitionedCall/model/embedding_14/embedding_lookup/axis", "shape": [], "dtype": "int32"}, {"name": "unknown_88", "shape": [23, 6], "dtype": "float32"}, {"name": "StatefulPartitionedCall/transform_features_layer/StatefulPartitionedCall/Equal_8/y", "shape": [], "dtype": "int32"}, {"name": "StatefulPartitionedCall/transform_features_layer/StatefulPartitionedCall/ones_like_9/Const", "shape": [], "dtype": "int32"}, {"name": "StatefulPartitionedCall/transform_features_layer/StatefulPartitionedCall/add_8", "shape": [], "dtype": "int32"}, {"name": "StatefulPartitionedCall/model/ExpandDims_23/dim", "shape": [], "dtype": "int32"}, {"name": "StatefulPartitionedCall/model/embedding_9/embedding_lookup/axis", "shape": [], "dtype": "int32"}, {"name": "unknown_87", "shape": [10, 4], "dtype": "float32"}, {"name": "StatefulPartitionedCall/transform_features_layer/StatefulPartitionedCall/Equal_15/y", "shape": [], "dtype": "int32"}, {"name": "StatefulPartitionedCall/transform_features_layer/StatefulPartitionedCall/ones_like_16/Const", "shape": [], "dtype": "int32"}, {"name": "StatefulPartitionedCall/transform_features_layer/StatefulPartitionedCall/add_15", "shape": [], "dtype": "int32"}, {"name": "StatefulPartitionedCall/model/ExpandDims_24/dim", "shape": [], "dtype": "int32"}, {"name": "StatefulPartitionedCall/model/embedding_16/embedding_lookup/axis", "shape": [], "dtype": "int32"}, {"name": "StatefulPartitionedCall/model/ExpandDims_25/dim", "shape": [], "dtype": "int32"}, {"name": "StatefulPartitionedCall/model/ExpandDims_26/dim", "shape": [], "dtype": "int32"}, {"name": "unknown_86", "shape": [10, 6], "dtype": "float32"}, {"name": "StatefulPartitionedCall/transform_features_layer/StatefulPartitionedCall/Equal_4/y", "shape": [], "dtype": "int32"}, {"name": "StatefulPartitionedCall/transform_features_layer/StatefulPartitionedCall/ones_like_4/Const", "shape": [], "dtype": "int32"}, {"name": "StatefulPartitionedCall/transform_features_layer/StatefulPartitionedCall/add_4", "shape": [], "dtype": "int32"}, {"name": "StatefulPartitionedCall/model/ExpandDims_27/dim", "shape": [], "dtype": "int32"}, {"name": "StatefulPartitionedCall/model/embedding_5/embedding_lookup/axis", "shape": [], "dtype": "int32"}, {"name": "unknown_85", "shape": [10, 4], "dtype": "float32"}, {"name": "StatefulPartitionedCall/transform_features_layer/StatefulPartitionedCall/Equal_14/y", "shape": [], "dtype": "int32"}, {"name": "StatefulPartitionedCall/transform_features_layer/StatefulPartitionedCall/ones_like_15/Const", "shape": [], "dtype": "int32"}, {"name": "StatefulPartitionedCall/transform_features_layer/StatefulPartitionedCall/add_14", "shape": [], "dtype": "int32"}, {"name": "StatefulPartitionedCall/model/ExpandDims_28/dim", "shape": [], "dtype": "int32"}, {"name": "StatefulPartitionedCall/model/embedding_15/embedding_lookup/axis", "shape": [], "dtype": "int32"}, {"name": "unknown_84", "shape": [29, 8], "dtype": "float32"}, {"name": "StatefulPartitionedCall/transform_features_layer/StatefulPartitionedCall/Equal_2/y", "shape": [], "dtype": "int32"}, {"name": "StatefulPartitionedCall/transform_features_layer/StatefulPartitionedCall/ones_like_2/Const", "shape": [], "dtype": "int32"}, {"name": "StatefulPartitionedCall/transform_features_layer/StatefulPartitionedCall/add_2", "shape": [], "dtype": "int32"}, {"name": "StatefulPartitionedCall/model/ExpandDims_29/dim", "shape": [], "dtype": "int32"}, {"name": "StatefulPartitionedCall/model/embedding_2/embedding_lookup/axis", "shape": [], "dtype": "int32"}, {"name": "StatefulPartitionedCall/model/ExpandDims_30/dim", "shape": [], "dtype": "int32"}, {"name": "StatefulPartitionedCall/model/ExpandDims_31/dim", "shape": [], "dtype": "int32"}, {"name": "StatefulPartitionedCall/model/ExpandDims_32/dim", "shape": [], "dtype": "int32"}, {"name": "StatefulPartitionedCall/model/concatenate_2/concat/axis", "shape": [], "dtype": "int32"}, {"name": "StatefulPartitionedCall/model/hidden_layer_1/MatMul/concat/concat/ReadVariableOp", "shape": [3691, 256], "dtype": "float32"}, {"name": "StatefulPartitionedCall/model/hidden_layer_1/BiasAdd/ReadVariableOp", "shape": [256], "dtype": "float32"}, {"name": "StatefulPartitionedCall/model/hidden_layer_2/MatMul/ReadVariableOp", "shape": [256, 256], "dtype": "float32"}, {"name": "StatefulPartitionedCall/model/hidden_layer_2/BiasAdd/ReadVariableOp", "shape": [256], "dtype": "float32"}, {"name": "StatefulPartitionedCall/model/hidden_layer_3/MatMul/ReadVariableOp", "shape": [256, 256], "dtype": "float32"}, {"name": "StatefulPartitionedCall/model/hidden_layer_3/BiasAdd/ReadVariableOp", "shape": [256], "dtype": "float32"}, {"name": "StatefulPartitionedCall/model/probability_output/MatMul/ReadVariableOp", "shape": [256, 1], "dtype": "float32"}, {"name": "StatefulPartitionedCall/model/probability_output/BiasAdd/ReadVariableOp", "shape": [1], "dtype": "float32"}]}]}
