{
  "format": "graph-model",
  "userDefinedMetadata": {
    "signature": {
      "inputs": {
        "input_1:0": {
          "dtype": "DT_FLOAT",
          "name": "input_1:0",
          "tensorShape": {
            "dim": [
              { "size": "-1" },
              { "size": "128" },
              { "size": "128" },
              { "size": "3" }
            ]
          }
        }
      },
      "outputs": {
        "Identity:0": {
          "dtype": "DT_FLOAT",
          "name": "Identity:0",
          "tensorShape": { "dim": [{ "size": "-1" }, { "size": "1" }] }
        },
        "Identity_1:0": {
          "dtype": "DT_FLOAT",
          "name": "Identity_1:0",
          "tensorShape": { "dim": [{ "size": "-1" }, { "size": "1404" }] }
        }
      }
    }
  },
  "modelTopology": {
    "node": [
      {
        "attr": {
          "dtype": { "type": "DT_FLOAT" },
          "shape": {
            "shape": {
              "dim": [
                { "size": "-1" },
                { "size": "128" },
                { "size": "128" },
                { "size": "3" }
              ]
            }
          }
        },
        "name": "input_1",
        "op": "Placeholder"
      },
      {
        "attr": {
          "dtype": { "type": "DT_FLOAT" },
          "value": {
            "tensor": {
              "dtype": "DT_FLOAT",
              "tensorShape": {
                "dim": [
                  { "size": "3" },
                  { "size": "3" },
                  { "size": "3" },
                  { "size": "16" }
                ]
              }
            }
          }
        },
        "name": "StatefulPartitionedCall/model/conv2d/Conv2D_weights",
        "op": "Const"
      },
      {
        "attr": {
          "dtype": { "type": "DT_FLOAT" },
          "value": {
            "tensor": {
              "dtype": "DT_FLOAT",
              "tensorShape": { "dim": [{ "size": "16" }] }
            }
          }
        },
        "name": "StatefulPartitionedCall/model/conv2d/Conv2D_bn_offset",
        "op": "Const"
      },
      {
        "attr": {
          "dtype": { "type": "DT_FLOAT" },
          "value": {
            "tensor": {
              "dtype": "DT_FLOAT",
              "tensorShape": {
                "dim": [
                  { "size": "1" },
                  { "size": "1" },
                  { "size": "16" },
                  { "size": "16" }
                ]
              }
            }
          }
        },
        "name": "StatefulPartitionedCall/model/conv2d_1/Conv2D_weights",
        "op": "Const"
      },
      {
        "attr": {
          "dtype": { "type": "DT_FLOAT" },
          "value": {
            "tensor": {
              "dtype": "DT_FLOAT",
              "tensorShape": { "dim": [{ "size": "16" }] }
            }
          }
        },
        "name": "StatefulPartitionedCall/model/conv2d_1/Conv2D_bn_offset",
        "op": "Const"
      },
      {
        "attr": {
          "dtype": { "type": "DT_FLOAT" },
          "value": {
            "tensor": {
              "dtype": "DT_FLOAT",
              "tensorShape": {
                "dim": [
                  { "size": "1" },
                  { "size": "1" },
                  { "size": "16" },
                  { "size": "16" }
                ]
              }
            }
          }
        },
        "name": "StatefulPartitionedCall/model/conv2d_2/Conv2D_weights",
        "op": "Const"
      },
      {
        "attr": {
          "dtype": { "type": "DT_FLOAT" },
          "value": {
            "tensor": {
              "dtype": "DT_FLOAT",
              "tensorShape": { "dim": [{ "size": "16" }] }
            }
          }
        },
        "name": "StatefulPartitionedCall/model/conv2d_2/Conv2D_bn_offset",
        "op": "Const"
      },
      {
        "attr": {
          "dtype": { "type": "DT_FLOAT" },
          "value": {
            "tensor": {
              "dtype": "DT_FLOAT",
              "tensorShape": {
                "dim": [
                  { "size": "1" },
                  { "size": "1" },
                  { "size": "16" },
                  { "size": "32" }
                ]
              }
            }
          }
        },
        "name": "StatefulPartitionedCall/model/conv2d_3/Conv2D_weights",
        "op": "Const"
      },
      {
        "attr": {
          "dtype": { "type": "DT_FLOAT" },
          "value": {
            "tensor": {
              "dtype": "DT_FLOAT",
              "tensorShape": { "dim": [{ "size": "32" }] }
            }
          }
        },
        "name": "StatefulPartitionedCall/model/conv2d_3/Conv2D_bn_offset",
        "op": "Const"
      },
      {
        "attr": {
          "dtype": { "type": "DT_FLOAT" },
          "value": {
            "tensor": {
              "dtype": "DT_FLOAT",
              "tensorShape": {
                "dim": [
                  { "size": "1" },
                  { "size": "1" },
                  { "size": "32" },
                  { "size": "32" }
                ]
              }
            }
          }
        },
        "name": "StatefulPartitionedCall/model/conv2d_4/Conv2D_weights",
        "op": "Const"
      },
      {
        "attr": {
          "dtype": { "type": "DT_FLOAT" },
          "value": {
            "tensor": {
              "dtype": "DT_FLOAT",
              "tensorShape": { "dim": [{ "size": "32" }] }
            }
          }
        },
        "name": "StatefulPartitionedCall/model/conv2d_4/Conv2D_bn_offset",
        "op": "Const"
      },
      {
        "attr": {
          "dtype": { "type": "DT_FLOAT" },
          "value": {
            "tensor": {
              "dtype": "DT_FLOAT",
              "tensorShape": {
                "dim": [
                  { "size": "1" },
                  { "size": "1" },
                  { "size": "32" },
                  { "size": "32" }
                ]
              }
            }
          }
        },
        "name": "StatefulPartitionedCall/model/conv2d_5/Conv2D_weights",
        "op": "Const"
      },
      {
        "attr": {
          "dtype": { "type": "DT_FLOAT" },
          "value": {
            "tensor": {
              "dtype": "DT_FLOAT",
              "tensorShape": { "dim": [{ "size": "32" }] }
            }
          }
        },
        "name": "StatefulPartitionedCall/model/conv2d_5/Conv2D_bn_offset",
        "op": "Const"
      },
      {
        "attr": {
          "dtype": { "type": "DT_FLOAT" },
          "value": {
            "tensor": {
              "dtype": "DT_FLOAT",
              "tensorShape": {
                "dim": [
                  { "size": "1" },
                  { "size": "1" },
                  { "size": "32" },
                  { "size": "64" }
                ]
              }
            }
          }
        },
        "name": "StatefulPartitionedCall/model/conv2d_6/Conv2D_weights",
        "op": "Const"
      },
      {
        "attr": {
          "dtype": { "type": "DT_FLOAT" },
          "value": {
            "tensor": {
              "dtype": "DT_FLOAT",
              "tensorShape": { "dim": [{ "size": "64" }] }
            }
          }
        },
        "name": "StatefulPartitionedCall/model/conv2d_6/Conv2D_bn_offset",
        "op": "Const"
      },
      {
        "attr": {
          "dtype": { "type": "DT_FLOAT" },
          "value": {
            "tensor": {
              "dtype": "DT_FLOAT",
              "tensorShape": {
                "dim": [
                  { "size": "1" },
                  { "size": "1" },
                  { "size": "64" },
                  { "size": "64" }
                ]
              }
            }
          }
        },
        "name": "StatefulPartitionedCall/model/conv2d_7/Conv2D_weights",
        "op": "Const"
      },
      {
        "attr": {
          "dtype": { "type": "DT_FLOAT" },
          "value": {
            "tensor": {
              "dtype": "DT_FLOAT",
              "tensorShape": { "dim": [{ "size": "64" }] }
            }
          }
        },
        "name": "StatefulPartitionedCall/model/conv2d_7/Conv2D_bn_offset",
        "op": "Const"
      },
      {
        "attr": {
          "dtype": { "type": "DT_FLOAT" },
          "value": {
            "tensor": {
              "dtype": "DT_FLOAT",
              "tensorShape": {
                "dim": [
                  { "size": "1" },
                  { "size": "1" },
                  { "size": "64" },
                  { "size": "64" }
                ]
              }
            }
          }
        },
        "name": "StatefulPartitionedCall/model/conv2d_8/Conv2D_weights",
        "op": "Const"
      },
      {
        "attr": {
          "dtype": { "type": "DT_FLOAT" },
          "value": {
            "tensor": {
              "dtype": "DT_FLOAT",
              "tensorShape": { "dim": [{ "size": "64" }] }
            }
          }
        },
        "name": "StatefulPartitionedCall/model/conv2d_8/Conv2D_bn_offset",
        "op": "Const"
      },
      {
        "attr": {
          "dtype": { "type": "DT_FLOAT" },
          "value": {
            "tensor": {
              "dtype": "DT_FLOAT",
              "tensorShape": {
                "dim": [
                  { "size": "1" },
                  { "size": "1" },
                  { "size": "64" },
                  { "size": "128" }
                ]
              }
            }
          }
        },
        "name": "StatefulPartitionedCall/model/conv2d_9/Conv2D_weights",
        "op": "Const"
      },
      {
        "attr": {
          "dtype": { "type": "DT_FLOAT" },
          "value": {
            "tensor": {
              "dtype": "DT_FLOAT",
              "tensorShape": { "dim": [{ "size": "128" }] }
            }
          }
        },
        "name": "StatefulPartitionedCall/model/conv2d_9/Conv2D_bn_offset",
        "op": "Const"
      },
      {
        "attr": {
          "dtype": { "type": "DT_FLOAT" },
          "value": {
            "tensor": {
              "dtype": "DT_FLOAT",
              "tensorShape": {
                "dim": [
                  { "size": "1" },
                  { "size": "1" },
                  { "size": "128" },
                  { "size": "128" }
                ]
              }
            }
          }
        },
        "name": "StatefulPartitionedCall/model/conv2d_10/Conv2D_weights",
        "op": "Const"
      },
      {
        "attr": {
          "dtype": { "type": "DT_FLOAT" },
          "value": {
            "tensor": {
              "dtype": "DT_FLOAT",
              "tensorShape": { "dim": [{ "size": "128" }] }
            }
          }
        },
        "name": "StatefulPartitionedCall/model/conv2d_10/Conv2D_bn_offset",
        "op": "Const"
      },
      {
        "attr": {
          "dtype": { "type": "DT_FLOAT" },
          "value": {
            "tensor": {
              "dtype": "DT_FLOAT",
              "tensorShape": {
                "dim": [
                  { "size": "1" },
                  { "size": "1" },
                  { "size": "128" },
                  { "size": "128" }
                ]
              }
            }
          }
        },
        "name": "StatefulPartitionedCall/model/conv2d_11/Conv2D_weights",
        "op": "Const"
      },
      {
        "attr": {
          "dtype": { "type": "DT_FLOAT" },
          "value": {
            "tensor": {
              "dtype": "DT_FLOAT",
              "tensorShape": { "dim": [{ "size": "128" }] }
            }
          }
        },
        "name": "StatefulPartitionedCall/model/conv2d_11/Conv2D_bn_offset",
        "op": "Const"
      },
      {
        "attr": {
          "dtype": { "type": "DT_FLOAT" },
          "value": {
            "tensor": {
              "dtype": "DT_FLOAT",
              "tensorShape": {
                "dim": [
                  { "size": "1" },
                  { "size": "1" },
                  { "size": "128" },
                  { "size": "128" }
                ]
              }
            }
          }
        },
        "name": "StatefulPartitionedCall/model/conv2d_12/Conv2D_weights",
        "op": "Const"
      },
      {
        "attr": {
          "dtype": { "type": "DT_FLOAT" },
          "value": {
            "tensor": {
              "dtype": "DT_FLOAT",
              "tensorShape": { "dim": [{ "size": "128" }] }
            }
          }
        },
        "name": "StatefulPartitionedCall/model/conv2d_12/Conv2D_bn_offset",
        "op": "Const"
      },
      {
        "attr": {
          "dtype": { "type": "DT_FLOAT" },
          "value": {
            "tensor": {
              "dtype": "DT_FLOAT",
              "tensorShape": {
                "dim": [
                  { "size": "1" },
                  { "size": "1" },
                  { "size": "128" },
                  { "size": "128" }
                ]
              }
            }
          }
        },
        "name": "StatefulPartitionedCall/model/conv2d_13/Conv2D_weights",
        "op": "Const"
      },
      {
        "attr": {
          "dtype": { "type": "DT_FLOAT" },
          "value": {
            "tensor": {
              "dtype": "DT_FLOAT",
              "tensorShape": { "dim": [{ "size": "128" }] }
            }
          }
        },
        "name": "StatefulPartitionedCall/model/conv2d_13/Conv2D_bn_offset",
        "op": "Const"
      },
      {
        "attr": {
          "dtype": { "type": "DT_FLOAT" },
          "value": {
            "tensor": {
              "dtype": "DT_FLOAT",
              "tensorShape": {
                "dim": [
                  { "size": "1" },
                  { "size": "1" },
                  { "size": "128" },
                  { "size": "128" }
                ]
              }
            }
          }
        },
        "name": "StatefulPartitionedCall/model/conv2d_14/Conv2D_weights",
        "op": "Const"
      },
      {
        "attr": {
          "dtype": { "type": "DT_FLOAT" },
          "value": {
            "tensor": {
              "dtype": "DT_FLOAT",
              "tensorShape": { "dim": [{ "size": "128" }] }
            }
          }
        },
        "name": "StatefulPartitionedCall/model/conv2d_14/Conv2D_bn_offset",
        "op": "Const"
      },
      {
        "attr": {
          "dtype": { "type": "DT_FLOAT" },
          "value": {
            "tensor": {
              "dtype": "DT_FLOAT",
              "tensorShape": {
                "dim": [
                  { "size": "1" },
                  { "size": "1" },
                  { "size": "128" },
                  { "size": "128" }
                ]
              }
            }
          }
        },
        "name": "StatefulPartitionedCall/model/conv2d_15/Conv2D_weights",
        "op": "Const"
      },
      {
        "attr": {
          "dtype": { "type": "DT_FLOAT" },
          "value": {
            "tensor": {
              "dtype": "DT_FLOAT",
              "tensorShape": { "dim": [{ "size": "128" }] }
            }
          }
        },
        "name": "StatefulPartitionedCall/model/conv2d_15/Conv2D_bn_offset",
        "op": "Const"
      },
      {
        "attr": {
          "dtype": { "type": "DT_FLOAT" },
          "value": {
            "tensor": {
              "dtype": "DT_FLOAT",
              "tensorShape": {
                "dim": [
                  { "size": "1" },
                  { "size": "1" },
                  { "size": "128" },
                  { "size": "128" }
                ]
              }
            }
          }
        },
        "name": "StatefulPartitionedCall/model/conv2d_16/Conv2D_weights",
        "op": "Const"
      },
      {
        "attr": {
          "dtype": { "type": "DT_FLOAT" },
          "value": {
            "tensor": {
              "dtype": "DT_FLOAT",
              "tensorShape": { "dim": [{ "size": "128" }] }
            }
          }
        },
        "name": "StatefulPartitionedCall/model/conv2d_16/Conv2D_bn_offset",
        "op": "Const"
      },
      {
        "attr": {
          "dtype": { "type": "DT_FLOAT" },
          "value": {
            "tensor": {
              "dtype": "DT_FLOAT",
              "tensorShape": {
                "dim": [
                  { "size": "1" },
                  { "size": "1" },
                  { "size": "128" },
                  { "size": "128" }
                ]
              }
            }
          }
        },
        "name": "StatefulPartitionedCall/model/conv2d_17/Conv2D_weights",
        "op": "Const"
      },
      {
        "attr": {
          "dtype": { "type": "DT_FLOAT" },
          "value": {
            "tensor": {
              "dtype": "DT_FLOAT",
              "tensorShape": { "dim": [{ "size": "128" }] }
            }
          }
        },
        "name": "StatefulPartitionedCall/model/conv2d_17/Conv2D_bn_offset",
        "op": "Const"
      },
      {
        "attr": {
          "dtype": { "type": "DT_FLOAT" },
          "value": {
            "tensor": {
              "dtype": "DT_FLOAT",
              "tensorShape": {
                "dim": [
                  { "size": "1" },
                  { "size": "1" },
                  { "size": "128" },
                  { "size": "32" }
                ]
              }
            }
          }
        },
        "name": "StatefulPartitionedCall/model/conv2d_18/Conv2D_weights",
        "op": "Const"
      },
      {
        "attr": {
          "dtype": { "type": "DT_FLOAT" },
          "value": {
            "tensor": {
              "dtype": "DT_FLOAT",
              "tensorShape": { "dim": [{ "size": "32" }] }
            }
          }
        },
        "name": "StatefulPartitionedCall/model/conv2d_18/Conv2D_bn_offset",
        "op": "Const"
      },
      {
        "attr": {
          "dtype": { "type": "DT_FLOAT" },
          "value": {
            "tensor": {
              "dtype": "DT_FLOAT",
              "tensorShape": {
                "dim": [
                  { "size": "1" },
                  { "size": "1" },
                  { "size": "32" },
                  { "size": "32" }
                ]
              }
            }
          }
        },
        "name": "StatefulPartitionedCall/model/conv2d_19/Conv2D_weights",
        "op": "Const"
      },
      {
        "attr": {
          "dtype": { "type": "DT_FLOAT" },
          "value": {
            "tensor": {
              "dtype": "DT_FLOAT",
              "tensorShape": { "dim": [{ "size": "32" }] }
            }
          }
        },
        "name": "StatefulPartitionedCall/model/conv2d_19/Conv2D_bn_offset",
        "op": "Const"
      },
      {
        "input": ["^input_1"],
        "attr": {
          "dtype": { "type": "DT_FLOAT" },
          "value": {
            "tensor": {
              "dtype": "DT_FLOAT",
              "tensorShape": {
                "dim": [{ "size": "1" }, { "size": "1" }, { "size": "16" }]
              }
            }
          }
        },
        "name": "StatefulPartitionedCall/model/p_re_lu/Neg",
        "op": "Const"
      },
      {
        "input": ["^input_1"],
        "attr": {
          "dtype": { "type": "DT_FLOAT" },
          "value": {
            "tensor": {
              "dtype": "DT_FLOAT",
              "tensorShape": {
                "dim": [
                  { "size": "3" },
                  { "size": "3" },
                  { "size": "16" },
                  { "size": "1" }
                ]
              }
            }
          }
        },
        "name": "StatefulPartitionedCall/model/depthwise_conv2d/depthwise/ReadVariableOp",
        "op": "Const"
      },
      {
        "input": ["^input_1"],
        "attr": {
          "dtype": { "type": "DT_FLOAT" },
          "value": {
            "tensor": {
              "dtype": "DT_FLOAT",
              "tensorShape": {
                "dim": [{ "size": "1" }, { "size": "1" }, { "size": "16" }]
              }
            }
          }
        },
        "name": "StatefulPartitionedCall/model/p_re_lu_1/Neg",
        "op": "Const"
      },
      {
        "input": ["^input_1"],
        "attr": {
          "dtype": { "type": "DT_FLOAT" },
          "value": {
            "tensor": {
              "dtype": "DT_FLOAT",
              "tensorShape": {
                "dim": [
                  { "size": "3" },
                  { "size": "3" },
                  { "size": "16" },
                  { "size": "1" }
                ]
              }
            }
          }
        },
        "name": "StatefulPartitionedCall/model/depthwise_conv2d_1/depthwise/ReadVariableOp",
        "op": "Const"
      },
      {
        "input": ["^input_1"],
        "attr": {
          "dtype": { "type": "DT_FLOAT" },
          "value": {
            "tensor": {
              "dtype": "DT_FLOAT",
              "tensorShape": {
                "dim": [{ "size": "1" }, { "size": "1" }, { "size": "16" }]
              }
            }
          }
        },
        "name": "StatefulPartitionedCall/model/p_re_lu_2/Neg",
        "op": "Const"
      },
      {
        "input": ["^input_1"],
        "attr": {
          "dtype": { "type": "DT_INT32" },
          "value": {
            "tensor": {
              "dtype": "DT_INT32",
              "tensorShape": { "dim": [{ "size": "4" }, { "size": "2" }] }
            }
          }
        },
        "name": "StatefulPartitionedCall/model/channel_padding/Pad/paddings",
        "op": "Const"
      },
      {
        "input": ["^input_1"],
        "attr": {
          "dtype": { "type": "DT_FLOAT" },
          "value": {
            "tensor": {
              "dtype": "DT_FLOAT",
              "tensorShape": {
                "dim": [
                  { "size": "3" },
                  { "size": "3" },
                  { "size": "16" },
                  { "size": "1" }
                ]
              }
            }
          }
        },
        "name": "StatefulPartitionedCall/model/depthwise_conv2d_2/depthwise/ReadVariableOp",
        "op": "Const"
      },
      {
        "input": ["^input_1"],
        "attr": {
          "dtype": { "type": "DT_FLOAT" },
          "value": {
            "tensor": {
              "dtype": "DT_FLOAT",
              "tensorShape": {
                "dim": [{ "size": "1" }, { "size": "1" }, { "size": "32" }]
              }
            }
          }
        },
        "name": "StatefulPartitionedCall/model/p_re_lu_3/Neg",
        "op": "Const"
      },
      {
        "input": ["^input_1"],
        "attr": {
          "dtype": { "type": "DT_FLOAT" },
          "value": {
            "tensor": {
              "dtype": "DT_FLOAT",
              "tensorShape": {
                "dim": [
                  { "size": "3" },
                  { "size": "3" },
                  { "size": "32" },
                  { "size": "1" }
                ]
              }
            }
          }
        },
        "name": "StatefulPartitionedCall/model/depthwise_conv2d_3/depthwise/ReadVariableOp",
        "op": "Const"
      },
      {
        "input": ["^input_1"],
        "attr": {
          "dtype": { "type": "DT_FLOAT" },
          "value": {
            "tensor": {
              "dtype": "DT_FLOAT",
              "tensorShape": {
                "dim": [{ "size": "1" }, { "size": "1" }, { "size": "32" }]
              }
            }
          }
        },
        "name": "StatefulPartitionedCall/model/p_re_lu_4/Neg",
        "op": "Const"
      },
      {
        "input": ["^input_1"],
        "attr": {
          "dtype": { "type": "DT_FLOAT" },
          "value": {
            "tensor": {
              "dtype": "DT_FLOAT",
              "tensorShape": {
                "dim": [
                  { "size": "3" },
                  { "size": "3" },
                  { "size": "32" },
                  { "size": "1" }
                ]
              }
            }
          }
        },
        "name": "StatefulPartitionedCall/model/depthwise_conv2d_4/depthwise/ReadVariableOp",
        "op": "Const"
      },
      {
        "input": ["^input_1"],
        "attr": {
          "dtype": { "type": "DT_FLOAT" },
          "value": {
            "tensor": {
              "dtype": "DT_FLOAT",
              "tensorShape": {
                "dim": [{ "size": "1" }, { "size": "1" }, { "size": "32" }]
              }
            }
          }
        },
        "name": "StatefulPartitionedCall/model/p_re_lu_5/Neg",
        "op": "Const"
      },
      {
        "input": ["^input_1"],
        "attr": {
          "dtype": { "type": "DT_INT32" },
          "value": {
            "tensor": {
              "dtype": "DT_INT32",
              "tensorShape": { "dim": [{ "size": "4" }, { "size": "2" }] }
            }
          }
        },
        "name": "StatefulPartitionedCall/model/channel_padding_1/Pad/paddings",
        "op": "Const"
      },
      {
        "input": ["^input_1"],
        "attr": {
          "dtype": { "type": "DT_FLOAT" },
          "value": {
            "tensor": {
              "dtype": "DT_FLOAT",
              "tensorShape": {
                "dim": [
                  { "size": "3" },
                  { "size": "3" },
                  { "size": "32" },
                  { "size": "1" }
                ]
              }
            }
          }
        },
        "name": "StatefulPartitionedCall/model/depthwise_conv2d_5/depthwise/ReadVariableOp",
        "op": "Const"
      },
      {
        "input": ["^input_1"],
        "attr": {
          "dtype": { "type": "DT_FLOAT" },
          "value": {
            "tensor": {
              "dtype": "DT_FLOAT",
              "tensorShape": {
                "dim": [{ "size": "1" }, { "size": "1" }, { "size": "64" }]
              }
            }
          }
        },
        "name": "StatefulPartitionedCall/model/p_re_lu_6/Neg",
        "op": "Const"
      },
      {
        "input": ["^input_1"],
        "attr": {
          "dtype": { "type": "DT_FLOAT" },
          "value": {
            "tensor": {
              "dtype": "DT_FLOAT",
              "tensorShape": {
                "dim": [
                  { "size": "3" },
                  { "size": "3" },
                  { "size": "64" },
                  { "size": "1" }
                ]
              }
            }
          }
        },
        "name": "StatefulPartitionedCall/model/depthwise_conv2d_6/depthwise/ReadVariableOp",
        "op": "Const"
      },
      {
        "input": ["^input_1"],
        "attr": {
          "dtype": { "type": "DT_FLOAT" },
          "value": {
            "tensor": {
              "dtype": "DT_FLOAT",
              "tensorShape": {
                "dim": [{ "size": "1" }, { "size": "1" }, { "size": "64" }]
              }
            }
          }
        },
        "name": "StatefulPartitionedCall/model/p_re_lu_7/Neg",
        "op": "Const"
      },
      {
        "input": ["^input_1"],
        "attr": {
          "dtype": { "type": "DT_FLOAT" },
          "value": {
            "tensor": {
              "dtype": "DT_FLOAT",
              "tensorShape": {
                "dim": [
                  { "size": "3" },
                  { "size": "3" },
                  { "size": "64" },
                  { "size": "1" }
                ]
              }
            }
          }
        },
        "name": "StatefulPartitionedCall/model/depthwise_conv2d_7/depthwise/ReadVariableOp",
        "op": "Const"
      },
      {
        "input": ["^input_1"],
        "attr": {
          "dtype": { "type": "DT_FLOAT" },
          "value": {
            "tensor": {
              "dtype": "DT_FLOAT",
              "tensorShape": {
                "dim": [{ "size": "1" }, { "size": "1" }, { "size": "64" }]
              }
            }
          }
        },
        "name": "StatefulPartitionedCall/model/p_re_lu_8/Neg",
        "op": "Const"
      },
      {
        "input": ["^input_1"],
        "attr": {
          "dtype": { "type": "DT_INT32" },
          "value": {
            "tensor": {
              "dtype": "DT_INT32",
              "tensorShape": { "dim": [{ "size": "4" }, { "size": "2" }] }
            }
          }
        },
        "name": "StatefulPartitionedCall/model/channel_padding_2/Pad/paddings",
        "op": "Const"
      },
      {
        "input": ["^input_1"],
        "attr": {
          "dtype": { "type": "DT_FLOAT" },
          "value": {
            "tensor": {
              "dtype": "DT_FLOAT",
              "tensorShape": {
                "dim": [
                  { "size": "3" },
                  { "size": "3" },
                  { "size": "64" },
                  { "size": "1" }
                ]
              }
            }
          }
        },
        "name": "StatefulPartitionedCall/model/depthwise_conv2d_8/depthwise/ReadVariableOp",
        "op": "Const"
      },
      {
        "input": ["^input_1"],
        "attr": {
          "dtype": { "type": "DT_FLOAT" },
          "value": {
            "tensor": {
              "dtype": "DT_FLOAT",
              "tensorShape": {
                "dim": [{ "size": "1" }, { "size": "1" }, { "size": "128" }]
              }
            }
          }
        },
        "name": "StatefulPartitionedCall/model/p_re_lu_9/Neg",
        "op": "Const"
      },
      {
        "input": ["^input_1"],
        "attr": {
          "dtype": { "type": "DT_FLOAT" },
          "value": {
            "tensor": {
              "dtype": "DT_FLOAT",
              "tensorShape": {
                "dim": [
                  { "size": "3" },
                  { "size": "3" },
                  { "size": "128" },
                  { "size": "1" }
                ]
              }
            }
          }
        },
        "name": "StatefulPartitionedCall/model/depthwise_conv2d_9/depthwise/ReadVariableOp",
        "op": "Const"
      },
      {
        "input": ["^input_1"],
        "attr": {
          "dtype": { "type": "DT_FLOAT" },
          "value": {
            "tensor": {
              "dtype": "DT_FLOAT",
              "tensorShape": {
                "dim": [{ "size": "1" }, { "size": "1" }, { "size": "128" }]
              }
            }
          }
        },
        "name": "StatefulPartitionedCall/model/p_re_lu_10/Neg",
        "op": "Const"
      },
      {
        "input": ["^input_1"],
        "attr": {
          "dtype": { "type": "DT_FLOAT" },
          "value": {
            "tensor": {
              "dtype": "DT_FLOAT",
              "tensorShape": {
                "dim": [
                  { "size": "3" },
                  { "size": "3" },
                  { "size": "128" },
                  { "size": "1" }
                ]
              }
            }
          }
        },
        "name": "StatefulPartitionedCall/model/depthwise_conv2d_10/depthwise/ReadVariableOp",
        "op": "Const"
      },
      {
        "input": ["^input_1"],
        "attr": {
          "dtype": { "type": "DT_FLOAT" },
          "value": {
            "tensor": {
              "dtype": "DT_FLOAT",
              "tensorShape": {
                "dim": [{ "size": "1" }, { "size": "1" }, { "size": "128" }]
              }
            }
          }
        },
        "name": "StatefulPartitionedCall/model/p_re_lu_11/Neg",
        "op": "Const"
      },
      {
        "input": ["^input_1"],
        "attr": {
          "dtype": { "type": "DT_FLOAT" },
          "value": {
            "tensor": {
              "dtype": "DT_FLOAT",
              "tensorShape": {
                "dim": [
                  { "size": "3" },
                  { "size": "3" },
                  { "size": "128" },
                  { "size": "1" }
                ]
              }
            }
          }
        },
        "name": "StatefulPartitionedCall/model/depthwise_conv2d_11/depthwise/ReadVariableOp",
        "op": "Const"
      },
      {
        "input": ["^input_1"],
        "attr": {
          "dtype": { "type": "DT_FLOAT" },
          "value": {
            "tensor": {
              "dtype": "DT_FLOAT",
              "tensorShape": {
                "dim": [{ "size": "1" }, { "size": "1" }, { "size": "128" }]
              }
            }
          }
        },
        "name": "StatefulPartitionedCall/model/p_re_lu_12/Neg",
        "op": "Const"
      },
      {
        "input": ["^input_1"],
        "attr": {
          "dtype": { "type": "DT_FLOAT" },
          "value": {
            "tensor": {
              "dtype": "DT_FLOAT",
              "tensorShape": {
                "dim": [
                  { "size": "3" },
                  { "size": "3" },
                  { "size": "128" },
                  { "size": "1" }
                ]
              }
            }
          }
        },
        "name": "StatefulPartitionedCall/model/depthwise_conv2d_12/depthwise/ReadVariableOp",
        "op": "Const"
      },
      {
        "input": ["^input_1"],
        "attr": {
          "dtype": { "type": "DT_FLOAT" },
          "value": {
            "tensor": {
              "dtype": "DT_FLOAT",
              "tensorShape": {
                "dim": [{ "size": "1" }, { "size": "1" }, { "size": "128" }]
              }
            }
          }
        },
        "name": "StatefulPartitionedCall/model/p_re_lu_13/Neg",
        "op": "Const"
      },
      {
        "input": ["^input_1"],
        "attr": {
          "dtype": { "type": "DT_FLOAT" },
          "value": {
            "tensor": {
              "dtype": "DT_FLOAT",
              "tensorShape": {
                "dim": [
                  { "size": "3" },
                  { "size": "3" },
                  { "size": "128" },
                  { "size": "1" }
                ]
              }
            }
          }
        },
        "name": "StatefulPartitionedCall/model/depthwise_conv2d_13/depthwise/ReadVariableOp",
        "op": "Const"
      },
      {
        "input": ["^input_1"],
        "attr": {
          "dtype": { "type": "DT_FLOAT" },
          "value": {
            "tensor": {
              "dtype": "DT_FLOAT",
              "tensorShape": {
                "dim": [{ "size": "1" }, { "size": "1" }, { "size": "128" }]
              }
            }
          }
        },
        "name": "StatefulPartitionedCall/model/p_re_lu_14/Neg",
        "op": "Const"
      },
      {
        "input": ["^input_1"],
        "attr": {
          "dtype": { "type": "DT_FLOAT" },
          "value": {
            "tensor": {
              "dtype": "DT_FLOAT",
              "tensorShape": {
                "dim": [
                  { "size": "3" },
                  { "size": "3" },
                  { "size": "128" },
                  { "size": "1" }
                ]
              }
            }
          }
        },
        "name": "StatefulPartitionedCall/model/depthwise_conv2d_14/depthwise/ReadVariableOp",
        "op": "Const"
      },
      {
        "input": ["^input_1"],
        "attr": {
          "dtype": { "type": "DT_FLOAT" },
          "value": {
            "tensor": {
              "dtype": "DT_FLOAT",
              "tensorShape": {
                "dim": [{ "size": "1" }, { "size": "1" }, { "size": "128" }]
              }
            }
          }
        },
        "name": "StatefulPartitionedCall/model/p_re_lu_15/Neg",
        "op": "Const"
      },
      {
        "input": ["^input_1"],
        "attr": {
          "dtype": { "type": "DT_FLOAT" },
          "value": {
            "tensor": {
              "dtype": "DT_FLOAT",
              "tensorShape": {
                "dim": [
                  { "size": "2" },
                  { "size": "2" },
                  { "size": "128" },
                  { "size": "1" }
                ]
              }
            }
          }
        },
        "name": "StatefulPartitionedCall/model/depthwise_conv2d_15/depthwise/ReadVariableOp",
        "op": "Const"
      },
      {
        "input": ["^input_1"],
        "attr": {
          "dtype": { "type": "DT_FLOAT" },
          "value": {
            "tensor": {
              "dtype": "DT_FLOAT",
              "tensorShape": {
                "dim": [{ "size": "1" }, { "size": "1" }, { "size": "128" }]
              }
            }
          }
        },
        "name": "StatefulPartitionedCall/model/p_re_lu_16/Neg",
        "op": "Const"
      },
      {
        "input": ["^input_1"],
        "attr": {
          "dtype": { "type": "DT_FLOAT" },
          "value": {
            "tensor": {
              "dtype": "DT_FLOAT",
              "tensorShape": {
                "dim": [
                  { "size": "2" },
                  { "size": "2" },
                  { "size": "128" },
                  { "size": "1" }
                ]
              }
            }
          }
        },
        "name": "StatefulPartitionedCall/model/depthwise_conv2d_16/depthwise/ReadVariableOp",
        "op": "Const"
      },
      {
        "input": ["^input_1"],
        "attr": {
          "dtype": { "type": "DT_FLOAT" },
          "value": {
            "tensor": {
              "dtype": "DT_FLOAT",
              "tensorShape": {
                "dim": [{ "size": "1" }, { "size": "1" }, { "size": "128" }]
              }
            }
          }
        },
        "name": "StatefulPartitionedCall/model/p_re_lu_17/Neg",
        "op": "Const"
      },
      {
        "input": ["^input_1"],
        "attr": {
          "dtype": { "type": "DT_FLOAT" },
          "value": {
            "tensor": {
              "dtype": "DT_FLOAT",
              "tensorShape": {
                "dim": [{ "size": "1" }, { "size": "1" }, { "size": "32" }]
              }
            }
          }
        },
        "name": "StatefulPartitionedCall/model/p_re_lu_18/Neg",
        "op": "Const"
      },
      {
        "input": ["^input_1"],
        "attr": {
          "dtype": { "type": "DT_FLOAT" },
          "value": {
            "tensor": {
              "dtype": "DT_FLOAT",
              "tensorShape": {
                "dim": [
                  { "size": "2" },
                  { "size": "2" },
                  { "size": "32" },
                  { "size": "1" }
                ]
              }
            }
          }
        },
        "name": "StatefulPartitionedCall/model/depthwise_conv2d_17/depthwise/ReadVariableOp",
        "op": "Const"
      },
      {
        "input": ["^input_1"],
        "attr": {
          "dtype": { "type": "DT_FLOAT" },
          "value": {
            "tensor": {
              "dtype": "DT_FLOAT",
              "tensorShape": {
                "dim": [{ "size": "1" }, { "size": "1" }, { "size": "32" }]
              }
            }
          }
        },
        "name": "StatefulPartitionedCall/model/p_re_lu_19/Neg",
        "op": "Const"
      },
      {
        "input": ["^input_1"],
        "attr": {
          "dtype": { "type": "DT_FLOAT" },
          "value": {
            "tensor": {
              "dtype": "DT_FLOAT",
              "tensorShape": {
                "dim": [
                  { "size": "2" },
                  { "size": "2" },
                  { "size": "32" },
                  { "size": "1" }
                ]
              }
            }
          }
        },
        "name": "StatefulPartitionedCall/model/conv_face_flag/Conv2D/ReadVariableOp",
        "op": "Const"
      },
      {
        "input": ["^input_1"],
        "attr": {
          "dtype": { "type": "DT_FLOAT" },
          "value": {
            "tensor": {
              "dtype": "DT_FLOAT",
              "tensorShape": { "dim": [{ "size": "1" }] }
            }
          }
        },
        "name": "StatefulPartitionedCall/model/conv_face_flag/BiasAdd/ReadVariableOp",
        "op": "Const"
      },
      {
        "input": ["^input_1"],
        "attr": {
          "dtype": { "type": "DT_INT32" },
          "value": {
            "tensor": {
              "dtype": "DT_INT32",
              "tensorShape": { "dim": [{ "size": "1" }] }
            }
          }
        },
        "name": "StatefulPartitionedCall/model/output_faceflag/strided_slice/stack",
        "op": "Const"
      },
      {
        "input": ["^input_1"],
        "attr": {
          "dtype": { "type": "DT_INT32" },
          "value": {
            "tensor": {
              "dtype": "DT_INT32",
              "tensorShape": { "dim": [{ "size": "1" }] }
            }
          }
        },
        "name": "StatefulPartitionedCall/model/output_faceflag/strided_slice/stack_1",
        "op": "Const"
      },
      {
        "input": ["^input_1"],
        "attr": {
          "dtype": { "type": "DT_INT32" },
          "value": { "tensor": { "dtype": "DT_INT32", "tensorShape": {} } }
        },
        "name": "StatefulPartitionedCall/model/output_faceflag/Reshape/shape/1",
        "op": "Const"
      },
      {
        "input": ["^input_1"],
        "attr": {
          "dtype": { "type": "DT_FLOAT" },
          "value": {
            "tensor": {
              "dtype": "DT_FLOAT",
              "tensorShape": { "dim": [{ "size": "1404" }] }
            }
          }
        },
        "name": "StatefulPartitionedCall/model/conv_mesh/BiasAdd/ReadVariableOp",
        "op": "Const"
      },
      {
        "input": ["^input_1"],
        "attr": {
          "dtype": { "type": "DT_FLOAT" },
          "value": {
            "tensor": {
              "dtype": "DT_FLOAT",
              "tensorShape": {
                "dim": [
                  { "size": "2" },
                  { "size": "2" },
                  { "size": "32" },
                  { "size": "1404" }
                ]
              }
            }
          }
        },
        "name": "StatefulPartitionedCall/model/conv_mesh/Conv2D/ReadVariableOp",
        "op": "Const"
      },
      {
        "device": "/device:CPU:0",
        "input": [
          "input_1",
          "StatefulPartitionedCall/model/conv2d/Conv2D_weights",
          "StatefulPartitionedCall/model/conv2d/Conv2D_bn_offset",
          "StatefulPartitionedCall/model/p_re_lu/Neg"
        ],
        "attr": {
          "explicit_paddings": { "list": {} },
          "epsilon": { "f": 0.0 },
          "data_format": { "s": "TkhXQw==" },
          "use_cudnn_on_gpu": { "b": true },
          "padding": { "s": "U0FNRQ==" },
          "strides": { "list": { "i": ["1", "2", "2", "1"] } },
          "num_args": { "i": "2" },
          "T": { "type": "DT_FLOAT" },
          "dilations": { "list": { "i": ["1", "1", "1", "1"] } },
          "fused_ops": { "list": { "s": ["Qmlhc0FkZA==", "UHJlbHU="] } }
        },
        "name": "StatefulPartitionedCall/model/batch_normalization_v1/FusedBatchNormV3",
        "op": "_FusedConv2D"
      },
      {
        "input": [
          "^StatefulPartitionedCall/model/conv_face_flag/BiasAdd/ReadVariableOp",
          "^StatefulPartitionedCall/model/conv_face_flag/Conv2D/ReadVariableOp",
          "^StatefulPartitionedCall/model/conv_mesh/BiasAdd/ReadVariableOp",
          "^StatefulPartitionedCall/model/conv_mesh/Conv2D/ReadVariableOp",
          "^StatefulPartitionedCall/model/depthwise_conv2d/depthwise/ReadVariableOp",
          "^StatefulPartitionedCall/model/depthwise_conv2d_1/depthwise/ReadVariableOp",
          "^StatefulPartitionedCall/model/depthwise_conv2d_10/depthwise/ReadVariableOp",
          "^StatefulPartitionedCall/model/depthwise_conv2d_11/depthwise/ReadVariableOp",
          "^StatefulPartitionedCall/model/depthwise_conv2d_12/depthwise/ReadVariableOp",
          "^StatefulPartitionedCall/model/depthwise_conv2d_13/depthwise/ReadVariableOp",
          "^StatefulPartitionedCall/model/depthwise_conv2d_14/depthwise/ReadVariableOp",
          "^StatefulPartitionedCall/model/depthwise_conv2d_15/depthwise/ReadVariableOp",
          "^StatefulPartitionedCall/model/depthwise_conv2d_16/depthwise/ReadVariableOp",
          "^StatefulPartitionedCall/model/depthwise_conv2d_17/depthwise/ReadVariableOp",
          "^StatefulPartitionedCall/model/depthwise_conv2d_2/depthwise/ReadVariableOp",
          "^StatefulPartitionedCall/model/depthwise_conv2d_3/depthwise/ReadVariableOp",
          "^StatefulPartitionedCall/model/depthwise_conv2d_4/depthwise/ReadVariableOp",
          "^StatefulPartitionedCall/model/depthwise_conv2d_5/depthwise/ReadVariableOp",
          "^StatefulPartitionedCall/model/depthwise_conv2d_6/depthwise/ReadVariableOp",
          "^StatefulPartitionedCall/model/depthwise_conv2d_7/depthwise/ReadVariableOp",
          "^StatefulPartitionedCall/model/depthwise_conv2d_8/depthwise/ReadVariableOp",
          "^StatefulPartitionedCall/model/depthwise_conv2d_9/depthwise/ReadVariableOp"
        ],
        "name": "Func/StatefulPartitionedCall/output_control_node/_147",
        "op": "NoOp"
      },
      {
        "input": [
          "StatefulPartitionedCall/model/batch_normalization_v1/FusedBatchNormV3",
          "StatefulPartitionedCall/model/depthwise_conv2d/depthwise/ReadVariableOp"
        ],
        "attr": {
          "dilations": { "list": { "i": ["1", "1", "1", "1"] } },
          "strides": { "list": { "i": ["1", "1", "1", "1"] } },
          "padding": { "s": "U0FNRQ==" },
          "data_format": { "s": "TkhXQw==" },
          "T": { "type": "DT_FLOAT" }
        },
        "name": "StatefulPartitionedCall/model/depthwise_conv2d/depthwise",
        "op": "DepthwiseConv2dNative"
      },
      {
        "device": "/device:CPU:0",
        "input": [
          "StatefulPartitionedCall/model/depthwise_conv2d/depthwise",
          "StatefulPartitionedCall/model/conv2d_1/Conv2D_weights",
          "StatefulPartitionedCall/model/conv2d_1/Conv2D_bn_offset"
        ],
        "attr": {
          "explicit_paddings": { "list": {} },
          "epsilon": { "f": 0.0 },
          "data_format": { "s": "TkhXQw==" },
          "use_cudnn_on_gpu": { "b": true },
          "padding": { "s": "VkFMSUQ=" },
          "strides": { "list": { "i": ["1", "1", "1", "1"] } },
          "num_args": { "i": "1" },
          "T": { "type": "DT_FLOAT" },
          "dilations": { "list": { "i": ["1", "1", "1", "1"] } },
          "fused_ops": { "list": { "s": ["Qmlhc0FkZA=="] } }
        },
        "name": "StatefulPartitionedCall/model/batch_normalization_v1_1/FusedBatchNormV3",
        "op": "_FusedConv2D"
      },
      {
        "input": [
          "StatefulPartitionedCall/model/batch_normalization_v1_1/FusedBatchNormV3",
          "StatefulPartitionedCall/model/batch_normalization_v1/FusedBatchNormV3"
        ],
        "attr": { "T": { "type": "DT_FLOAT" } },
        "name": "StatefulPartitionedCall/model/add/add",
        "op": "AddV2"
      },
      {
        "input": [
          "StatefulPartitionedCall/model/add/add",
          "StatefulPartitionedCall/model/p_re_lu_1/Neg"
        ],
        "name": "StatefulPartitionedCall/model/p_re_lu_1/Relu",
        "op": "Prelu"
      },
      {
        "input": [
          "StatefulPartitionedCall/model/p_re_lu_1/Relu",
          "StatefulPartitionedCall/model/depthwise_conv2d_1/depthwise/ReadVariableOp"
        ],
        "attr": {
          "padding": { "s": "U0FNRQ==" },
          "strides": { "list": { "i": ["1", "1", "1", "1"] } },
          "dilations": { "list": { "i": ["1", "1", "1", "1"] } },
          "T": { "type": "DT_FLOAT" },
          "data_format": { "s": "TkhXQw==" }
        },
        "name": "StatefulPartitionedCall/model/depthwise_conv2d_1/depthwise",
        "op": "DepthwiseConv2dNative"
      },
      {
        "device": "/device:CPU:0",
        "input": [
          "StatefulPartitionedCall/model/depthwise_conv2d_1/depthwise",
          "StatefulPartitionedCall/model/conv2d_2/Conv2D_weights",
          "StatefulPartitionedCall/model/conv2d_2/Conv2D_bn_offset"
        ],
        "attr": {
          "explicit_paddings": { "list": {} },
          "epsilon": { "f": 0.0 },
          "data_format": { "s": "TkhXQw==" },
          "use_cudnn_on_gpu": { "b": true },
          "padding": { "s": "VkFMSUQ=" },
          "strides": { "list": { "i": ["1", "1", "1", "1"] } },
          "num_args": { "i": "1" },
          "T": { "type": "DT_FLOAT" },
          "dilations": { "list": { "i": ["1", "1", "1", "1"] } },
          "fused_ops": { "list": { "s": ["Qmlhc0FkZA=="] } }
        },
        "name": "StatefulPartitionedCall/model/batch_normalization_v1_2/FusedBatchNormV3",
        "op": "_FusedConv2D"
      },
      {
        "input": [
          "StatefulPartitionedCall/model/batch_normalization_v1_2/FusedBatchNormV3",
          "StatefulPartitionedCall/model/p_re_lu_1/Relu"
        ],
        "attr": { "T": { "type": "DT_FLOAT" } },
        "name": "StatefulPartitionedCall/model/add_1/add",
        "op": "AddV2"
      },
      {
        "input": [
          "StatefulPartitionedCall/model/add_1/add",
          "StatefulPartitionedCall/model/p_re_lu_2/Neg"
        ],
        "name": "StatefulPartitionedCall/model/p_re_lu_2/Relu",
        "op": "Prelu"
      },
      {
        "input": ["StatefulPartitionedCall/model/p_re_lu_2/Relu"],
        "attr": {
          "padding": { "s": "VkFMSUQ=" },
          "strides": { "list": { "i": ["1", "2", "2", "1"] } },
          "data_format": { "s": "TkhXQw==" },
          "ksize": { "list": { "i": ["1", "2", "2", "1"] } },
          "T": { "type": "DT_FLOAT" }
        },
        "name": "StatefulPartitionedCall/model/max_pooling2d/MaxPool",
        "op": "MaxPool"
      },
      {
        "input": [
          "StatefulPartitionedCall/model/p_re_lu_2/Relu",
          "StatefulPartitionedCall/model/depthwise_conv2d_2/depthwise/ReadVariableOp"
        ],
        "attr": {
          "padding": { "s": "U0FNRQ==" },
          "dilations": { "list": { "i": ["1", "1", "1", "1"] } },
          "strides": { "list": { "i": ["1", "2", "2", "1"] } },
          "T": { "type": "DT_FLOAT" },
          "data_format": { "s": "TkhXQw==" }
        },
        "name": "StatefulPartitionedCall/model/depthwise_conv2d_2/depthwise",
        "op": "DepthwiseConv2dNative"
      },
      {
        "input": [
          "StatefulPartitionedCall/model/max_pooling2d/MaxPool",
          "StatefulPartitionedCall/model/channel_padding/Pad/paddings"
        ],
        "attr": {
          "Tpaddings": { "type": "DT_INT32" },
          "T": { "type": "DT_FLOAT" }
        },
        "name": "StatefulPartitionedCall/model/channel_padding/Pad",
        "op": "Pad"
      },
      {
        "device": "/device:CPU:0",
        "input": [
          "StatefulPartitionedCall/model/depthwise_conv2d_2/depthwise",
          "StatefulPartitionedCall/model/conv2d_3/Conv2D_weights",
          "StatefulPartitionedCall/model/conv2d_3/Conv2D_bn_offset"
        ],
        "attr": {
          "explicit_paddings": { "list": {} },
          "epsilon": { "f": 0.0 },
          "data_format": { "s": "TkhXQw==" },
          "use_cudnn_on_gpu": { "b": true },
          "padding": { "s": "VkFMSUQ=" },
          "strides": { "list": { "i": ["1", "1", "1", "1"] } },
          "num_args": { "i": "1" },
          "T": { "type": "DT_FLOAT" },
          "dilations": { "list": { "i": ["1", "1", "1", "1"] } },
          "fused_ops": { "list": { "s": ["Qmlhc0FkZA=="] } }
        },
        "name": "StatefulPartitionedCall/model/batch_normalization_v1_3/FusedBatchNormV3",
        "op": "_FusedConv2D"
      },
      {
        "input": [
          "StatefulPartitionedCall/model/batch_normalization_v1_3/FusedBatchNormV3",
          "StatefulPartitionedCall/model/channel_padding/Pad"
        ],
        "attr": { "T": { "type": "DT_FLOAT" } },
        "name": "StatefulPartitionedCall/model/add_2/add",
        "op": "AddV2"
      },
      {
        "input": [
          "StatefulPartitionedCall/model/add_2/add",
          "StatefulPartitionedCall/model/p_re_lu_3/Neg"
        ],
        "name": "StatefulPartitionedCall/model/p_re_lu_3/Relu",
        "op": "Prelu"
      },
      {
        "input": [
          "StatefulPartitionedCall/model/p_re_lu_3/Relu",
          "StatefulPartitionedCall/model/depthwise_conv2d_3/depthwise/ReadVariableOp"
        ],
        "attr": {
          "padding": { "s": "U0FNRQ==" },
          "dilations": { "list": { "i": ["1", "1", "1", "1"] } },
          "strides": { "list": { "i": ["1", "1", "1", "1"] } },
          "T": { "type": "DT_FLOAT" },
          "data_format": { "s": "TkhXQw==" }
        },
        "name": "StatefulPartitionedCall/model/depthwise_conv2d_3/depthwise",
        "op": "DepthwiseConv2dNative"
      },
      {
        "device": "/device:CPU:0",
        "input": [
          "StatefulPartitionedCall/model/depthwise_conv2d_3/depthwise",
          "StatefulPartitionedCall/model/conv2d_4/Conv2D_weights",
          "StatefulPartitionedCall/model/conv2d_4/Conv2D_bn_offset"
        ],
        "attr": {
          "explicit_paddings": { "list": {} },
          "epsilon": { "f": 0.0 },
          "data_format": { "s": "TkhXQw==" },
          "use_cudnn_on_gpu": { "b": true },
          "padding": { "s": "VkFMSUQ=" },
          "strides": { "list": { "i": ["1", "1", "1", "1"] } },
          "num_args": { "i": "1" },
          "T": { "type": "DT_FLOAT" },
          "dilations": { "list": { "i": ["1", "1", "1", "1"] } },
          "fused_ops": { "list": { "s": ["Qmlhc0FkZA=="] } }
        },
        "name": "StatefulPartitionedCall/model/batch_normalization_v1_4/FusedBatchNormV3",
        "op": "_FusedConv2D"
      },
      {
        "input": [
          "StatefulPartitionedCall/model/batch_normalization_v1_4/FusedBatchNormV3",
          "StatefulPartitionedCall/model/p_re_lu_3/Relu"
        ],
        "attr": { "T": { "type": "DT_FLOAT" } },
        "name": "StatefulPartitionedCall/model/add_3/add",
        "op": "AddV2"
      },
      {
        "input": [
          "StatefulPartitionedCall/model/add_3/add",
          "StatefulPartitionedCall/model/p_re_lu_4/Neg"
        ],
        "name": "StatefulPartitionedCall/model/p_re_lu_4/Relu",
        "op": "Prelu"
      },
      {
        "input": [
          "StatefulPartitionedCall/model/p_re_lu_4/Relu",
          "StatefulPartitionedCall/model/depthwise_conv2d_4/depthwise/ReadVariableOp"
        ],
        "attr": {
          "dilations": { "list": { "i": ["1", "1", "1", "1"] } },
          "padding": { "s": "U0FNRQ==" },
          "strides": { "list": { "i": ["1", "1", "1", "1"] } },
          "T": { "type": "DT_FLOAT" },
          "data_format": { "s": "TkhXQw==" }
        },
        "name": "StatefulPartitionedCall/model/depthwise_conv2d_4/depthwise",
        "op": "DepthwiseConv2dNative"
      },
      {
        "device": "/device:CPU:0",
        "input": [
          "StatefulPartitionedCall/model/depthwise_conv2d_4/depthwise",
          "StatefulPartitionedCall/model/conv2d_5/Conv2D_weights",
          "StatefulPartitionedCall/model/conv2d_5/Conv2D_bn_offset"
        ],
        "attr": {
          "explicit_paddings": { "list": {} },
          "epsilon": { "f": 0.0 },
          "data_format": { "s": "TkhXQw==" },
          "use_cudnn_on_gpu": { "b": true },
          "padding": { "s": "VkFMSUQ=" },
          "strides": { "list": { "i": ["1", "1", "1", "1"] } },
          "num_args": { "i": "1" },
          "T": { "type": "DT_FLOAT" },
          "dilations": { "list": { "i": ["1", "1", "1", "1"] } },
          "fused_ops": { "list": { "s": ["Qmlhc0FkZA=="] } }
        },
        "name": "StatefulPartitionedCall/model/batch_normalization_v1_5/FusedBatchNormV3",
        "op": "_FusedConv2D"
      },
      {
        "input": [
          "StatefulPartitionedCall/model/batch_normalization_v1_5/FusedBatchNormV3",
          "StatefulPartitionedCall/model/p_re_lu_4/Relu"
        ],
        "attr": { "T": { "type": "DT_FLOAT" } },
        "name": "StatefulPartitionedCall/model/add_4/add",
        "op": "AddV2"
      },
      {
        "input": [
          "StatefulPartitionedCall/model/add_4/add",
          "StatefulPartitionedCall/model/p_re_lu_5/Neg"
        ],
        "name": "StatefulPartitionedCall/model/p_re_lu_5/Relu",
        "op": "Prelu"
      },
      {
        "input": ["StatefulPartitionedCall/model/p_re_lu_5/Relu"],
        "attr": {
          "padding": { "s": "VkFMSUQ=" },
          "strides": { "list": { "i": ["1", "2", "2", "1"] } },
          "data_format": { "s": "TkhXQw==" },
          "ksize": { "list": { "i": ["1", "2", "2", "1"] } },
          "T": { "type": "DT_FLOAT" }
        },
        "name": "StatefulPartitionedCall/model/max_pooling2d_1/MaxPool",
        "op": "MaxPool"
      },
      {
        "input": [
          "StatefulPartitionedCall/model/p_re_lu_5/Relu",
          "StatefulPartitionedCall/model/depthwise_conv2d_5/depthwise/ReadVariableOp"
        ],
        "attr": {
          "padding": { "s": "U0FNRQ==" },
          "dilations": { "list": { "i": ["1", "1", "1", "1"] } },
          "strides": { "list": { "i": ["1", "2", "2", "1"] } },
          "T": { "type": "DT_FLOAT" },
          "data_format": { "s": "TkhXQw==" }
        },
        "name": "StatefulPartitionedCall/model/depthwise_conv2d_5/depthwise",
        "op": "DepthwiseConv2dNative"
      },
      {
        "input": [
          "StatefulPartitionedCall/model/max_pooling2d_1/MaxPool",
          "StatefulPartitionedCall/model/channel_padding_1/Pad/paddings"
        ],
        "attr": {
          "Tpaddings": { "type": "DT_INT32" },
          "T": { "type": "DT_FLOAT" }
        },
        "name": "StatefulPartitionedCall/model/channel_padding_1/Pad",
        "op": "Pad"
      },
      {
        "device": "/device:CPU:0",
        "input": [
          "StatefulPartitionedCall/model/depthwise_conv2d_5/depthwise",
          "StatefulPartitionedCall/model/conv2d_6/Conv2D_weights",
          "StatefulPartitionedCall/model/conv2d_6/Conv2D_bn_offset"
        ],
        "attr": {
          "explicit_paddings": { "list": {} },
          "epsilon": { "f": 0.0 },
          "data_format": { "s": "TkhXQw==" },
          "use_cudnn_on_gpu": { "b": true },
          "padding": { "s": "VkFMSUQ=" },
          "strides": { "list": { "i": ["1", "1", "1", "1"] } },
          "num_args": { "i": "1" },
          "T": { "type": "DT_FLOAT" },
          "dilations": { "list": { "i": ["1", "1", "1", "1"] } },
          "fused_ops": { "list": { "s": ["Qmlhc0FkZA=="] } }
        },
        "name": "StatefulPartitionedCall/model/batch_normalization_v1_6/FusedBatchNormV3",
        "op": "_FusedConv2D"
      },
      {
        "input": [
          "StatefulPartitionedCall/model/batch_normalization_v1_6/FusedBatchNormV3",
          "StatefulPartitionedCall/model/channel_padding_1/Pad"
        ],
        "attr": { "T": { "type": "DT_FLOAT" } },
        "name": "StatefulPartitionedCall/model/add_5/add",
        "op": "AddV2"
      },
      {
        "input": [
          "StatefulPartitionedCall/model/add_5/add",
          "StatefulPartitionedCall/model/p_re_lu_6/Neg"
        ],
        "name": "StatefulPartitionedCall/model/p_re_lu_6/Relu",
        "op": "Prelu"
      },
      {
        "input": [
          "StatefulPartitionedCall/model/p_re_lu_6/Relu",
          "StatefulPartitionedCall/model/depthwise_conv2d_6/depthwise/ReadVariableOp"
        ],
        "attr": {
          "dilations": { "list": { "i": ["1", "1", "1", "1"] } },
          "strides": { "list": { "i": ["1", "1", "1", "1"] } },
          "padding": { "s": "U0FNRQ==" },
          "T": { "type": "DT_FLOAT" },
          "data_format": { "s": "TkhXQw==" }
        },
        "name": "StatefulPartitionedCall/model/depthwise_conv2d_6/depthwise",
        "op": "DepthwiseConv2dNative"
      },
      {
        "device": "/device:CPU:0",
        "input": [
          "StatefulPartitionedCall/model/depthwise_conv2d_6/depthwise",
          "StatefulPartitionedCall/model/conv2d_7/Conv2D_weights",
          "StatefulPartitionedCall/model/conv2d_7/Conv2D_bn_offset"
        ],
        "attr": {
          "explicit_paddings": { "list": {} },
          "epsilon": { "f": 0.0 },
          "data_format": { "s": "TkhXQw==" },
          "use_cudnn_on_gpu": { "b": true },
          "padding": { "s": "VkFMSUQ=" },
          "strides": { "list": { "i": ["1", "1", "1", "1"] } },
          "num_args": { "i": "1" },
          "T": { "type": "DT_FLOAT" },
          "dilations": { "list": { "i": ["1", "1", "1", "1"] } },
          "fused_ops": { "list": { "s": ["Qmlhc0FkZA=="] } }
        },
        "name": "StatefulPartitionedCall/model/batch_normalization_v1_7/FusedBatchNormV3",
        "op": "_FusedConv2D"
      },
      {
        "input": [
          "StatefulPartitionedCall/model/batch_normalization_v1_7/FusedBatchNormV3",
          "StatefulPartitionedCall/model/p_re_lu_6/Relu"
        ],
        "attr": { "T": { "type": "DT_FLOAT" } },
        "name": "StatefulPartitionedCall/model/add_6/add",
        "op": "AddV2"
      },
      {
        "input": [
          "StatefulPartitionedCall/model/add_6/add",
          "StatefulPartitionedCall/model/p_re_lu_7/Neg"
        ],
        "name": "StatefulPartitionedCall/model/p_re_lu_7/Relu",
        "op": "Prelu"
      },
      {
        "input": [
          "StatefulPartitionedCall/model/p_re_lu_7/Relu",
          "StatefulPartitionedCall/model/depthwise_conv2d_7/depthwise/ReadVariableOp"
        ],
        "attr": {
          "dilations": { "list": { "i": ["1", "1", "1", "1"] } },
          "padding": { "s": "U0FNRQ==" },
          "strides": { "list": { "i": ["1", "1", "1", "1"] } },
          "T": { "type": "DT_FLOAT" },
          "data_format": { "s": "TkhXQw==" }
        },
        "name": "StatefulPartitionedCall/model/depthwise_conv2d_7/depthwise",
        "op": "DepthwiseConv2dNative"
      },
      {
        "device": "/device:CPU:0",
        "input": [
          "StatefulPartitionedCall/model/depthwise_conv2d_7/depthwise",
          "StatefulPartitionedCall/model/conv2d_8/Conv2D_weights",
          "StatefulPartitionedCall/model/conv2d_8/Conv2D_bn_offset"
        ],
        "attr": {
          "explicit_paddings": { "list": {} },
          "epsilon": { "f": 0.0 },
          "data_format": { "s": "TkhXQw==" },
          "use_cudnn_on_gpu": { "b": true },
          "padding": { "s": "VkFMSUQ=" },
          "strides": { "list": { "i": ["1", "1", "1", "1"] } },
          "num_args": { "i": "1" },
          "T": { "type": "DT_FLOAT" },
          "dilations": { "list": { "i": ["1", "1", "1", "1"] } },
          "fused_ops": { "list": { "s": ["Qmlhc0FkZA=="] } }
        },
        "name": "StatefulPartitionedCall/model/batch_normalization_v1_8/FusedBatchNormV3",
        "op": "_FusedConv2D"
      },
      {
        "input": [
          "StatefulPartitionedCall/model/batch_normalization_v1_8/FusedBatchNormV3",
          "StatefulPartitionedCall/model/p_re_lu_7/Relu"
        ],
        "attr": { "T": { "type": "DT_FLOAT" } },
        "name": "StatefulPartitionedCall/model/add_7/add",
        "op": "AddV2"
      },
      {
        "input": [
          "StatefulPartitionedCall/model/add_7/add",
          "StatefulPartitionedCall/model/p_re_lu_8/Neg"
        ],
        "name": "StatefulPartitionedCall/model/p_re_lu_8/Relu",
        "op": "Prelu"
      },
      {
        "input": ["StatefulPartitionedCall/model/p_re_lu_8/Relu"],
        "attr": {
          "padding": { "s": "VkFMSUQ=" },
          "strides": { "list": { "i": ["1", "2", "2", "1"] } },
          "data_format": { "s": "TkhXQw==" },
          "T": { "type": "DT_FLOAT" },
          "ksize": { "list": { "i": ["1", "2", "2", "1"] } }
        },
        "name": "StatefulPartitionedCall/model/max_pooling2d_2/MaxPool",
        "op": "MaxPool"
      },
      {
        "input": [
          "StatefulPartitionedCall/model/p_re_lu_8/Relu",
          "StatefulPartitionedCall/model/depthwise_conv2d_8/depthwise/ReadVariableOp"
        ],
        "attr": {
          "padding": { "s": "U0FNRQ==" },
          "dilations": { "list": { "i": ["1", "1", "1", "1"] } },
          "data_format": { "s": "TkhXQw==" },
          "T": { "type": "DT_FLOAT" },
          "strides": { "list": { "i": ["1", "2", "2", "1"] } }
        },
        "name": "StatefulPartitionedCall/model/depthwise_conv2d_8/depthwise",
        "op": "DepthwiseConv2dNative"
      },
      {
        "input": [
          "StatefulPartitionedCall/model/max_pooling2d_2/MaxPool",
          "StatefulPartitionedCall/model/channel_padding_2/Pad/paddings"
        ],
        "attr": {
          "Tpaddings": { "type": "DT_INT32" },
          "T": { "type": "DT_FLOAT" }
        },
        "name": "StatefulPartitionedCall/model/channel_padding_2/Pad",
        "op": "Pad"
      },
      {
        "device": "/device:CPU:0",
        "input": [
          "StatefulPartitionedCall/model/depthwise_conv2d_8/depthwise",
          "StatefulPartitionedCall/model/conv2d_9/Conv2D_weights",
          "StatefulPartitionedCall/model/conv2d_9/Conv2D_bn_offset"
        ],
        "attr": {
          "explicit_paddings": { "list": {} },
          "epsilon": { "f": 0.0 },
          "data_format": { "s": "TkhXQw==" },
          "use_cudnn_on_gpu": { "b": true },
          "padding": { "s": "VkFMSUQ=" },
          "strides": { "list": { "i": ["1", "1", "1", "1"] } },
          "num_args": { "i": "1" },
          "T": { "type": "DT_FLOAT" },
          "dilations": { "list": { "i": ["1", "1", "1", "1"] } },
          "fused_ops": { "list": { "s": ["Qmlhc0FkZA=="] } }
        },
        "name": "StatefulPartitionedCall/model/batch_normalization_v1_9/FusedBatchNormV3",
        "op": "_FusedConv2D"
      },
      {
        "input": [
          "StatefulPartitionedCall/model/batch_normalization_v1_9/FusedBatchNormV3",
          "StatefulPartitionedCall/model/channel_padding_2/Pad"
        ],
        "attr": { "T": { "type": "DT_FLOAT" } },
        "name": "StatefulPartitionedCall/model/add_8/add",
        "op": "AddV2"
      },
      {
        "input": [
          "StatefulPartitionedCall/model/add_8/add",
          "StatefulPartitionedCall/model/p_re_lu_9/Neg"
        ],
        "name": "StatefulPartitionedCall/model/p_re_lu_9/Relu",
        "op": "Prelu"
      },
      {
        "input": [
          "StatefulPartitionedCall/model/p_re_lu_9/Relu",
          "StatefulPartitionedCall/model/depthwise_conv2d_9/depthwise/ReadVariableOp"
        ],
        "attr": {
          "dilations": { "list": { "i": ["1", "1", "1", "1"] } },
          "padding": { "s": "U0FNRQ==" },
          "strides": { "list": { "i": ["1", "1", "1", "1"] } },
          "T": { "type": "DT_FLOAT" },
          "data_format": { "s": "TkhXQw==" }
        },
        "name": "StatefulPartitionedCall/model/depthwise_conv2d_9/depthwise",
        "op": "DepthwiseConv2dNative"
      },
      {
        "device": "/device:CPU:0",
        "input": [
          "StatefulPartitionedCall/model/depthwise_conv2d_9/depthwise",
          "StatefulPartitionedCall/model/conv2d_10/Conv2D_weights",
          "StatefulPartitionedCall/model/conv2d_10/Conv2D_bn_offset"
        ],
        "attr": {
          "explicit_paddings": { "list": {} },
          "epsilon": { "f": 0.0 },
          "data_format": { "s": "TkhXQw==" },
          "use_cudnn_on_gpu": { "b": true },
          "padding": { "s": "VkFMSUQ=" },
          "strides": { "list": { "i": ["1", "1", "1", "1"] } },
          "num_args": { "i": "1" },
          "T": { "type": "DT_FLOAT" },
          "dilations": { "list": { "i": ["1", "1", "1", "1"] } },
          "fused_ops": { "list": { "s": ["Qmlhc0FkZA=="] } }
        },
        "name": "StatefulPartitionedCall/model/batch_normalization_v1_10/FusedBatchNormV3",
        "op": "_FusedConv2D"
      },
      {
        "input": [
          "StatefulPartitionedCall/model/batch_normalization_v1_10/FusedBatchNormV3",
          "StatefulPartitionedCall/model/p_re_lu_9/Relu"
        ],
        "attr": { "T": { "type": "DT_FLOAT" } },
        "name": "StatefulPartitionedCall/model/add_9/add",
        "op": "AddV2"
      },
      {
        "input": [
          "StatefulPartitionedCall/model/add_9/add",
          "StatefulPartitionedCall/model/p_re_lu_10/Neg"
        ],
        "name": "StatefulPartitionedCall/model/p_re_lu_10/Relu",
        "op": "Prelu"
      },
      {
        "input": [
          "StatefulPartitionedCall/model/p_re_lu_10/Relu",
          "StatefulPartitionedCall/model/depthwise_conv2d_10/depthwise/ReadVariableOp"
        ],
        "attr": {
          "dilations": { "list": { "i": ["1", "1", "1", "1"] } },
          "strides": { "list": { "i": ["1", "1", "1", "1"] } },
          "padding": { "s": "U0FNRQ==" },
          "data_format": { "s": "TkhXQw==" },
          "T": { "type": "DT_FLOAT" }
        },
        "name": "StatefulPartitionedCall/model/depthwise_conv2d_10/depthwise",
        "op": "DepthwiseConv2dNative"
      },
      {
        "device": "/device:CPU:0",
        "input": [
          "StatefulPartitionedCall/model/depthwise_conv2d_10/depthwise",
          "StatefulPartitionedCall/model/conv2d_11/Conv2D_weights",
          "StatefulPartitionedCall/model/conv2d_11/Conv2D_bn_offset"
        ],
        "attr": {
          "explicit_paddings": { "list": {} },
          "epsilon": { "f": 0.0 },
          "data_format": { "s": "TkhXQw==" },
          "use_cudnn_on_gpu": { "b": true },
          "padding": { "s": "VkFMSUQ=" },
          "strides": { "list": { "i": ["1", "1", "1", "1"] } },
          "num_args": { "i": "1" },
          "T": { "type": "DT_FLOAT" },
          "dilations": { "list": { "i": ["1", "1", "1", "1"] } },
          "fused_ops": { "list": { "s": ["Qmlhc0FkZA=="] } }
        },
        "name": "StatefulPartitionedCall/model/batch_normalization_v1_11/FusedBatchNormV3",
        "op": "_FusedConv2D"
      },
      {
        "input": [
          "StatefulPartitionedCall/model/batch_normalization_v1_11/FusedBatchNormV3",
          "StatefulPartitionedCall/model/p_re_lu_10/Relu"
        ],
        "attr": { "T": { "type": "DT_FLOAT" } },
        "name": "StatefulPartitionedCall/model/add_10/add",
        "op": "AddV2"
      },
      {
        "input": [
          "StatefulPartitionedCall/model/add_10/add",
          "StatefulPartitionedCall/model/p_re_lu_11/Neg"
        ],
        "name": "StatefulPartitionedCall/model/p_re_lu_11/Relu",
        "op": "Prelu"
      },
      {
        "input": ["StatefulPartitionedCall/model/p_re_lu_11/Relu"],
        "attr": {
          "padding": { "s": "VkFMSUQ=" },
          "strides": { "list": { "i": ["1", "2", "2", "1"] } },
          "data_format": { "s": "TkhXQw==" },
          "ksize": { "list": { "i": ["1", "2", "2", "1"] } },
          "T": { "type": "DT_FLOAT" }
        },
        "name": "StatefulPartitionedCall/model/max_pooling2d_3/MaxPool",
        "op": "MaxPool"
      },
      {
        "input": [
          "StatefulPartitionedCall/model/p_re_lu_11/Relu",
          "StatefulPartitionedCall/model/depthwise_conv2d_11/depthwise/ReadVariableOp"
        ],
        "attr": {
          "padding": { "s": "U0FNRQ==" },
          "dilations": { "list": { "i": ["1", "1", "1", "1"] } },
          "strides": { "list": { "i": ["1", "2", "2", "1"] } },
          "T": { "type": "DT_FLOAT" },
          "data_format": { "s": "TkhXQw==" }
        },
        "name": "StatefulPartitionedCall/model/depthwise_conv2d_11/depthwise",
        "op": "DepthwiseConv2dNative"
      },
      {
        "device": "/device:CPU:0",
        "input": [
          "StatefulPartitionedCall/model/depthwise_conv2d_11/depthwise",
          "StatefulPartitionedCall/model/conv2d_12/Conv2D_weights",
          "StatefulPartitionedCall/model/conv2d_12/Conv2D_bn_offset"
        ],
        "attr": {
          "explicit_paddings": { "list": {} },
          "epsilon": { "f": 0.0 },
          "data_format": { "s": "TkhXQw==" },
          "use_cudnn_on_gpu": { "b": true },
          "padding": { "s": "VkFMSUQ=" },
          "strides": { "list": { "i": ["1", "1", "1", "1"] } },
          "num_args": { "i": "1" },
          "T": { "type": "DT_FLOAT" },
          "dilations": { "list": { "i": ["1", "1", "1", "1"] } },
          "fused_ops": { "list": { "s": ["Qmlhc0FkZA=="] } }
        },
        "name": "StatefulPartitionedCall/model/batch_normalization_v1_12/FusedBatchNormV3",
        "op": "_FusedConv2D"
      },
      {
        "input": [
          "StatefulPartitionedCall/model/batch_normalization_v1_12/FusedBatchNormV3",
          "StatefulPartitionedCall/model/max_pooling2d_3/MaxPool"
        ],
        "attr": { "T": { "type": "DT_FLOAT" } },
        "name": "StatefulPartitionedCall/model/add_11/add",
        "op": "AddV2"
      },
      {
        "input": [
          "StatefulPartitionedCall/model/add_11/add",
          "StatefulPartitionedCall/model/p_re_lu_12/Neg"
        ],
        "name": "StatefulPartitionedCall/model/p_re_lu_12/Relu",
        "op": "Prelu"
      },
      {
        "input": [
          "StatefulPartitionedCall/model/p_re_lu_12/Relu",
          "StatefulPartitionedCall/model/depthwise_conv2d_12/depthwise/ReadVariableOp"
        ],
        "attr": {
          "padding": { "s": "U0FNRQ==" },
          "strides": { "list": { "i": ["1", "1", "1", "1"] } },
          "dilations": { "list": { "i": ["1", "1", "1", "1"] } },
          "T": { "type": "DT_FLOAT" },
          "data_format": { "s": "TkhXQw==" }
        },
        "name": "StatefulPartitionedCall/model/depthwise_conv2d_12/depthwise",
        "op": "DepthwiseConv2dNative"
      },
      {
        "device": "/device:CPU:0",
        "input": [
          "StatefulPartitionedCall/model/depthwise_conv2d_12/depthwise",
          "StatefulPartitionedCall/model/conv2d_13/Conv2D_weights",
          "StatefulPartitionedCall/model/conv2d_13/Conv2D_bn_offset"
        ],
        "attr": {
          "explicit_paddings": { "list": {} },
          "epsilon": { "f": 0.0 },
          "data_format": { "s": "TkhXQw==" },
          "use_cudnn_on_gpu": { "b": true },
          "padding": { "s": "VkFMSUQ=" },
          "strides": { "list": { "i": ["1", "1", "1", "1"] } },
          "num_args": { "i": "1" },
          "T": { "type": "DT_FLOAT" },
          "dilations": { "list": { "i": ["1", "1", "1", "1"] } },
          "fused_ops": { "list": { "s": ["Qmlhc0FkZA=="] } }
        },
        "name": "StatefulPartitionedCall/model/batch_normalization_v1_13/FusedBatchNormV3",
        "op": "_FusedConv2D"
      },
      {
        "input": [
          "StatefulPartitionedCall/model/batch_normalization_v1_13/FusedBatchNormV3",
          "StatefulPartitionedCall/model/p_re_lu_12/Relu"
        ],
        "attr": { "T": { "type": "DT_FLOAT" } },
        "name": "StatefulPartitionedCall/model/add_12/add",
        "op": "AddV2"
      },
      {
        "input": [
          "StatefulPartitionedCall/model/add_12/add",
          "StatefulPartitionedCall/model/p_re_lu_13/Neg"
        ],
        "name": "StatefulPartitionedCall/model/p_re_lu_13/Relu",
        "op": "Prelu"
      },
      {
        "input": [
          "StatefulPartitionedCall/model/p_re_lu_13/Relu",
          "StatefulPartitionedCall/model/depthwise_conv2d_13/depthwise/ReadVariableOp"
        ],
        "attr": {
          "dilations": { "list": { "i": ["1", "1", "1", "1"] } },
          "strides": { "list": { "i": ["1", "1", "1", "1"] } },
          "padding": { "s": "U0FNRQ==" },
          "data_format": { "s": "TkhXQw==" },
          "T": { "type": "DT_FLOAT" }
        },
        "name": "StatefulPartitionedCall/model/depthwise_conv2d_13/depthwise",
        "op": "DepthwiseConv2dNative"
      },
      {
        "device": "/device:CPU:0",
        "input": [
          "StatefulPartitionedCall/model/depthwise_conv2d_13/depthwise",
          "StatefulPartitionedCall/model/conv2d_14/Conv2D_weights",
          "StatefulPartitionedCall/model/conv2d_14/Conv2D_bn_offset"
        ],
        "attr": {
          "explicit_paddings": { "list": {} },
          "epsilon": { "f": 0.0 },
          "data_format": { "s": "TkhXQw==" },
          "use_cudnn_on_gpu": { "b": true },
          "padding": { "s": "VkFMSUQ=" },
          "strides": { "list": { "i": ["1", "1", "1", "1"] } },
          "num_args": { "i": "1" },
          "T": { "type": "DT_FLOAT" },
          "dilations": { "list": { "i": ["1", "1", "1", "1"] } },
          "fused_ops": { "list": { "s": ["Qmlhc0FkZA=="] } }
        },
        "name": "StatefulPartitionedCall/model/batch_normalization_v1_14/FusedBatchNormV3",
        "op": "_FusedConv2D"
      },
      {
        "input": [
          "StatefulPartitionedCall/model/batch_normalization_v1_14/FusedBatchNormV3",
          "StatefulPartitionedCall/model/p_re_lu_13/Relu"
        ],
        "attr": { "T": { "type": "DT_FLOAT" } },
        "name": "StatefulPartitionedCall/model/add_13/add",
        "op": "AddV2"
      },
      {
        "input": [
          "StatefulPartitionedCall/model/add_13/add",
          "StatefulPartitionedCall/model/p_re_lu_14/Neg"
        ],
        "name": "StatefulPartitionedCall/model/p_re_lu_14/Relu",
        "op": "Prelu"
      },
      {
        "input": ["StatefulPartitionedCall/model/p_re_lu_14/Relu"],
        "attr": {
          "padding": { "s": "VkFMSUQ=" },
          "strides": { "list": { "i": ["1", "2", "2", "1"] } },
          "ksize": { "list": { "i": ["1", "2", "2", "1"] } },
          "T": { "type": "DT_FLOAT" },
          "data_format": { "s": "TkhXQw==" }
        },
        "name": "StatefulPartitionedCall/model/max_pooling2d_4/MaxPool",
        "op": "MaxPool"
      },
      {
        "input": [
          "StatefulPartitionedCall/model/p_re_lu_14/Relu",
          "StatefulPartitionedCall/model/depthwise_conv2d_14/depthwise/ReadVariableOp"
        ],
        "attr": {
          "padding": { "s": "U0FNRQ==" },
          "strides": { "list": { "i": ["1", "2", "2", "1"] } },
          "dilations": { "list": { "i": ["1", "1", "1", "1"] } },
          "data_format": { "s": "TkhXQw==" },
          "T": { "type": "DT_FLOAT" }
        },
        "name": "StatefulPartitionedCall/model/depthwise_conv2d_14/depthwise",
        "op": "DepthwiseConv2dNative"
      },
      {
        "device": "/device:CPU:0",
        "input": [
          "StatefulPartitionedCall/model/depthwise_conv2d_14/depthwise",
          "StatefulPartitionedCall/model/conv2d_15/Conv2D_weights",
          "StatefulPartitionedCall/model/conv2d_15/Conv2D_bn_offset"
        ],
        "attr": {
          "explicit_paddings": { "list": {} },
          "epsilon": { "f": 0.0 },
          "data_format": { "s": "TkhXQw==" },
          "use_cudnn_on_gpu": { "b": true },
          "padding": { "s": "VkFMSUQ=" },
          "strides": { "list": { "i": ["1", "1", "1", "1"] } },
          "num_args": { "i": "1" },
          "T": { "type": "DT_FLOAT" },
          "dilations": { "list": { "i": ["1", "1", "1", "1"] } },
          "fused_ops": { "list": { "s": ["Qmlhc0FkZA=="] } }
        },
        "name": "StatefulPartitionedCall/model/batch_normalization_v1_15/FusedBatchNormV3",
        "op": "_FusedConv2D"
      },
      {
        "input": [
          "StatefulPartitionedCall/model/batch_normalization_v1_15/FusedBatchNormV3",
          "StatefulPartitionedCall/model/max_pooling2d_4/MaxPool"
        ],
        "attr": { "T": { "type": "DT_FLOAT" } },
        "name": "StatefulPartitionedCall/model/add_14/add",
        "op": "AddV2"
      },
      {
        "input": [
          "StatefulPartitionedCall/model/add_14/add",
          "StatefulPartitionedCall/model/p_re_lu_15/Neg"
        ],
        "name": "StatefulPartitionedCall/model/p_re_lu_15/Relu",
        "op": "Prelu"
      },
      {
        "input": [
          "StatefulPartitionedCall/model/p_re_lu_15/Relu",
          "StatefulPartitionedCall/model/depthwise_conv2d_15/depthwise/ReadVariableOp"
        ],
        "attr": {
          "padding": { "s": "U0FNRQ==" },
          "dilations": { "list": { "i": ["1", "1", "1", "1"] } },
          "data_format": { "s": "TkhXQw==" },
          "T": { "type": "DT_FLOAT" },
          "strides": { "list": { "i": ["1", "1", "1", "1"] } }
        },
        "name": "StatefulPartitionedCall/model/depthwise_conv2d_15/depthwise",
        "op": "DepthwiseConv2dNative"
      },
      {
        "device": "/device:CPU:0",
        "input": [
          "StatefulPartitionedCall/model/depthwise_conv2d_15/depthwise",
          "StatefulPartitionedCall/model/conv2d_16/Conv2D_weights",
          "StatefulPartitionedCall/model/conv2d_16/Conv2D_bn_offset"
        ],
        "attr": {
          "explicit_paddings": { "list": {} },
          "epsilon": { "f": 0.0 },
          "data_format": { "s": "TkhXQw==" },
          "use_cudnn_on_gpu": { "b": true },
          "padding": { "s": "VkFMSUQ=" },
          "strides": { "list": { "i": ["1", "1", "1", "1"] } },
          "num_args": { "i": "1" },
          "T": { "type": "DT_FLOAT" },
          "dilations": { "list": { "i": ["1", "1", "1", "1"] } },
          "fused_ops": { "list": { "s": ["Qmlhc0FkZA=="] } }
        },
        "name": "StatefulPartitionedCall/model/batch_normalization_v1_16/FusedBatchNormV3",
        "op": "_FusedConv2D"
      },
      {
        "input": [
          "StatefulPartitionedCall/model/batch_normalization_v1_16/FusedBatchNormV3",
          "StatefulPartitionedCall/model/p_re_lu_15/Relu"
        ],
        "attr": { "T": { "type": "DT_FLOAT" } },
        "name": "StatefulPartitionedCall/model/add_15/add",
        "op": "AddV2"
      },
      {
        "input": [
          "StatefulPartitionedCall/model/add_15/add",
          "StatefulPartitionedCall/model/p_re_lu_16/Neg"
        ],
        "name": "StatefulPartitionedCall/model/p_re_lu_16/Relu",
        "op": "Prelu"
      },
      {
        "input": [
          "StatefulPartitionedCall/model/p_re_lu_16/Relu",
          "StatefulPartitionedCall/model/depthwise_conv2d_16/depthwise/ReadVariableOp"
        ],
        "attr": {
          "padding": { "s": "U0FNRQ==" },
          "strides": { "list": { "i": ["1", "1", "1", "1"] } },
          "dilations": { "list": { "i": ["1", "1", "1", "1"] } },
          "data_format": { "s": "TkhXQw==" },
          "T": { "type": "DT_FLOAT" }
        },
        "name": "StatefulPartitionedCall/model/depthwise_conv2d_16/depthwise",
        "op": "DepthwiseConv2dNative"
      },
      {
        "device": "/device:CPU:0",
        "input": [
          "StatefulPartitionedCall/model/depthwise_conv2d_16/depthwise",
          "StatefulPartitionedCall/model/conv2d_17/Conv2D_weights",
          "StatefulPartitionedCall/model/conv2d_17/Conv2D_bn_offset"
        ],
        "attr": {
          "explicit_paddings": { "list": {} },
          "epsilon": { "f": 0.0 },
          "data_format": { "s": "TkhXQw==" },
          "use_cudnn_on_gpu": { "b": true },
          "padding": { "s": "VkFMSUQ=" },
          "strides": { "list": { "i": ["1", "1", "1", "1"] } },
          "num_args": { "i": "1" },
          "T": { "type": "DT_FLOAT" },
          "dilations": { "list": { "i": ["1", "1", "1", "1"] } },
          "fused_ops": { "list": { "s": ["Qmlhc0FkZA=="] } }
        },
        "name": "StatefulPartitionedCall/model/batch_normalization_v1_17/FusedBatchNormV3",
        "op": "_FusedConv2D"
      },
      {
        "input": [
          "StatefulPartitionedCall/model/batch_normalization_v1_17/FusedBatchNormV3",
          "StatefulPartitionedCall/model/p_re_lu_16/Relu"
        ],
        "attr": { "T": { "type": "DT_FLOAT" } },
        "name": "StatefulPartitionedCall/model/add_16/add",
        "op": "AddV2"
      },
      {
        "input": [
          "StatefulPartitionedCall/model/add_16/add",
          "StatefulPartitionedCall/model/p_re_lu_17/Neg"
        ],
        "name": "StatefulPartitionedCall/model/p_re_lu_17/Relu",
        "op": "Prelu"
      },
      {
        "device": "/device:CPU:0",
        "input": [
          "StatefulPartitionedCall/model/p_re_lu_17/Relu",
          "StatefulPartitionedCall/model/conv2d_18/Conv2D_weights",
          "StatefulPartitionedCall/model/conv2d_18/Conv2D_bn_offset",
          "StatefulPartitionedCall/model/p_re_lu_18/Neg"
        ],
        "attr": {
          "explicit_paddings": { "list": {} },
          "epsilon": { "f": 0.0 },
          "data_format": { "s": "TkhXQw==" },
          "use_cudnn_on_gpu": { "b": true },
          "padding": { "s": "VkFMSUQ=" },
          "strides": { "list": { "i": ["1", "1", "1", "1"] } },
          "num_args": { "i": "2" },
          "T": { "type": "DT_FLOAT" },
          "dilations": { "list": { "i": ["1", "1", "1", "1"] } },
          "fused_ops": { "list": { "s": ["Qmlhc0FkZA==", "UHJlbHU="] } }
        },
        "name": "StatefulPartitionedCall/model/batch_normalization_v1_18/FusedBatchNormV3",
        "op": "_FusedConv2D"
      },
      {
        "input": [
          "StatefulPartitionedCall/model/batch_normalization_v1_18/FusedBatchNormV3",
          "StatefulPartitionedCall/model/depthwise_conv2d_17/depthwise/ReadVariableOp"
        ],
        "attr": {
          "dilations": { "list": { "i": ["1", "1", "1", "1"] } },
          "strides": { "list": { "i": ["1", "1", "1", "1"] } },
          "padding": { "s": "U0FNRQ==" },
          "T": { "type": "DT_FLOAT" },
          "data_format": { "s": "TkhXQw==" }
        },
        "name": "StatefulPartitionedCall/model/depthwise_conv2d_17/depthwise",
        "op": "DepthwiseConv2dNative"
      },
      {
        "device": "/device:CPU:0",
        "input": [
          "StatefulPartitionedCall/model/depthwise_conv2d_17/depthwise",
          "StatefulPartitionedCall/model/conv2d_19/Conv2D_weights",
          "StatefulPartitionedCall/model/conv2d_19/Conv2D_bn_offset"
        ],
        "attr": {
          "explicit_paddings": { "list": {} },
          "epsilon": { "f": 0.0 },
          "data_format": { "s": "TkhXQw==" },
          "use_cudnn_on_gpu": { "b": true },
          "padding": { "s": "VkFMSUQ=" },
          "strides": { "list": { "i": ["1", "1", "1", "1"] } },
          "num_args": { "i": "1" },
          "T": { "type": "DT_FLOAT" },
          "dilations": { "list": { "i": ["1", "1", "1", "1"] } },
          "fused_ops": { "list": { "s": ["Qmlhc0FkZA=="] } }
        },
        "name": "StatefulPartitionedCall/model/batch_normalization_v1_19/FusedBatchNormV3",
        "op": "_FusedConv2D"
      },
      {
        "input": [
          "StatefulPartitionedCall/model/batch_normalization_v1_19/FusedBatchNormV3",
          "StatefulPartitionedCall/model/batch_normalization_v1_18/FusedBatchNormV3"
        ],
        "attr": { "T": { "type": "DT_FLOAT" } },
        "name": "StatefulPartitionedCall/model/add_17/add",
        "op": "AddV2"
      },
      {
        "input": [
          "StatefulPartitionedCall/model/add_17/add",
          "StatefulPartitionedCall/model/p_re_lu_19/Neg"
        ],
        "name": "StatefulPartitionedCall/model/p_re_lu_19/Relu",
        "op": "Prelu"
      },
      {
        "device": "/device:CPU:0",
        "input": [
          "StatefulPartitionedCall/model/p_re_lu_19/Relu",
          "StatefulPartitionedCall/model/conv_face_flag/Conv2D/ReadVariableOp",
          "StatefulPartitionedCall/model/conv_face_flag/BiasAdd/ReadVariableOp"
        ],
        "attr": {
          "explicit_paddings": { "list": {} },
          "epsilon": { "f": 0.0 },
          "data_format": { "s": "TkhXQw==" },
          "use_cudnn_on_gpu": { "b": true },
          "padding": { "s": "VkFMSUQ=" },
          "strides": { "list": { "i": ["1", "2", "2", "1"] } },
          "num_args": { "i": "1" },
          "T": { "type": "DT_FLOAT" },
          "dilations": { "list": { "i": ["1", "1", "1", "1"] } },
          "fused_ops": { "list": { "s": ["Qmlhc0FkZA=="] } }
        },
        "name": "StatefulPartitionedCall/model/conv_face_flag/BiasAdd",
        "op": "_FusedConv2D"
      },
      {
        "device": "/device:CPU:0",
        "input": [
          "StatefulPartitionedCall/model/p_re_lu_19/Relu",
          "StatefulPartitionedCall/model/conv_mesh/Conv2D/ReadVariableOp",
          "StatefulPartitionedCall/model/conv_mesh/BiasAdd/ReadVariableOp"
        ],
        "attr": {
          "explicit_paddings": { "list": {} },
          "epsilon": { "f": 0.0 },
          "data_format": { "s": "TkhXQw==" },
          "use_cudnn_on_gpu": { "b": true },
          "padding": { "s": "VkFMSUQ=" },
          "strides": { "list": { "i": ["1", "2", "2", "1"] } },
          "num_args": { "i": "1" },
          "T": { "type": "DT_FLOAT" },
          "dilations": { "list": { "i": ["1", "1", "1", "1"] } },
          "fused_ops": { "list": { "s": ["Qmlhc0FkZA=="] } }
        },
        "name": "StatefulPartitionedCall/model/conv_mesh/BiasAdd",
        "op": "_FusedConv2D"
      },
      {
        "input": ["StatefulPartitionedCall/model/conv_face_flag/BiasAdd"],
        "attr": { "T": { "type": "DT_FLOAT" } },
        "name": "StatefulPartitionedCall/model/activation/Sigmoid",
        "op": "Sigmoid"
      },
      {
        "input": ["StatefulPartitionedCall/model/conv_mesh/BiasAdd"],
        "attr": {
          "out_type": { "type": "DT_INT32" },
          "T": { "type": "DT_FLOAT" }
        },
        "name": "StatefulPartitionedCall/model/output_mesh/Shape",
        "op": "Shape"
      },
      {
        "input": ["StatefulPartitionedCall/model/activation/Sigmoid"],
        "attr": {
          "out_type": { "type": "DT_INT32" },
          "T": { "type": "DT_FLOAT" }
        },
        "name": "StatefulPartitionedCall/model/output_faceflag/Shape",
        "op": "Shape"
      },
      {
        "input": [
          "StatefulPartitionedCall/model/output_mesh/Shape",
          "StatefulPartitionedCall/model/output_faceflag/strided_slice/stack",
          "StatefulPartitionedCall/model/output_faceflag/strided_slice/stack_1",
          "StatefulPartitionedCall/model/output_faceflag/strided_slice/stack_1"
        ],
        "attr": {
          "new_axis_mask": { "i": "0" },
          "Index": { "type": "DT_INT32" },
          "begin_mask": { "i": "0" },
          "ellipsis_mask": { "i": "0" },
          "end_mask": { "i": "0" },
          "T": { "type": "DT_INT32" },
          "shrink_axis_mask": { "i": "1" }
        },
        "name": "StatefulPartitionedCall/model/output_mesh/strided_slice",
        "op": "StridedSlice"
      },
      {
        "input": [
          "StatefulPartitionedCall/model/output_faceflag/Shape",
          "StatefulPartitionedCall/model/output_faceflag/strided_slice/stack",
          "StatefulPartitionedCall/model/output_faceflag/strided_slice/stack_1",
          "StatefulPartitionedCall/model/output_faceflag/strided_slice/stack_1"
        ],
        "attr": {
          "new_axis_mask": { "i": "0" },
          "Index": { "type": "DT_INT32" },
          "begin_mask": { "i": "0" },
          "ellipsis_mask": { "i": "0" },
          "end_mask": { "i": "0" },
          "T": { "type": "DT_INT32" },
          "shrink_axis_mask": { "i": "1" }
        },
        "name": "StatefulPartitionedCall/model/output_faceflag/strided_slice",
        "op": "StridedSlice"
      },
      {
        "input": [
          "StatefulPartitionedCall/model/output_mesh/strided_slice",
          "StatefulPartitionedCall/model/output_faceflag/Reshape/shape/1"
        ],
        "attr": {
          "N": { "i": "2" },
          "T": { "type": "DT_INT32" },
          "axis": { "i": "0" }
        },
        "name": "StatefulPartitionedCall/model/output_mesh/Reshape/shape",
        "op": "Pack"
      },
      {
        "input": [
          "StatefulPartitionedCall/model/output_faceflag/strided_slice",
          "StatefulPartitionedCall/model/output_faceflag/Reshape/shape/1"
        ],
        "attr": {
          "N": { "i": "2" },
          "T": { "type": "DT_INT32" },
          "axis": { "i": "0" }
        },
        "name": "StatefulPartitionedCall/model/output_faceflag/Reshape/shape",
        "op": "Pack"
      },
      {
        "input": [
          "StatefulPartitionedCall/model/conv_mesh/BiasAdd",
          "StatefulPartitionedCall/model/output_mesh/Reshape/shape"
        ],
        "attr": {
          "T": { "type": "DT_FLOAT" },
          "Tshape": { "type": "DT_INT32" }
        },
        "name": "StatefulPartitionedCall/model/output_mesh/Reshape",
        "op": "Reshape"
      },
      {
        "input": [
          "StatefulPartitionedCall/model/activation/Sigmoid",
          "StatefulPartitionedCall/model/output_faceflag/Reshape/shape"
        ],
        "attr": {
          "T": { "type": "DT_FLOAT" },
          "Tshape": { "type": "DT_INT32" }
        },
        "name": "StatefulPartitionedCall/model/output_faceflag/Reshape",
        "op": "Reshape"
      },
      {
        "input": [
          "StatefulPartitionedCall/model/output_mesh/Reshape",
          "^Func/StatefulPartitionedCall/output_control_node/_147"
        ],
        "attr": { "T": { "type": "DT_FLOAT" } },
        "name": "Identity_1",
        "op": "Identity"
      },
      {
        "input": [
          "StatefulPartitionedCall/model/output_faceflag/Reshape",
          "^Func/StatefulPartitionedCall/output_control_node/_147"
        ],
        "attr": { "T": { "type": "DT_FLOAT" } },
        "name": "Identity",
        "op": "Identity"
      }
    ],
    "versions": { "minConsumer": 12, "producer": 134 }
  },
  "generatedBy": "1.15.0",
  "weightsManifest": [
    {
      "paths": ["group1-shard1of1.bin"],
      "weights": [
        {
          "dtype": "float32",
          "shape": [3, 3, 3, 16],
          "name": "StatefulPartitionedCall/model/conv2d/Conv2D_weights"
        },
        {
          "dtype": "float32",
          "shape": [16],
          "name": "StatefulPartitionedCall/model/conv2d/Conv2D_bn_offset"
        },
        {
          "dtype": "float32",
          "shape": [1, 1, 16, 16],
          "name": "StatefulPartitionedCall/model/conv2d_1/Conv2D_weights"
        },
        {
          "dtype": "float32",
          "shape": [16],
          "name": "StatefulPartitionedCall/model/conv2d_1/Conv2D_bn_offset"
        },
        {
          "dtype": "float32",
          "shape": [1, 1, 16, 16],
          "name": "StatefulPartitionedCall/model/conv2d_2/Conv2D_weights"
        },
        {
          "dtype": "float32",
          "shape": [16],
          "name": "StatefulPartitionedCall/model/conv2d_2/Conv2D_bn_offset"
        },
        {
          "dtype": "float32",
          "shape": [1, 1, 16, 32],
          "name": "StatefulPartitionedCall/model/conv2d_3/Conv2D_weights"
        },
        {
          "dtype": "float32",
          "shape": [32],
          "name": "StatefulPartitionedCall/model/conv2d_3/Conv2D_bn_offset"
        },
        {
          "dtype": "float32",
          "shape": [1, 1, 32, 32],
          "name": "StatefulPartitionedCall/model/conv2d_4/Conv2D_weights"
        },
        {
          "dtype": "float32",
          "shape": [32],
          "name": "StatefulPartitionedCall/model/conv2d_4/Conv2D_bn_offset"
        },
        {
          "dtype": "float32",
          "shape": [1, 1, 32, 32],
          "name": "StatefulPartitionedCall/model/conv2d_5/Conv2D_weights"
        },
        {
          "dtype": "float32",
          "shape": [32],
          "name": "StatefulPartitionedCall/model/conv2d_5/Conv2D_bn_offset"
        },
        {
          "dtype": "float32",
          "shape": [1, 1, 32, 64],
          "name": "StatefulPartitionedCall/model/conv2d_6/Conv2D_weights"
        },
        {
          "dtype": "float32",
          "shape": [64],
          "name": "StatefulPartitionedCall/model/conv2d_6/Conv2D_bn_offset"
        },
        {
          "dtype": "float32",
          "shape": [1, 1, 64, 64],
          "name": "StatefulPartitionedCall/model/conv2d_7/Conv2D_weights"
        },
        {
          "dtype": "float32",
          "shape": [64],
          "name": "StatefulPartitionedCall/model/conv2d_7/Conv2D_bn_offset"
        },
        {
          "dtype": "float32",
          "shape": [1, 1, 64, 64],
          "name": "StatefulPartitionedCall/model/conv2d_8/Conv2D_weights"
        },
        {
          "dtype": "float32",
          "shape": [64],
          "name": "StatefulPartitionedCall/model/conv2d_8/Conv2D_bn_offset"
        },
        {
          "dtype": "float32",
          "shape": [1, 1, 64, 128],
          "name": "StatefulPartitionedCall/model/conv2d_9/Conv2D_weights"
        },
        {
          "dtype": "float32",
          "shape": [128],
          "name": "StatefulPartitionedCall/model/conv2d_9/Conv2D_bn_offset"
        },
        {
          "dtype": "float32",
          "shape": [1, 1, 128, 128],
          "name": "StatefulPartitionedCall/model/conv2d_10/Conv2D_weights"
        },
        {
          "dtype": "float32",
          "shape": [128],
          "name": "StatefulPartitionedCall/model/conv2d_10/Conv2D_bn_offset"
        },
        {
          "dtype": "float32",
          "shape": [1, 1, 128, 128],
          "name": "StatefulPartitionedCall/model/conv2d_11/Conv2D_weights"
        },
        {
          "dtype": "float32",
          "shape": [128],
          "name": "StatefulPartitionedCall/model/conv2d_11/Conv2D_bn_offset"
        },
        {
          "dtype": "float32",
          "shape": [1, 1, 128, 128],
          "name": "StatefulPartitionedCall/model/conv2d_12/Conv2D_weights"
        },
        {
          "dtype": "float32",
          "shape": [128],
          "name": "StatefulPartitionedCall/model/conv2d_12/Conv2D_bn_offset"
        },
        {
          "dtype": "float32",
          "shape": [1, 1, 128, 128],
          "name": "StatefulPartitionedCall/model/conv2d_13/Conv2D_weights"
        },
        {
          "dtype": "float32",
          "shape": [128],
          "name": "StatefulPartitionedCall/model/conv2d_13/Conv2D_bn_offset"
        },
        {
          "dtype": "float32",
          "shape": [1, 1, 128, 128],
          "name": "StatefulPartitionedCall/model/conv2d_14/Conv2D_weights"
        },
        {
          "dtype": "float32",
          "shape": [128],
          "name": "StatefulPartitionedCall/model/conv2d_14/Conv2D_bn_offset"
        },
        {
          "dtype": "float32",
          "shape": [1, 1, 128, 128],
          "name": "StatefulPartitionedCall/model/conv2d_15/Conv2D_weights"
        },
        {
          "dtype": "float32",
          "shape": [128],
          "name": "StatefulPartitionedCall/model/conv2d_15/Conv2D_bn_offset"
        },
        {
          "dtype": "float32",
          "shape": [1, 1, 128, 128],
          "name": "StatefulPartitionedCall/model/conv2d_16/Conv2D_weights"
        },
        {
          "dtype": "float32",
          "shape": [128],
          "name": "StatefulPartitionedCall/model/conv2d_16/Conv2D_bn_offset"
        },
        {
          "dtype": "float32",
          "shape": [1, 1, 128, 128],
          "name": "StatefulPartitionedCall/model/conv2d_17/Conv2D_weights"
        },
        {
          "dtype": "float32",
          "shape": [128],
          "name": "StatefulPartitionedCall/model/conv2d_17/Conv2D_bn_offset"
        },
        {
          "dtype": "float32",
          "shape": [1, 1, 128, 32],
          "name": "StatefulPartitionedCall/model/conv2d_18/Conv2D_weights"
        },
        {
          "dtype": "float32",
          "shape": [32],
          "name": "StatefulPartitionedCall/model/conv2d_18/Conv2D_bn_offset"
        },
        {
          "dtype": "float32",
          "shape": [1, 1, 32, 32],
          "name": "StatefulPartitionedCall/model/conv2d_19/Conv2D_weights"
        },
        {
          "dtype": "float32",
          "shape": [32],
          "name": "StatefulPartitionedCall/model/conv2d_19/Conv2D_bn_offset"
        },
        {
          "dtype": "float32",
          "shape": [1, 1, 16],
          "name": "StatefulPartitionedCall/model/p_re_lu/Neg"
        },
        {
          "dtype": "float32",
          "shape": [3, 3, 16, 1],
          "name": "StatefulPartitionedCall/model/depthwise_conv2d/depthwise/ReadVariableOp"
        },
        {
          "dtype": "float32",
          "shape": [1, 1, 16],
          "name": "StatefulPartitionedCall/model/p_re_lu_1/Neg"
        },
        {
          "dtype": "float32",
          "shape": [3, 3, 16, 1],
          "name": "StatefulPartitionedCall/model/depthwise_conv2d_1/depthwise/ReadVariableOp"
        },
        {
          "dtype": "float32",
          "shape": [1, 1, 16],
          "name": "StatefulPartitionedCall/model/p_re_lu_2/Neg"
        },
        {
          "dtype": "int32",
          "shape": [4, 2],
          "name": "StatefulPartitionedCall/model/channel_padding/Pad/paddings"
        },
        {
          "dtype": "float32",
          "shape": [3, 3, 16, 1],
          "name": "StatefulPartitionedCall/model/depthwise_conv2d_2/depthwise/ReadVariableOp"
        },
        {
          "dtype": "float32",
          "shape": [1, 1, 32],
          "name": "StatefulPartitionedCall/model/p_re_lu_3/Neg"
        },
        {
          "dtype": "float32",
          "shape": [3, 3, 32, 1],
          "name": "StatefulPartitionedCall/model/depthwise_conv2d_3/depthwise/ReadVariableOp"
        },
        {
          "dtype": "float32",
          "shape": [1, 1, 32],
          "name": "StatefulPartitionedCall/model/p_re_lu_4/Neg"
        },
        {
          "dtype": "float32",
          "shape": [3, 3, 32, 1],
          "name": "StatefulPartitionedCall/model/depthwise_conv2d_4/depthwise/ReadVariableOp"
        },
        {
          "dtype": "float32",
          "shape": [1, 1, 32],
          "name": "StatefulPartitionedCall/model/p_re_lu_5/Neg"
        },
        {
          "dtype": "int32",
          "shape": [4, 2],
          "name": "StatefulPartitionedCall/model/channel_padding_1/Pad/paddings"
        },
        {
          "dtype": "float32",
          "shape": [3, 3, 32, 1],
          "name": "StatefulPartitionedCall/model/depthwise_conv2d_5/depthwise/ReadVariableOp"
        },
        {
          "dtype": "float32",
          "shape": [1, 1, 64],
          "name": "StatefulPartitionedCall/model/p_re_lu_6/Neg"
        },
        {
          "dtype": "float32",
          "shape": [3, 3, 64, 1],
          "name": "StatefulPartitionedCall/model/depthwise_conv2d_6/depthwise/ReadVariableOp"
        },
        {
          "dtype": "float32",
          "shape": [1, 1, 64],
          "name": "StatefulPartitionedCall/model/p_re_lu_7/Neg"
        },
        {
          "dtype": "float32",
          "shape": [3, 3, 64, 1],
          "name": "StatefulPartitionedCall/model/depthwise_conv2d_7/depthwise/ReadVariableOp"
        },
        {
          "dtype": "float32",
          "shape": [1, 1, 64],
          "name": "StatefulPartitionedCall/model/p_re_lu_8/Neg"
        },
        {
          "dtype": "int32",
          "shape": [4, 2],
          "name": "StatefulPartitionedCall/model/channel_padding_2/Pad/paddings"
        },
        {
          "dtype": "float32",
          "shape": [3, 3, 64, 1],
          "name": "StatefulPartitionedCall/model/depthwise_conv2d_8/depthwise/ReadVariableOp"
        },
        {
          "dtype": "float32",
          "shape": [1, 1, 128],
          "name": "StatefulPartitionedCall/model/p_re_lu_9/Neg"
        },
        {
          "dtype": "float32",
          "shape": [3, 3, 128, 1],
          "name": "StatefulPartitionedCall/model/depthwise_conv2d_9/depthwise/ReadVariableOp"
        },
        {
          "dtype": "float32",
          "shape": [1, 1, 128],
          "name": "StatefulPartitionedCall/model/p_re_lu_10/Neg"
        },
        {
          "dtype": "float32",
          "shape": [3, 3, 128, 1],
          "name": "StatefulPartitionedCall/model/depthwise_conv2d_10/depthwise/ReadVariableOp"
        },
        {
          "dtype": "float32",
          "shape": [1, 1, 128],
          "name": "StatefulPartitionedCall/model/p_re_lu_11/Neg"
        },
        {
          "dtype": "float32",
          "shape": [3, 3, 128, 1],
          "name": "StatefulPartitionedCall/model/depthwise_conv2d_11/depthwise/ReadVariableOp"
        },
        {
          "dtype": "float32",
          "shape": [1, 1, 128],
          "name": "StatefulPartitionedCall/model/p_re_lu_12/Neg"
        },
        {
          "dtype": "float32",
          "shape": [3, 3, 128, 1],
          "name": "StatefulPartitionedCall/model/depthwise_conv2d_12/depthwise/ReadVariableOp"
        },
        {
          "dtype": "float32",
          "shape": [1, 1, 128],
          "name": "StatefulPartitionedCall/model/p_re_lu_13/Neg"
        },
        {
          "dtype": "float32",
          "shape": [3, 3, 128, 1],
          "name": "StatefulPartitionedCall/model/depthwise_conv2d_13/depthwise/ReadVariableOp"
        },
        {
          "dtype": "float32",
          "shape": [1, 1, 128],
          "name": "StatefulPartitionedCall/model/p_re_lu_14/Neg"
        },
        {
          "dtype": "float32",
          "shape": [3, 3, 128, 1],
          "name": "StatefulPartitionedCall/model/depthwise_conv2d_14/depthwise/ReadVariableOp"
        },
        {
          "dtype": "float32",
          "shape": [1, 1, 128],
          "name": "StatefulPartitionedCall/model/p_re_lu_15/Neg"
        },
        {
          "dtype": "float32",
          "shape": [2, 2, 128, 1],
          "name": "StatefulPartitionedCall/model/depthwise_conv2d_15/depthwise/ReadVariableOp"
        },
        {
          "dtype": "float32",
          "shape": [1, 1, 128],
          "name": "StatefulPartitionedCall/model/p_re_lu_16/Neg"
        },
        {
          "dtype": "float32",
          "shape": [2, 2, 128, 1],
          "name": "StatefulPartitionedCall/model/depthwise_conv2d_16/depthwise/ReadVariableOp"
        },
        {
          "dtype": "float32",
          "shape": [1, 1, 128],
          "name": "StatefulPartitionedCall/model/p_re_lu_17/Neg"
        },
        {
          "dtype": "float32",
          "shape": [1, 1, 32],
          "name": "StatefulPartitionedCall/model/p_re_lu_18/Neg"
        },
        {
          "dtype": "float32",
          "shape": [2, 2, 32, 1],
          "name": "StatefulPartitionedCall/model/depthwise_conv2d_17/depthwise/ReadVariableOp"
        },
        {
          "dtype": "float32",
          "shape": [1, 1, 32],
          "name": "StatefulPartitionedCall/model/p_re_lu_19/Neg"
        },
        {
          "dtype": "float32",
          "shape": [2, 2, 32, 1],
          "name": "StatefulPartitionedCall/model/conv_face_flag/Conv2D/ReadVariableOp"
        },
        {
          "dtype": "float32",
          "shape": [1],
          "name": "StatefulPartitionedCall/model/conv_face_flag/BiasAdd/ReadVariableOp"
        },
        {
          "dtype": "int32",
          "shape": [1],
          "name": "StatefulPartitionedCall/model/output_faceflag/strided_slice/stack"
        },
        {
          "dtype": "int32",
          "shape": [1],
          "name": "StatefulPartitionedCall/model/output_faceflag/strided_slice/stack_1"
        },
        {
          "dtype": "int32",
          "shape": [],
          "name": "StatefulPartitionedCall/model/output_faceflag/Reshape/shape/1"
        },
        {
          "dtype": "float32",
          "shape": [1404],
          "name": "StatefulPartitionedCall/model/conv_mesh/BiasAdd/ReadVariableOp"
        },
        {
          "dtype": "float32",
          "shape": [2, 2, 32, 1404],
          "name": "StatefulPartitionedCall/model/conv_mesh/Conv2D/ReadVariableOp"
        }
      ]
    }
  ],
  "convertedBy": "TensorFlow.js Converter v1.3.2"
}
