{"format": "graph-model", "generatedBy": "2.2.0", "convertedBy": "TensorFlow.js Converter v1.7.0", "userDefinedMetadata": {"signature": {"inputs": {"f0_confidence:0": {"name": "f0_confidence:0", "dtype": "DT_FLOAT", "tensorShape": {"dim": [{"size": "-1"}]}}, "loudness_db:0": {"name": "loudness_db:0", "dtype": "DT_FLOAT", "tensorShape": {"dim": [{"size": "-1"}]}}, "f0_hz:0": {"name": "f0_hz:0", "dtype": "DT_FLOAT", "tensorShape": {"dim": [{"size": "-1"}]}}, "audio:0": {"name": "audio:0", "dtype": "DT_FLOAT", "tensorShape": {"dim": [{"size": "-1"}, {"size": "64000"}]}}}, "outputs": {"Identity:0": {"name": "Identity:0", "dtype": "DT_FLOAT", "tensorShape": {"dim": [{"size": "1"}, {"size": "64000"}]}}}}}, "modelTopology": {"node": [{"name": "audio", "op": "Placeholder", "attr": {"shape": {"shape": {"dim": [{"size": "-1"}, {"size": "64000"}]}}, "dtype": {"type": "DT_FLOAT"}}}, {"name": "f0_confidence", "op": "Placeholder", "attr": {"shape": {"shape": {"dim": [{"size": "-1"}]}}, "dtype": {"type": "DT_FLOAT"}}}, {"name": "f0_hz", "op": "Placeholder", "attr": {"shape": {"shape": {"dim": [{"size": "-1"}]}}, "dtype": {"type": "DT_FLOAT"}}}, {"name": "loudness_db", "op": "Placeholder", "attr": {"shape": {"shape": {"dim": [{"size": "-1"}]}}, "dtype": {"type": "DT_FLOAT"}}}, {"name": "Func/StatefulPartitionedCall/autoencoder/StatefulPartitionedCall/input_control_node/_11", "op": "NoOp", "input": ["^audio", "^f0_confidence", "^f0_hz", "^loudness_db"]}, {"name": "StatefulPartitionedCall/autoencoder/StatefulPartitionedCall/processor_group/random_uniform/shape", "op": "Const", "input": ["^Func/StatefulPartitionedCall/autoencoder/StatefulPartitionedCall/input_control_node/_11"], "attr": {"value": {"tensor": {"dtype": "DT_INT32", "tensorShape": {"dim": [{"size": "2"}]}}}, "dtype": {"type": "DT_INT32"}}}, {"name": "StatefulPartitionedCall/autoencoder/StatefulPartitionedCall/processor_group/random_uniform/sub", "op": "Const", "input": ["^Func/StatefulPartitionedCall/autoencoder/StatefulPartitionedCall/input_control_node/_11"], "attr": {"value": {"tensor": {"dtype": "DT_FLOAT", "tensorShape": {}}}, "dtype": {"type": "DT_FLOAT"}}}, {"name": "StatefulPartitionedCall/autoencoder/StatefulPartitionedCall/processor_group/random_uniform/min", "op": "Const", "input": ["^Func/StatefulPartitionedCall/autoencoder/StatefulPartitionedCall/input_control_node/_11"], "attr": {"dtype": {"type": "DT_FLOAT"}, "value": {"tensor": {"dtype": "DT_FLOAT", "tensorShape": {}}}}}, {"name": "StatefulPartitionedCall/autoencoder/StatefulPartitionedCall/processor_group/frame/concat_2", "op": "Const", "input": ["^Func/StatefulPartitionedCall/autoencoder/StatefulPartitionedCall/input_control_node/_11"], "attr": {"dtype": {"type": "DT_INT32"}, "value": {"tensor": {"dtype": "DT_INT32", "tensorShape": {"dim": [{"size": "3"}]}}}}}, {"name": "StatefulPartitionedCall/autoencoder/StatefulPartitionedCall/processor_group/frame/add_1", "op": "Const", "input": ["^Func/StatefulPartitionedCall/autoencoder/StatefulPartitionedCall/input_control_node/_11"], "attr": {"value": {"tensor": {"dtype": "DT_INT32", "tensorShape": {"dim": [{"size": "1000"}, {"size": "1"}]}}}, "dtype": {"type": "DT_INT32"}}}, {"name": "StatefulPartitionedCall/autoencoder/StatefulPartitionedCall/processor_group/frame/GatherV2/axis", "op": "Const", "input": ["^Func/StatefulPartitionedCall/autoencoder/StatefulPartitionedCall/input_control_node/_11"], "attr": {"dtype": {"type": "DT_INT32"}, "value": {"tensor": {"dtype": "DT_INT32", "tensorShape": {}}}}}, {"name": "StatefulPartitionedCall/autoencoder/StatefulPartitionedCall/processor_group/frame/concat_3", "op": "Const", "input": ["^Func/StatefulPartitionedCall/autoencoder/StatefulPartitionedCall/input_control_node/_11"], "attr": {"value": {"tensor": {"dtype": "DT_INT32", "tensorShape": {"dim": [{"size": "3"}]}}}, "dtype": {"type": "DT_INT32"}}}, {"name": "StatefulPartitionedCall/autoencoder/StatefulPartitionedCall/processor_group/rfft/Pad/paddings", "op": "Const", "input": ["^Func/StatefulPartitionedCall/autoencoder/StatefulPartitionedCall/input_control_node/_11"], "attr": {"dtype": {"type": "DT_INT32"}, "value": {"tensor": {"dtype": "DT_INT32", "tensorShape": {"dim": [{"size": "3"}, {"size": "2"}]}}}}}, {"name": "StatefulPartitionedCall/autoencoder/StatefulPartitionedCall/processor_group/rfft/fft_length", "op": "Const", "input": ["^Func/StatefulPartitionedCall/autoencoder/StatefulPartitionedCall/input_control_node/_11"], "attr": {"value": {"tensor": {"dtype": "DT_INT32", "tensorShape": {"dim": [{"size": "1"}]}}}, "dtype": {"type": "DT_INT32"}}}, {"name": "StatefulPartitionedCall/autoencoder/StatefulPartitionedCall/processor_group/BroadcastTo", "op": "Const", "input": ["^Func/StatefulPartitionedCall/autoencoder/StatefulPartitionedCall/input_control_node/_11"], "attr": {"dtype": {"type": "DT_FLOAT"}, "value": {"tensor": {"dtype": "DT_FLOAT", "tensorShape": {"dim": [{"size": "1"}, {"size": "1000"}, {"size": "128"}]}}}}}, {"name": "StatefulPartitionedCall/autoencoder/StatefulPartitionedCall/processor_group/mul_8/x", "op": "Const", "input": ["^Func/StatefulPartitionedCall/autoencoder/StatefulPartitionedCall/input_control_node/_11"], "attr": {"dtype": {"type": "DT_FLOAT"}, "value": {"tensor": {"dtype": "DT_FLOAT", "tensorShape": {}}}}}, {"name": "StatefulPartitionedCall/autoencoder/StatefulPartitionedCall/processor_group/add_2/y", "op": "Const", "input": ["^Func/StatefulPartitionedCall/autoencoder/StatefulPartitionedCall/input_control_node/_11"], "attr": {"dtype": {"type": "DT_FLOAT"}, "value": {"tensor": {"dtype": "DT_FLOAT", "tensorShape": {}}}}}, {"name": "StatefulPartitionedCall/autoencoder/StatefulPartitionedCall/processor_group/Log_2", "op": "Const", "input": ["^Func/StatefulPartitionedCall/autoencoder/StatefulPartitionedCall/input_control_node/_11"], "attr": {"value": {"tensor": {"dtype": "DT_FLOAT", "tensorShape": {}}}, "dtype": {"type": "DT_FLOAT"}}}, {"name": "StatefulPartitionedCall/autoencoder/StatefulPartitionedCall/processor_group/add_3/y", "op": "Const", "input": ["^Func/StatefulPartitionedCall/autoencoder/StatefulPartitionedCall/input_control_node/_11"], "attr": {"dtype": {"type": "DT_FLOAT"}, "value": {"tensor": {"dtype": "DT_FLOAT", "tensorShape": {}}}}}, {"name": "StatefulPartitionedCall/autoencoder/StatefulPartitionedCall/processor_group/zeros_like_2", "op": "Const", "input": ["^Func/StatefulPartitionedCall/autoencoder/StatefulPartitionedCall/input_control_node/_11"], "attr": {"dtype": {"type": "DT_FLOAT"}, "value": {"tensor": {"dtype": "DT_FLOAT", "tensorShape": {"dim": [{"size": "1"}, {"size": "1000"}, {"size": "65"}]}}}}}, {"name": "StatefulPartitionedCall/autoencoder/StatefulPartitionedCall/processor_group/irfft/fft_length", "op": "Const", "input": ["^Func/StatefulPartitionedCall/autoencoder/StatefulPartitionedCall/input_control_node/_11"], "attr": {"dtype": {"type": "DT_INT32"}, "value": {"tensor": {"dtype": "DT_INT32", "tensorShape": {"dim": [{"size": "1"}]}}}}}, {"name": "StatefulPartitionedCall/autoencoder/StatefulPartitionedCall/processor_group/fftshift_1/floordiv", "op": "Const", "input": ["^Func/StatefulPartitionedCall/autoencoder/StatefulPartitionedCall/input_control_node/_11"], "attr": {"value": {"tensor": {"dtype": "DT_INT32", "tensorShape": {}}}, "dtype": {"type": "DT_INT32"}}}, {"name": "StatefulPartitionedCall/autoencoder/StatefulPartitionedCall/processor_group/fftshift_1/axis", "op": "Const", "input": ["^Func/StatefulPartitionedCall/autoencoder/StatefulPartitionedCall/input_control_node/_11"], "attr": {"dtype": {"type": "DT_INT32"}, "value": {"tensor": {"dtype": "DT_INT32", "tensorShape": {}}}}}, {"name": "StatefulPartitionedCall/autoencoder/StatefulPartitionedCall/processor_group/rfft_1/Pad/paddings", "op": "Const", "input": ["^Func/StatefulPartitionedCall/autoencoder/StatefulPartitionedCall/input_control_node/_11"], "attr": {"value": {"tensor": {"dtype": "DT_INT32", "tensorShape": {"dim": [{"size": "3"}, {"size": "2"}]}}}, "dtype": {"type": "DT_INT32"}}}, {"name": "StatefulPartitionedCall/autoencoder/StatefulPartitionedCall/processor_group/rfft_1/fft_length", "op": "Const", "input": ["^Func/StatefulPartitionedCall/autoencoder/StatefulPartitionedCall/input_control_node/_11"], "attr": {"dtype": {"type": "DT_INT32"}, "value": {"tensor": {"dtype": "DT_INT32", "tensorShape": {"dim": [{"size": "1"}]}}}}}, {"name": "StatefulPartitionedCall/autoencoder/StatefulPartitionedCall/processor_group/irfft_1/fft_length", "op": "Const", "input": ["^Func/StatefulPartitionedCall/autoencoder/StatefulPartitionedCall/input_control_node/_11"], "attr": {"dtype": {"type": "DT_INT32"}, "value": {"tensor": {"dtype": "DT_INT32", "tensorShape": {"dim": [{"size": "1"}]}}}}}, {"name": "StatefulPartitionedCall/autoencoder/StatefulPartitionedCall/processor_group/overlap_and_add_1/concat", "op": "Const", "input": ["^Func/StatefulPartitionedCall/autoencoder/StatefulPartitionedCall/input_control_node/_11"], "attr": {"value": {"tensor": {"dtype": "DT_INT32", "tensorShape": {"dim": [{"size": "3"}, {"size": "2"}]}}}, "dtype": {"type": "DT_INT32"}}}, {"name": "StatefulPartitionedCall/autoencoder/StatefulPartitionedCall/processor_group/overlap_and_add_1/concat_1", "op": "Const", "input": ["^Func/StatefulPartitionedCall/autoencoder/StatefulPartitionedCall/input_control_node/_11"], "attr": {"dtype": {"type": "DT_INT32"}, "value": {"tensor": {"dtype": "DT_INT32", "tensorShape": {"dim": [{"size": "4"}]}}}}}, {"name": "StatefulPartitionedCall/autoencoder/StatefulPartitionedCall/processor_group/overlap_and_add_1/transpose/perm", "op": "Const", "input": ["^Func/StatefulPartitionedCall/autoencoder/StatefulPartitionedCall/input_control_node/_11"], "attr": {"dtype": {"type": "DT_INT32"}, "value": {"tensor": {"dtype": "DT_INT32", "tensorShape": {"dim": [{"size": "4"}]}}}}}, {"name": "StatefulPartitionedCall/autoencoder/StatefulPartitionedCall/processor_group/overlap_and_add_1/concat_3", "op": "Const", "input": ["^Func/StatefulPartitionedCall/autoencoder/StatefulPartitionedCall/input_control_node/_11"], "attr": {"dtype": {"type": "DT_INT32"}, "value": {"tensor": {"dtype": "DT_INT32", "tensorShape": {"dim": [{"size": "3"}]}}}}}, {"name": "StatefulPartitionedCall/autoencoder/StatefulPartitionedCall/processor_group/overlap_and_add_1/strided_slice/stack", "op": "Const", "input": ["^Func/StatefulPartitionedCall/autoencoder/StatefulPartitionedCall/input_control_node/_11"], "attr": {"dtype": {"type": "DT_INT32"}, "value": {"tensor": {"dtype": "DT_INT32", "tensorShape": {"dim": [{"size": "3"}]}}}}}, {"name": "StatefulPartitionedCall/autoencoder/StatefulPartitionedCall/processor_group/overlap_and_add_1/strided_slice/stack_1", "op": "Const", "input": ["^Func/StatefulPartitionedCall/autoencoder/StatefulPartitionedCall/input_control_node/_11"], "attr": {"dtype": {"type": "DT_INT32"}, "value": {"tensor": {"dtype": "DT_INT32", "tensorShape": {"dim": [{"size": "3"}]}}}}}, {"name": "StatefulPartitionedCall/autoencoder/StatefulPartitionedCall/processor_group/overlap_and_add_1/strided_slice/stack_2", "op": "Const", "input": ["^Func/StatefulPartitionedCall/autoencoder/StatefulPartitionedCall/input_control_node/_11"], "attr": {"dtype": {"type": "DT_INT32"}, "value": {"tensor": {"dtype": "DT_INT32", "tensorShape": {"dim": [{"size": "3"}]}}}}}, {"name": "StatefulPartitionedCall/autoencoder/StatefulPartitionedCall/processor_group/overlap_and_add_1/concat_4", "op": "Const", "input": ["^Func/StatefulPartitionedCall/autoencoder/StatefulPartitionedCall/input_control_node/_11"], "attr": {"dtype": {"type": "DT_INT32"}, "value": {"tensor": {"dtype": "DT_INT32", "tensorShape": {"dim": [{"size": "4"}]}}}}}, {"name": "StatefulPartitionedCall/autoencoder/StatefulPartitionedCall/processor_group/overlap_and_add_1/Sum/reduction_indices", "op": "Const", "input": ["^Func/StatefulPartitionedCall/autoencoder/StatefulPartitionedCall/input_control_node/_11"], "attr": {"dtype": {"type": "DT_INT32"}, "value": {"tensor": {"dtype": "DT_INT32", "tensorShape": {}}}}}, {"name": "StatefulPartitionedCall/autoencoder/StatefulPartitionedCall/processor_group/overlap_and_add_1/concat_5", "op": "Const", "input": ["^Func/StatefulPartitionedCall/autoencoder/StatefulPartitionedCall/input_control_node/_11"], "attr": {"value": {"tensor": {"dtype": "DT_INT32", "tensorShape": {"dim": [{"size": "2"}]}}}, "dtype": {"type": "DT_INT32"}}}, {"name": "StatefulPartitionedCall/autoencoder/StatefulPartitionedCall/processor_group/overlap_and_add_1/strided_slice_1/stack", "op": "Const", "input": ["^Func/StatefulPartitionedCall/autoencoder/StatefulPartitionedCall/input_control_node/_11"], "attr": {"value": {"tensor": {"dtype": "DT_INT32", "tensorShape": {"dim": [{"size": "2"}]}}}, "dtype": {"type": "DT_INT32"}}}, {"name": "StatefulPartitionedCall/autoencoder/StatefulPartitionedCall/processor_group/overlap_and_add_1/strided_slice_1/stack_1", "op": "Const", "input": ["^Func/StatefulPartitionedCall/autoencoder/StatefulPartitionedCall/input_control_node/_11"], "attr": {"dtype": {"type": "DT_INT32"}, "value": {"tensor": {"dtype": "DT_INT32", "tensorShape": {"dim": [{"size": "2"}]}}}}}, {"name": "StatefulPartitionedCall/autoencoder/StatefulPartitionedCall/processor_group/overlap_and_add_1/strided_slice_1/stack_2", "op": "Const", "input": ["^Func/StatefulPartitionedCall/autoencoder/StatefulPartitionedCall/input_control_node/_11"], "attr": {"value": {"tensor": {"dtype": "DT_INT32", "tensorShape": {"dim": [{"size": "2"}]}}}, "dtype": {"type": "DT_INT32"}}}, {"name": "StatefulPartitionedCall/autoencoder/StatefulPartitionedCall/processor_group/strided_slice_8/stack", "op": "Const", "input": ["^Func/StatefulPartitionedCall/autoencoder/StatefulPartitionedCall/input_control_node/_11"], "attr": {"dtype": {"type": "DT_INT32"}, "value": {"tensor": {"dtype": "DT_INT32", "tensorShape": {"dim": [{"size": "2"}]}}}}}, {"name": "StatefulPartitionedCall/autoencoder/StatefulPartitionedCall/processor_group/strided_slice_8/stack_1", "op": "Const", "input": ["^Func/StatefulPartitionedCall/autoencoder/StatefulPartitionedCall/input_control_node/_11"], "attr": {"dtype": {"type": "DT_INT32"}, "value": {"tensor": {"dtype": "DT_INT32", "tensorShape": {"dim": [{"size": "2"}]}}}}}, {"name": "StatefulPartitionedCall/autoencoder/StatefulPartitionedCall/processor_group/strided_slice_8/stack_2", "op": "Const", "input": ["^Func/StatefulPartitionedCall/autoencoder/StatefulPartitionedCall/input_control_node/_11"], "attr": {"dtype": {"type": "DT_INT32"}, "value": {"tensor": {"dtype": "DT_INT32", "tensorShape": {"dim": [{"size": "2"}]}}}}}, {"name": "StatefulPartitionedCall/autoencoder/StatefulPartitionedCall/processor_group/GreaterEqual_1/y", "op": "Const", "input": ["^Func/StatefulPartitionedCall/autoencoder/StatefulPartitionedCall/input_control_node/_11"], "attr": {"dtype": {"type": "DT_FLOAT"}, "value": {"tensor": {"dtype": "DT_FLOAT", "tensorShape": {}}}}}, {"name": "StatefulPartitionedCall/autoencoder/StatefulPartitionedCall/processor_group/zeros_like_1", "op": "Const", "input": ["^Func/StatefulPartitionedCall/autoencoder/StatefulPartitionedCall/input_control_node/_11"], "attr": {"dtype": {"type": "DT_FLOAT"}, "value": {"tensor": {"dtype": "DT_FLOAT", "tensorShape": {"dim": [{"size": "1"}, {"size": "64000"}, {"size": "60"}]}}}}}, {"name": "StatefulPartitionedCall/autoencoder/StatefulPartitionedCall/processor_group/mul/x", "op": "Const", "input": ["^Func/StatefulPartitionedCall/autoencoder/StatefulPartitionedCall/input_control_node/_11"], "attr": {"dtype": {"type": "DT_FLOAT"}, "value": {"tensor": {"dtype": "DT_FLOAT", "tensorShape": {}}}}}, {"name": "StatefulPartitionedCall/autoencoder/StatefulPartitionedCall/processor_group/Log", "op": "Const", "input": ["^Func/StatefulPartitionedCall/autoencoder/StatefulPartitionedCall/input_control_node/_11"], "attr": {"value": {"tensor": {"dtype": "DT_FLOAT", "tensorShape": {}}}, "dtype": {"type": "DT_FLOAT"}}}, {"name": "StatefulPartitionedCall/autoencoder/StatefulPartitionedCall/processor_group/add/y", "op": "Const", "input": ["^Func/StatefulPartitionedCall/autoencoder/StatefulPartitionedCall/input_control_node/_11"], "attr": {"dtype": {"type": "DT_FLOAT"}, "value": {"tensor": {"dtype": "DT_FLOAT", "tensorShape": {}}}}}, {"name": "StatefulPartitionedCall/autoencoder/StatefulPartitionedCall/processor_group/strided_slice", "op": "Const", "input": ["^Func/StatefulPartitionedCall/autoencoder/StatefulPartitionedCall/input_control_node/_11"], "attr": {"value": {"tensor": {"dtype": "DT_FLOAT", "tensorShape": {"dim": [{"size": "1"}, {"size": "1"}, {"size": "60"}]}}}, "dtype": {"type": "DT_FLOAT"}}}, {"name": "StatefulPartitionedCall/autoencoder/StatefulPartitionedCall/processor_group/GreaterEqual/y", "op": "Const", "input": ["^Func/StatefulPartitionedCall/autoencoder/StatefulPartitionedCall/input_control_node/_11"], "attr": {"value": {"tensor": {"dtype": "DT_FLOAT", "tensorShape": {}}}, "dtype": {"type": "DT_FLOAT"}}}, {"name": "StatefulPartitionedCall/autoencoder/StatefulPartitionedCall/processor_group/zeros_like", "op": "Const", "input": ["^Func/StatefulPartitionedCall/autoencoder/StatefulPartitionedCall/input_control_node/_11"], "attr": {"dtype": {"type": "DT_FLOAT"}, "value": {"tensor": {"dtype": "DT_FLOAT", "tensorShape": {"dim": [{"size": "1"}, {"size": "1000"}, {"size": "60"}]}}}}}, {"name": "StatefulPartitionedCall/autoencoder/StatefulPartitionedCall/processor_group/mul_1/x", "op": "Const", "input": ["^Func/StatefulPartitionedCall/autoencoder/StatefulPartitionedCall/input_control_node/_11"], "attr": {"dtype": {"type": "DT_FLOAT"}, "value": {"tensor": {"dtype": "DT_FLOAT", "tensorShape": {}}}}}, {"name": "StatefulPartitionedCall/autoencoder/StatefulPartitionedCall/rnn_fc_decoder_2/gru/while/loop_counter", "op": "Const", "input": ["^Func/StatefulPartitionedCall/autoencoder/StatefulPartitionedCall/input_control_node/_11"], "attr": {"dtype": {"type": "DT_INT32"}, "value": {"tensor": {"dtype": "DT_INT32", "tensorShape": {}}}}}, {"name": "StatefulPartitionedCall/autoencoder/StatefulPartitionedCall/rnn_fc_decoder_2/gru/while/maximum_iterations", "op": "Const", "input": ["^Func/StatefulPartitionedCall/autoencoder/StatefulPartitionedCall/input_control_node/_11"], "attr": {"dtype": {"type": "DT_INT32"}, "value": {"tensor": {"dtype": "DT_INT32", "tensorShape": {}}}}}, {"name": "StatefulPartitionedCall/autoencoder/StatefulPartitionedCall/rnn_fc_decoder_2/gru/time", "op": "Const", "input": ["^Func/StatefulPartitionedCall/autoencoder/StatefulPartitionedCall/input_control_node/_11"], "attr": {"dtype": {"type": "DT_INT32"}, "value": {"tensor": {"dtype": "DT_INT32", "tensorShape": {}}}}}, {"name": "StatefulPartitionedCall/autoencoder/StatefulPartitionedCall/rnn_fc_decoder_2/gru/TensorArrayV2_1/element_shape", "op": "Const", "input": ["^Func/StatefulPartitionedCall/autoencoder/StatefulPartitionedCall/input_control_node/_11"], "attr": {"dtype": {"type": "DT_INT32"}, "value": {"tensor": {"dtype": "DT_INT32", "tensorShape": {"dim": [{"size": "2"}]}}}}}, {"name": "StatefulPartitionedCall/autoencoder/StatefulPartitionedCall/rnn_fc_decoder_2/gru/zeros", "op": "Const", "input": ["^Func/StatefulPartitionedCall/autoencoder/StatefulPartitionedCall/input_control_node/_11"], "attr": {"dtype": {"type": "DT_FLOAT"}, "value": {"tensor": {"dtype": "DT_FLOAT", "tensorShape": {"dim": [{"size": "1"}, {"size": "256"}]}}}}}, {"name": "StatefulPartitionedCall/autoencoder/StatefulPartitionedCall/rnn_fc_decoder_2/gru/strided_slice_1", "op": "Const", "input": ["^Func/StatefulPartitionedCall/autoencoder/StatefulPartitionedCall/input_control_node/_11"], "attr": {"value": {"tensor": {"dtype": "DT_INT32", "tensorShape": {}}}, "dtype": {"type": "DT_INT32"}}}, {"name": "StatefulPartitionedCall/autoencoder/StatefulPartitionedCall/strided_slice/stack", "op": "Const", "input": ["^Func/StatefulPartitionedCall/autoencoder/StatefulPartitionedCall/input_control_node/_11"], "attr": {"dtype": {"type": "DT_INT32"}, "value": {"tensor": {"dtype": "DT_INT32", "tensorShape": {"dim": [{"size": "2"}]}}}}}, {"name": "StatefulPartitionedCall/autoencoder/StatefulPartitionedCall/strided_slice/stack_1", "op": "Const", "input": ["^Func/StatefulPartitionedCall/autoencoder/StatefulPartitionedCall/input_control_node/_11"], "attr": {"value": {"tensor": {"dtype": "DT_INT32", "tensorShape": {"dim": [{"size": "2"}]}}}, "dtype": {"type": "DT_INT32"}}}, {"name": "StatefulPartitionedCall/autoencoder/StatefulPartitionedCall/strided_slice/stack_2", "op": "Const", "input": ["^Func/StatefulPartitionedCall/autoencoder/StatefulPartitionedCall/input_control_node/_11"], "attr": {"dtype": {"type": "DT_INT32"}, "value": {"tensor": {"dtype": "DT_INT32", "tensorShape": {"dim": [{"size": "2"}]}}}}}, {"name": "StatefulPartitionedCall/autoencoder/StatefulPartitionedCall/strided_slice_1/stack", "op": "Const", "input": ["^Func/StatefulPartitionedCall/autoencoder/StatefulPartitionedCall/input_control_node/_11"], "attr": {"value": {"tensor": {"dtype": "DT_INT32", "tensorShape": {"dim": [{"size": "3"}]}}}, "dtype": {"type": "DT_INT32"}}}, {"name": "StatefulPartitionedCall/autoencoder/StatefulPartitionedCall/strided_slice_1/stack_1", "op": "Const", "input": ["^Func/StatefulPartitionedCall/autoencoder/StatefulPartitionedCall/input_control_node/_11"], "attr": {"value": {"tensor": {"dtype": "DT_INT32", "tensorShape": {"dim": [{"size": "3"}]}}}, "dtype": {"type": "DT_INT32"}}}, {"name": "StatefulPartitionedCall/autoencoder/StatefulPartitionedCall/strided_slice_1/stack_2", "op": "Const", "input": ["^Func/StatefulPartitionedCall/autoencoder/StatefulPartitionedCall/input_control_node/_11"], "attr": {"dtype": {"type": "DT_INT32"}, "value": {"tensor": {"dtype": "DT_INT32", "tensorShape": {"dim": [{"size": "3"}]}}}}}, {"name": "StatefulPartitionedCall/autoencoder/StatefulPartitionedCall/strided_slice_2/stack", "op": "Const", "input": ["^Func/StatefulPartitionedCall/autoencoder/StatefulPartitionedCall/input_control_node/_11"], "attr": {"dtype": {"type": "DT_INT32"}, "value": {"tensor": {"dtype": "DT_INT32", "tensorShape": {"dim": [{"size": "4"}]}}}}}, {"name": "StatefulPartitionedCall/autoencoder/StatefulPartitionedCall/strided_slice_2/stack_1", "op": "Const", "input": ["^Func/StatefulPartitionedCall/autoencoder/StatefulPartitionedCall/input_control_node/_11"], "attr": {"value": {"tensor": {"dtype": "DT_INT32", "tensorShape": {"dim": [{"size": "4"}]}}}, "dtype": {"type": "DT_INT32"}}}, {"name": "StatefulPartitionedCall/autoencoder/StatefulPartitionedCall/strided_slice_2/stack_2", "op": "Const", "input": ["^Func/StatefulPartitionedCall/autoencoder/StatefulPartitionedCall/input_control_node/_11"], "attr": {"value": {"tensor": {"dtype": "DT_INT32", "tensorShape": {"dim": [{"size": "4"}]}}}, "dtype": {"type": "DT_INT32"}}}, {"name": "StatefulPartitionedCall/autoencoder/StatefulPartitionedCall/resize/size", "op": "Const", "input": ["^Func/StatefulPartitionedCall/autoencoder/StatefulPartitionedCall/input_control_node/_11"], "attr": {"value": {"tensor": {"dtype": "DT_INT32", "tensorShape": {"dim": [{"size": "2"}]}}}, "dtype": {"type": "DT_INT32"}}}, {"name": "StatefulPartitionedCall/autoencoder/StatefulPartitionedCall/strided_slice_3/stack", "op": "Const", "input": ["^Func/StatefulPartitionedCall/autoencoder/StatefulPartitionedCall/input_control_node/_11"], "attr": {"value": {"tensor": {"dtype": "DT_INT32", "tensorShape": {"dim": [{"size": "4"}]}}}, "dtype": {"type": "DT_INT32"}}}, {"name": "StatefulPartitionedCall/autoencoder/StatefulPartitionedCall/strided_slice_3/stack_1", "op": "Const", "input": ["^Func/StatefulPartitionedCall/autoencoder/StatefulPartitionedCall/input_control_node/_11"], "attr": {"dtype": {"type": "DT_INT32"}, "value": {"tensor": {"dtype": "DT_INT32", "tensorShape": {"dim": [{"size": "4"}]}}}}}, {"name": "StatefulPartitionedCall/autoencoder/StatefulPartitionedCall/strided_slice_3/stack_2", "op": "Const", "input": ["^Func/StatefulPartitionedCall/autoencoder/StatefulPartitionedCall/input_control_node/_11"], "attr": {"dtype": {"type": "DT_INT32"}, "value": {"tensor": {"dtype": "DT_INT32", "tensorShape": {"dim": [{"size": "4"}]}}}}}, {"name": "ConstantFolding/StatefulPartitionedCall/autoencoder/StatefulPartitionedCall/truediv_3_recip", "op": "Const", "input": ["^Func/StatefulPartitionedCall/autoencoder/StatefulPartitionedCall/input_control_node/_11"], "attr": {"dtype": {"type": "DT_FLOAT"}, "value": {"tensor": {"dtype": "DT_FLOAT", "tensorShape": {}}}}}, {"name": "StatefulPartitionedCall/autoencoder/StatefulPartitionedCall/add_1/y", "op": "Const", "input": ["^Func/StatefulPartitionedCall/autoencoder/StatefulPartitionedCall/input_control_node/_11"], "attr": {"dtype": {"type": "DT_FLOAT"}, "value": {"tensor": {"dtype": "DT_FLOAT", "tensorShape": {}}}}}, {"name": "StatefulPartitionedCall/autoencoder/StatefulPartitionedCall/Equal/y", "op": "Const", "input": ["^Func/StatefulPartitionedCall/autoencoder/StatefulPartitionedCall/input_control_node/_11"], "attr": {"dtype": {"type": "DT_FLOAT"}, "value": {"tensor": {"dtype": "DT_FLOAT", "tensorShape": {}}}}}, {"name": "StatefulPartitionedCall/autoencoder/StatefulPartitionedCall/SelectV2/t", "op": "Const", "input": ["^Func/StatefulPartitionedCall/autoencoder/StatefulPartitionedCall/input_control_node/_11"], "attr": {"value": {"tensor": {"dtype": "DT_FLOAT", "tensorShape": {}}}, "dtype": {"type": "DT_FLOAT"}}}, {"name": "StatefulPartitionedCall/autoencoder/StatefulPartitionedCall/mul/x", "op": "Const", "input": ["^Func/StatefulPartitionedCall/autoencoder/StatefulPartitionedCall/input_control_node/_11"], "attr": {"dtype": {"type": "DT_FLOAT"}, "value": {"tensor": {"dtype": "DT_FLOAT", "tensorShape": {}}}}}, {"name": "ConstantFolding/StatefulPartitionedCall/autoencoder/StatefulPartitionedCall/truediv_recip", "op": "Const", "input": ["^Func/StatefulPartitionedCall/autoencoder/StatefulPartitionedCall/input_control_node/_11"], "attr": {"value": {"tensor": {"dtype": "DT_FLOAT", "tensorShape": {}}}, "dtype": {"type": "DT_FLOAT"}}}, {"name": "StatefulPartitionedCall/autoencoder/StatefulPartitionedCall/truediv_1", "op": "Const", "input": ["^Func/StatefulPartitionedCall/autoencoder/StatefulPartitionedCall/input_control_node/_11"], "attr": {"value": {"tensor": {"dtype": "DT_FLOAT", "tensorShape": {}}}, "dtype": {"type": "DT_FLOAT"}}}, {"name": "StatefulPartitionedCall/autoencoder/StatefulPartitionedCall/add/y", "op": "Const", "input": ["^Func/StatefulPartitionedCall/autoencoder/StatefulPartitionedCall/input_control_node/_11"], "attr": {"value": {"tensor": {"dtype": "DT_FLOAT", "tensorShape": {}}}, "dtype": {"type": "DT_FLOAT"}}}, {"name": "ConstantFolding/StatefulPartitionedCall/autoencoder/StatefulPartitionedCall/truediv_2_recip", "op": "Const", "input": ["^Func/StatefulPartitionedCall/autoencoder/StatefulPartitionedCall/input_control_node/_11"], "attr": {"dtype": {"type": "DT_FLOAT"}, "value": {"tensor": {"dtype": "DT_FLOAT", "tensorShape": {}}}}}, {"name": "StatefulPartitionedCall/autoencoder/StatefulPartitionedCall/rnn_fc_decoder_2/concat/axis", "op": "Const", "input": ["^Func/StatefulPartitionedCall/autoencoder/StatefulPartitionedCall/input_control_node/_11"], "attr": {"value": {"tensor": {"dtype": "DT_INT32", "tensorShape": {}}}, "dtype": {"type": "DT_INT32"}}}, {"name": "StatefulPartitionedCall/autoencoder/StatefulPartitionedCall/rnn_fc_decoder_2/gru/transpose/perm", "op": "Const", "input": ["^Func/StatefulPartitionedCall/autoencoder/StatefulPartitionedCall/input_control_node/_11"], "attr": {"value": {"tensor": {"dtype": "DT_INT32", "tensorShape": {"dim": [{"size": "3"}]}}}, "dtype": {"type": "DT_INT32"}}}, {"name": "StatefulPartitionedCall/autoencoder/StatefulPartitionedCall/rnn_fc_decoder_2/gru/TensorArrayUnstack/TensorListFromTensor/element_shape", "op": "Const", "input": ["^Func/StatefulPartitionedCall/autoencoder/StatefulPartitionedCall/input_control_node/_11"], "attr": {"value": {"tensor": {"dtype": "DT_INT32", "tensorShape": {"dim": [{"size": "2"}]}}}, "dtype": {"type": "DT_INT32"}}}, {"name": "Func/StatefulPartitionedCall/autoencoder/StatefulPartitionedCall/input/_16", "op": "Const", "input": ["^Func/StatefulPartitionedCall/autoencoder/StatefulPartitionedCall/input_control_node/_11"], "attr": {"dtype": {"type": "DT_FLOAT"}, "value": {"tensor": {"dtype": "DT_FLOAT", "tensorShape": {"dim": [{"size": "2"}, {"size": "768"}]}}}}}, {"name": "Func/StatefulPartitionedCall/autoencoder/StatefulPartitionedCall/input/_17", "op": "Const", "input": ["^Func/StatefulPartitionedCall/autoencoder/StatefulPartitionedCall/input_control_node/_11"], "attr": {"value": {"tensor": {"dtype": "DT_FLOAT", "tensorShape": {"dim": [{"size": "2"}, {"size": "768"}]}}}, "dtype": {"type": "DT_FLOAT"}}}, {"name": "Func/StatefulPartitionedCall/autoencoder/StatefulPartitionedCall/input/_18", "op": "Const", "input": ["^Func/StatefulPartitionedCall/autoencoder/StatefulPartitionedCall/input_control_node/_11"], "attr": {"dtype": {"type": "DT_FLOAT"}, "value": {"tensor": {"dtype": "DT_FLOAT", "tensorShape": {"dim": [{"size": "256"}, {"size": "768"}]}}}}}, {"name": "StatefulPartitionedCall/autoencoder/StatefulPartitionedCall/rnn_fc_decoder_2/gru/TensorArrayV2Stack/TensorListStack/element_shape", "op": "Const", "input": ["^Func/StatefulPartitionedCall/autoencoder/StatefulPartitionedCall/input_control_node/_11"], "attr": {"value": {"tensor": {"dtype": "DT_INT32", "tensorShape": {"dim": [{"size": "2"}]}}}, "dtype": {"type": "DT_INT32"}}}, {"name": "StatefulPartitionedCall/autoencoder/StatefulPartitionedCall/rnn_fc_decoder_2/gru/transpose_1/perm", "op": "Const", "input": ["^Func/StatefulPartitionedCall/autoencoder/StatefulPartitionedCall/input_control_node/_11"], "attr": {"value": {"tensor": {"dtype": "DT_INT32", "tensorShape": {"dim": [{"size": "3"}]}}}, "dtype": {"type": "DT_INT32"}}}, {"name": "StatefulPartitionedCall/autoencoder/StatefulPartitionedCall/rnn_fc_decoder_2/concat_1/axis", "op": "Const", "input": ["^Func/StatefulPartitionedCall/autoencoder/StatefulPartitionedCall/input_control_node/_11"], "attr": {"value": {"tensor": {"dtype": "DT_INT32", "tensorShape": {}}}, "dtype": {"type": "DT_INT32"}}}, {"name": "StatefulPartitionedCall/autoencoder/StatefulPartitionedCall/rnn_fc_decoder_2/dense/Tensordot/Reshape/shape", "op": "Const", "input": ["^Func/StatefulPartitionedCall/autoencoder/StatefulPartitionedCall/input_control_node/_11"], "attr": {"value": {"tensor": {"dtype": "DT_INT32", "tensorShape": {"dim": [{"size": "2"}]}}}, "dtype": {"type": "DT_INT32"}}}, {"name": "Func/StatefulPartitionedCall/autoencoder/StatefulPartitionedCall/input/_19", "op": "Const", "input": ["^Func/StatefulPartitionedCall/autoencoder/StatefulPartitionedCall/input_control_node/_11"], "attr": {"dtype": {"type": "DT_FLOAT"}, "value": {"tensor": {"dtype": "DT_FLOAT", "tensorShape": {"dim": [{"size": "258"}, {"size": "126"}]}}}}}, {"name": "StatefulPartitionedCall/autoencoder/StatefulPartitionedCall/rnn_fc_decoder_2/dense/Tensordot/shape", "op": "Const", "input": ["^Func/StatefulPartitionedCall/autoencoder/StatefulPartitionedCall/input_control_node/_11"], "attr": {"value": {"tensor": {"dtype": "DT_INT32", "tensorShape": {"dim": [{"size": "3"}]}}}, "dtype": {"type": "DT_INT32"}}}, {"name": "Func/StatefulPartitionedCall/autoencoder/StatefulPartitionedCall/input/_20", "op": "Const", "input": ["^Func/StatefulPartitionedCall/autoencoder/StatefulPartitionedCall/input_control_node/_11"], "attr": {"value": {"tensor": {"dtype": "DT_FLOAT", "tensorShape": {"dim": [{"size": "126"}]}}}, "dtype": {"type": "DT_FLOAT"}}}, {"name": "StatefulPartitionedCall/autoencoder/StatefulPartitionedCall/rnn_fc_decoder_2/Const", "op": "Const", "input": ["^Func/StatefulPartitionedCall/autoencoder/StatefulPartitionedCall/input_control_node/_11"], "attr": {"dtype": {"type": "DT_INT32"}, "value": {"tensor": {"dtype": "DT_INT32", "tensorShape": {"dim": [{"size": "3"}]}}}}}, {"name": "StatefulPartitionedCall/autoencoder/StatefulPartitionedCall/rnn_fc_decoder_2/split/split_dim", "op": "Const", "input": ["^Func/StatefulPartitionedCall/autoencoder/StatefulPartitionedCall/input_control_node/_11"], "attr": {"value": {"tensor": {"dtype": "DT_INT32", "tensorShape": {}}}, "dtype": {"type": "DT_INT32"}}}, {"name": "StatefulPartitionedCall/autoencoder/StatefulPartitionedCall/processor_group/Log_1", "op": "Const", "input": ["^Func/StatefulPartitionedCall/autoencoder/StatefulPartitionedCall/input_control_node/_11"], "attr": {"dtype": {"type": "DT_FLOAT"}, "value": {"tensor": {"dtype": "DT_FLOAT", "tensorShape": {}}}}}, {"name": "StatefulPartitionedCall/autoencoder/StatefulPartitionedCall/processor_group/add_1/y", "op": "Const", "input": ["^Func/StatefulPartitionedCall/autoencoder/StatefulPartitionedCall/input_control_node/_11"], "attr": {"value": {"tensor": {"dtype": "DT_FLOAT", "tensorShape": {}}}, "dtype": {"type": "DT_FLOAT"}}}, {"name": "StatefulPartitionedCall/autoencoder/StatefulPartitionedCall/processor_group/Sum/reduction_indices", "op": "Const", "input": ["^Func/StatefulPartitionedCall/autoencoder/StatefulPartitionedCall/input_control_node/_11"], "attr": {"value": {"tensor": {"dtype": "DT_INT32", "tensorShape": {}}}, "dtype": {"type": "DT_INT32"}}}, {"name": "StatefulPartitionedCall/autoencoder/StatefulPartitionedCall/processor_group/strided_slice_4/stack", "op": "Const", "input": ["^Func/StatefulPartitionedCall/autoencoder/StatefulPartitionedCall/input_control_node/_11"], "attr": {"dtype": {"type": "DT_INT32"}, "value": {"tensor": {"dtype": "DT_INT32", "tensorShape": {"dim": [{"size": "3"}]}}}}}, {"name": "StatefulPartitionedCall/autoencoder/StatefulPartitionedCall/processor_group/strided_slice_4/stack_1", "op": "Const", "input": ["^Func/StatefulPartitionedCall/autoencoder/StatefulPartitionedCall/input_control_node/_11"], "attr": {"dtype": {"type": "DT_INT32"}, "value": {"tensor": {"dtype": "DT_INT32", "tensorShape": {"dim": [{"size": "3"}]}}}}}, {"name": "StatefulPartitionedCall/autoencoder/StatefulPartitionedCall/processor_group/strided_slice_4/stack_2", "op": "Const", "input": ["^Func/StatefulPartitionedCall/autoencoder/StatefulPartitionedCall/input_control_node/_11"], "attr": {"value": {"tensor": {"dtype": "DT_INT32", "tensorShape": {"dim": [{"size": "3"}]}}}, "dtype": {"type": "DT_INT32"}}}, {"name": "StatefulPartitionedCall/autoencoder/StatefulPartitionedCall/processor_group/concat/axis", "op": "Const", "input": ["^Func/StatefulPartitionedCall/autoencoder/StatefulPartitionedCall/input_control_node/_11"], "attr": {"value": {"tensor": {"dtype": "DT_INT32", "tensorShape": {}}}, "dtype": {"type": "DT_INT32"}}}, {"name": "StatefulPartitionedCall/autoencoder/StatefulPartitionedCall/processor_group/transpose/perm", "op": "Const", "input": ["^Func/StatefulPartitionedCall/autoencoder/StatefulPartitionedCall/input_control_node/_11"], "attr": {"value": {"tensor": {"dtype": "DT_INT32", "tensorShape": {"dim": [{"size": "3"}]}}}, "dtype": {"type": "DT_INT32"}}}, {"name": "StatefulPartitionedCall/autoencoder/StatefulPartitionedCall/processor_group/strided_slice_5/stack", "op": "Const", "input": ["^Func/StatefulPartitionedCall/autoencoder/StatefulPartitionedCall/input_control_node/_11"], "attr": {"value": {"tensor": {"dtype": "DT_INT32", "tensorShape": {"dim": [{"size": "4"}]}}}, "dtype": {"type": "DT_INT32"}}}, {"name": "StatefulPartitionedCall/autoencoder/StatefulPartitionedCall/processor_group/strided_slice_5/stack_1", "op": "Const", "input": ["^Func/StatefulPartitionedCall/autoencoder/StatefulPartitionedCall/input_control_node/_11"], "attr": {"value": {"tensor": {"dtype": "DT_INT32", "tensorShape": {"dim": [{"size": "4"}]}}}, "dtype": {"type": "DT_INT32"}}}, {"name": "StatefulPartitionedCall/autoencoder/StatefulPartitionedCall/processor_group/strided_slice_5/stack_2", "op": "Const", "input": ["^Func/StatefulPartitionedCall/autoencoder/StatefulPartitionedCall/input_control_node/_11"], "attr": {"dtype": {"type": "DT_INT32"}, "value": {"tensor": {"dtype": "DT_INT32", "tensorShape": {"dim": [{"size": "4"}]}}}}}, {"name": "StatefulPartitionedCall/autoencoder/StatefulPartitionedCall/processor_group/strided_slice_6", "op": "Const", "input": ["^Func/StatefulPartitionedCall/autoencoder/StatefulPartitionedCall/input_control_node/_11"], "attr": {"value": {"tensor": {"dtype": "DT_FLOAT", "tensorShape": {"dim": [{"size": "1"}, {"size": "1"}, {"size": "1"}, {"size": "128"}]}}}, "dtype": {"type": "DT_FLOAT"}}}, {"name": "StatefulPartitionedCall/autoencoder/StatefulPartitionedCall/processor_group/overlap_and_add/concat", "op": "Const", "input": ["^Func/StatefulPartitionedCall/autoencoder/StatefulPartitionedCall/input_control_node/_11"], "attr": {"dtype": {"type": "DT_INT32"}, "value": {"tensor": {"dtype": "DT_INT32", "tensorShape": {"dim": [{"size": "4"}, {"size": "2"}]}}}}}, {"name": "StatefulPartitionedCall/autoencoder/StatefulPartitionedCall/processor_group/overlap_and_add/concat_1", "op": "Const", "input": ["^Func/StatefulPartitionedCall/autoencoder/StatefulPartitionedCall/input_control_node/_11"], "attr": {"dtype": {"type": "DT_INT32"}, "value": {"tensor": {"dtype": "DT_INT32", "tensorShape": {"dim": [{"size": "5"}]}}}}}, {"name": "StatefulPartitionedCall/autoencoder/StatefulPartitionedCall/processor_group/overlap_and_add/transpose/perm", "op": "Const", "input": ["^Func/StatefulPartitionedCall/autoencoder/StatefulPartitionedCall/input_control_node/_11"], "attr": {"dtype": {"type": "DT_INT32"}, "value": {"tensor": {"dtype": "DT_INT32", "tensorShape": {"dim": [{"size": "5"}]}}}}}, {"name": "StatefulPartitionedCall/autoencoder/StatefulPartitionedCall/processor_group/overlap_and_add/concat_3", "op": "Const", "input": ["^Func/StatefulPartitionedCall/autoencoder/StatefulPartitionedCall/input_control_node/_11"], "attr": {"dtype": {"type": "DT_INT32"}, "value": {"tensor": {"dtype": "DT_INT32", "tensorShape": {"dim": [{"size": "4"}]}}}}}, {"name": "StatefulPartitionedCall/autoencoder/StatefulPartitionedCall/processor_group/overlap_and_add/strided_slice/stack", "op": "Const", "input": ["^Func/StatefulPartitionedCall/autoencoder/StatefulPartitionedCall/input_control_node/_11"], "attr": {"value": {"tensor": {"dtype": "DT_INT32", "tensorShape": {"dim": [{"size": "3"}]}}}, "dtype": {"type": "DT_INT32"}}}, {"name": "StatefulPartitionedCall/autoencoder/StatefulPartitionedCall/processor_group/overlap_and_add/strided_slice/stack_1", "op": "Const", "input": ["^Func/StatefulPartitionedCall/autoencoder/StatefulPartitionedCall/input_control_node/_11"], "attr": {"dtype": {"type": "DT_INT32"}, "value": {"tensor": {"dtype": "DT_INT32", "tensorShape": {"dim": [{"size": "3"}]}}}}}, {"name": "StatefulPartitionedCall/autoencoder/StatefulPartitionedCall/processor_group/overlap_and_add/strided_slice/stack_2", "op": "Const", "input": ["^Func/StatefulPartitionedCall/autoencoder/StatefulPartitionedCall/input_control_node/_11"], "attr": {"dtype": {"type": "DT_INT32"}, "value": {"tensor": {"dtype": "DT_INT32", "tensorShape": {"dim": [{"size": "3"}]}}}}}, {"name": "StatefulPartitionedCall/autoencoder/StatefulPartitionedCall/processor_group/overlap_and_add/concat_4", "op": "Const", "input": ["^Func/StatefulPartitionedCall/autoencoder/StatefulPartitionedCall/input_control_node/_11"], "attr": {"value": {"tensor": {"dtype": "DT_INT32", "tensorShape": {"dim": [{"size": "5"}]}}}, "dtype": {"type": "DT_INT32"}}}, {"name": "StatefulPartitionedCall/autoencoder/StatefulPartitionedCall/processor_group/overlap_and_add/Sum/reduction_indices", "op": "Const", "input": ["^Func/StatefulPartitionedCall/autoencoder/StatefulPartitionedCall/input_control_node/_11"], "attr": {"dtype": {"type": "DT_INT32"}, "value": {"tensor": {"dtype": "DT_INT32", "tensorShape": {}}}}}, {"name": "StatefulPartitionedCall/autoencoder/StatefulPartitionedCall/processor_group/overlap_and_add/concat_5", "op": "Const", "input": ["^Func/StatefulPartitionedCall/autoencoder/StatefulPartitionedCall/input_control_node/_11"], "attr": {"value": {"tensor": {"dtype": "DT_INT32", "tensorShape": {"dim": [{"size": "3"}]}}}, "dtype": {"type": "DT_INT32"}}}, {"name": "StatefulPartitionedCall/autoencoder/StatefulPartitionedCall/processor_group/overlap_and_add/strided_slice_1/stack", "op": "Const", "input": ["^Func/StatefulPartitionedCall/autoencoder/StatefulPartitionedCall/input_control_node/_11"], "attr": {"dtype": {"type": "DT_INT32"}, "value": {"tensor": {"dtype": "DT_INT32", "tensorShape": {"dim": [{"size": "2"}]}}}}}, {"name": "StatefulPartitionedCall/autoencoder/StatefulPartitionedCall/processor_group/overlap_and_add/strided_slice_1/stack_1", "op": "Const", "input": ["^Func/StatefulPartitionedCall/autoencoder/StatefulPartitionedCall/input_control_node/_11"], "attr": {"value": {"tensor": {"dtype": "DT_INT32", "tensorShape": {"dim": [{"size": "2"}]}}}, "dtype": {"type": "DT_INT32"}}}, {"name": "StatefulPartitionedCall/autoencoder/StatefulPartitionedCall/processor_group/overlap_and_add/strided_slice_1/stack_2", "op": "Const", "input": ["^Func/StatefulPartitionedCall/autoencoder/StatefulPartitionedCall/input_control_node/_11"], "attr": {"dtype": {"type": "DT_INT32"}, "value": {"tensor": {"dtype": "DT_INT32", "tensorShape": {"dim": [{"size": "2"}]}}}}}, {"name": "StatefulPartitionedCall/autoencoder/StatefulPartitionedCall/processor_group/transpose_1/perm", "op": "Const", "input": ["^Func/StatefulPartitionedCall/autoencoder/StatefulPartitionedCall/input_control_node/_11"], "attr": {"dtype": {"type": "DT_INT32"}, "value": {"tensor": {"dtype": "DT_INT32", "tensorShape": {"dim": [{"size": "3"}]}}}}}, {"name": "StatefulPartitionedCall/autoencoder/StatefulPartitionedCall/processor_group/strided_slice_7/stack", "op": "Const", "input": ["^Func/StatefulPartitionedCall/autoencoder/StatefulPartitionedCall/input_control_node/_11"], "attr": {"dtype": {"type": "DT_INT32"}, "value": {"tensor": {"dtype": "DT_INT32", "tensorShape": {"dim": [{"size": "3"}]}}}}}, {"name": "StatefulPartitionedCall/autoencoder/StatefulPartitionedCall/processor_group/strided_slice_7/stack_1", "op": "Const", "input": ["^Func/StatefulPartitionedCall/autoencoder/StatefulPartitionedCall/input_control_node/_11"], "attr": {"dtype": {"type": "DT_INT32"}, "value": {"tensor": {"dtype": "DT_INT32", "tensorShape": {"dim": [{"size": "3"}]}}}}}, {"name": "StatefulPartitionedCall/autoencoder/StatefulPartitionedCall/processor_group/strided_slice_7/stack_2", "op": "Const", "input": ["^Func/StatefulPartitionedCall/autoencoder/StatefulPartitionedCall/input_control_node/_11"], "attr": {"value": {"tensor": {"dtype": "DT_INT32", "tensorShape": {"dim": [{"size": "3"}]}}}, "dtype": {"type": "DT_INT32"}}}, {"name": "StatefulPartitionedCall/autoencoder/StatefulPartitionedCall/strided_slice_4/stack", "op": "Const", "input": ["^Func/StatefulPartitionedCall/autoencoder/StatefulPartitionedCall/input_control_node/_11"], "attr": {"value": {"tensor": {"dtype": "DT_INT32", "tensorShape": {"dim": [{"size": "2"}]}}}, "dtype": {"type": "DT_INT32"}}}, {"name": "StatefulPartitionedCall/autoencoder/StatefulPartitionedCall/strided_slice_4/stack_1", "op": "Const", "input": ["^Func/StatefulPartitionedCall/autoencoder/StatefulPartitionedCall/input_control_node/_11"], "attr": {"value": {"tensor": {"dtype": "DT_INT32", "tensorShape": {"dim": [{"size": "2"}]}}}, "dtype": {"type": "DT_INT32"}}}, {"name": "StatefulPartitionedCall/autoencoder/StatefulPartitionedCall/strided_slice_4/stack_2", "op": "Const", "input": ["^Func/StatefulPartitionedCall/autoencoder/StatefulPartitionedCall/input_control_node/_11"], "attr": {"dtype": {"type": "DT_INT32"}, "value": {"tensor": {"dtype": "DT_INT32", "tensorShape": {"dim": [{"size": "2"}]}}}}}, {"name": "StatefulPartitionedCall/autoencoder/StatefulPartitionedCall/strided_slice_5/stack", "op": "Const", "input": ["^Func/StatefulPartitionedCall/autoencoder/StatefulPartitionedCall/input_control_node/_11"], "attr": {"dtype": {"type": "DT_INT32"}, "value": {"tensor": {"dtype": "DT_INT32", "tensorShape": {"dim": [{"size": "3"}]}}}}}, {"name": "StatefulPartitionedCall/autoencoder/StatefulPartitionedCall/strided_slice_5/stack_1", "op": "Const", "input": ["^Func/StatefulPartitionedCall/autoencoder/StatefulPartitionedCall/input_control_node/_11"], "attr": {"value": {"tensor": {"dtype": "DT_INT32", "tensorShape": {"dim": [{"size": "3"}]}}}, "dtype": {"type": "DT_INT32"}}}, {"name": "StatefulPartitionedCall/autoencoder/StatefulPartitionedCall/strided_slice_5/stack_2", "op": "Const", "input": ["^Func/StatefulPartitionedCall/autoencoder/StatefulPartitionedCall/input_control_node/_11"], "attr": {"value": {"tensor": {"dtype": "DT_INT32", "tensorShape": {"dim": [{"size": "3"}]}}}, "dtype": {"type": "DT_INT32"}}}, {"name": "StatefulPartitionedCall/autoencoder/StatefulPartitionedCall/strided_slice_6/stack", "op": "Const", "input": ["^Func/StatefulPartitionedCall/autoencoder/StatefulPartitionedCall/input_control_node/_11"], "attr": {"dtype": {"type": "DT_INT32"}, "value": {"tensor": {"dtype": "DT_INT32", "tensorShape": {"dim": [{"size": "4"}]}}}}}, {"name": "StatefulPartitionedCall/autoencoder/StatefulPartitionedCall/strided_slice_6/stack_1", "op": "Const", "input": ["^Func/StatefulPartitionedCall/autoencoder/StatefulPartitionedCall/input_control_node/_11"], "attr": {"value": {"tensor": {"dtype": "DT_INT32", "tensorShape": {"dim": [{"size": "4"}]}}}, "dtype": {"type": "DT_INT32"}}}, {"name": "StatefulPartitionedCall/autoencoder/StatefulPartitionedCall/strided_slice_6/stack_2", "op": "Const", "input": ["^Func/StatefulPartitionedCall/autoencoder/StatefulPartitionedCall/input_control_node/_11"], "attr": {"dtype": {"type": "DT_INT32"}, "value": {"tensor": {"dtype": "DT_INT32", "tensorShape": {"dim": [{"size": "4"}]}}}}}, {"name": "StatefulPartitionedCall/autoencoder/StatefulPartitionedCall/resize_1/size", "op": "Const", "input": ["^Func/StatefulPartitionedCall/autoencoder/StatefulPartitionedCall/input_control_node/_11"], "attr": {"dtype": {"type": "DT_INT32"}, "value": {"tensor": {"dtype": "DT_INT32", "tensorShape": {"dim": [{"size": "2"}]}}}}}, {"name": "StatefulPartitionedCall/autoencoder/StatefulPartitionedCall/strided_slice_7/stack", "op": "Const", "input": ["^Func/StatefulPartitionedCall/autoencoder/StatefulPartitionedCall/input_control_node/_11"], "attr": {"dtype": {"type": "DT_INT32"}, "value": {"tensor": {"dtype": "DT_INT32", "tensorShape": {"dim": [{"size": "4"}]}}}}}, {"name": "StatefulPartitionedCall/autoencoder/StatefulPartitionedCall/strided_slice_7/stack_1", "op": "Const", "input": ["^Func/StatefulPartitionedCall/autoencoder/StatefulPartitionedCall/input_control_node/_11"], "attr": {"value": {"tensor": {"dtype": "DT_INT32", "tensorShape": {"dim": [{"size": "4"}]}}}, "dtype": {"type": "DT_INT32"}}}, {"name": "StatefulPartitionedCall/autoencoder/StatefulPartitionedCall/strided_slice_7/stack_2", "op": "Const", "input": ["^Func/StatefulPartitionedCall/autoencoder/StatefulPartitionedCall/input_control_node/_11"], "attr": {"dtype": {"type": "DT_INT32"}, "value": {"tensor": {"dtype": "DT_INT32", "tensorShape": {"dim": [{"size": "4"}]}}}}}, {"name": "StatefulPartitionedCall/autoencoder/StatefulPartitionedCall/processor_group/strided_slice_1", "op": "Const", "input": ["^Func/StatefulPartitionedCall/autoencoder/StatefulPartitionedCall/input_control_node/_11"], "attr": {"dtype": {"type": "DT_FLOAT"}, "value": {"tensor": {"dtype": "DT_FLOAT", "tensorShape": {"dim": [{"size": "1"}, {"size": "1"}, {"size": "60"}]}}}}}, {"name": "StatefulPartitionedCall/autoencoder/StatefulPartitionedCall/processor_group/strided_slice_2/stack", "op": "Const", "input": ["^Func/StatefulPartitionedCall/autoencoder/StatefulPartitionedCall/input_control_node/_11"], "attr": {"dtype": {"type": "DT_INT32"}, "value": {"tensor": {"dtype": "DT_INT32", "tensorShape": {"dim": [{"size": "4"}]}}}}}, {"name": "StatefulPartitionedCall/autoencoder/StatefulPartitionedCall/processor_group/strided_slice_2/stack_1", "op": "Const", "input": ["^Func/StatefulPartitionedCall/autoencoder/StatefulPartitionedCall/input_control_node/_11"], "attr": {"value": {"tensor": {"dtype": "DT_INT32", "tensorShape": {"dim": [{"size": "4"}]}}}, "dtype": {"type": "DT_INT32"}}}, {"name": "StatefulPartitionedCall/autoencoder/StatefulPartitionedCall/processor_group/strided_slice_2/stack_2", "op": "Const", "input": ["^Func/StatefulPartitionedCall/autoencoder/StatefulPartitionedCall/input_control_node/_11"], "attr": {"value": {"tensor": {"dtype": "DT_INT32", "tensorShape": {"dim": [{"size": "4"}]}}}, "dtype": {"type": "DT_INT32"}}}, {"name": "StatefulPartitionedCall/autoencoder/StatefulPartitionedCall/processor_group/resize/size", "op": "Const", "input": ["^Func/StatefulPartitionedCall/autoencoder/StatefulPartitionedCall/input_control_node/_11"], "attr": {"dtype": {"type": "DT_INT32"}, "value": {"tensor": {"dtype": "DT_INT32", "tensorShape": {"dim": [{"size": "2"}]}}}}}, {"name": "StatefulPartitionedCall/autoencoder/StatefulPartitionedCall/processor_group/strided_slice_3/stack", "op": "Const", "input": ["^Func/StatefulPartitionedCall/autoencoder/StatefulPartitionedCall/input_control_node/_11"], "attr": {"dtype": {"type": "DT_INT32"}, "value": {"tensor": {"dtype": "DT_INT32", "tensorShape": {"dim": [{"size": "4"}]}}}}}, {"name": "StatefulPartitionedCall/autoencoder/StatefulPartitionedCall/processor_group/strided_slice_3/stack_1", "op": "Const", "input": ["^Func/StatefulPartitionedCall/autoencoder/StatefulPartitionedCall/input_control_node/_11"], "attr": {"dtype": {"type": "DT_INT32"}, "value": {"tensor": {"dtype": "DT_INT32", "tensorShape": {"dim": [{"size": "4"}]}}}}}, {"name": "StatefulPartitionedCall/autoencoder/StatefulPartitionedCall/processor_group/strided_slice_3/stack_2", "op": "Const", "input": ["^Func/StatefulPartitionedCall/autoencoder/StatefulPartitionedCall/input_control_node/_11"], "attr": {"value": {"tensor": {"dtype": "DT_INT32", "tensorShape": {"dim": [{"size": "4"}]}}}, "dtype": {"type": "DT_INT32"}}}, {"name": "StatefulPartitionedCall/autoencoder/StatefulPartitionedCall/processor_group/mul_6", "op": "Const", "input": ["^Func/StatefulPartitionedCall/autoencoder/StatefulPartitionedCall/input_control_node/_11"], "attr": {"value": {"tensor": {"dtype": "DT_FLOAT", "tensorShape": {}}}, "dtype": {"type": "DT_FLOAT"}}}, {"name": "StatefulPartitionedCall/autoencoder/StatefulPartitionedCall/processor_group/Cumsum/axis", "op": "Const", "input": ["^Func/StatefulPartitionedCall/autoencoder/StatefulPartitionedCall/input_control_node/_11"], "attr": {"value": {"tensor": {"dtype": "DT_INT32", "tensorShape": {}}}, "dtype": {"type": "DT_INT32"}}}, {"name": "StatefulPartitionedCall/autoencoder/StatefulPartitionedCall/processor_group/Sum_1/reduction_indices", "op": "Const", "input": ["^Func/StatefulPartitionedCall/autoencoder/StatefulPartitionedCall/input_control_node/_11"], "attr": {"value": {"tensor": {"dtype": "DT_INT32", "tensorShape": {}}}, "dtype": {"type": "DT_INT32"}}}, {"name": "StatefulPartitionedCall/autoencoder/StatefulPartitionedCall/processor_group/random_uniform/RandomUniform", "op": "RandomUniform", "input": ["StatefulPartitionedCall/autoencoder/StatefulPartitionedCall/processor_group/random_uniform/shape"], "attr": {"dtype": {"type": "DT_FLOAT"}, "seed2": {"i": "0"}, "seed": {"i": "0"}, "T": {"type": "DT_INT32"}}}, {"name": "StatefulPartitionedCall/autoencoder/StatefulPartitionedCall/rnn_fc_decoder_2/gru/TensorArrayV2_1", "op": "TensorListReserve", "input": ["StatefulPartitionedCall/autoencoder/StatefulPartitionedCall/rnn_fc_decoder_2/gru/TensorArrayV2_1/element_shape", "StatefulPartitionedCall/autoencoder/StatefulPartitionedCall/rnn_fc_decoder_2/gru/strided_slice_1"], "attr": {"shape_type": {"type": "DT_INT32"}, "element_dtype": {"type": "DT_FLOAT"}}}, {"name": "StatefulPartitionedCall/autoencoder/StatefulPartitionedCall/strided_slice", "op": "StridedSlice", "input": ["loudness_db", "StatefulPartitionedCall/autoencoder/StatefulPartitionedCall/strided_slice/stack", "StatefulPartitionedCall/autoencoder/StatefulPartitionedCall/strided_slice/stack_1", "StatefulPartitionedCall/autoencoder/StatefulPartitionedCall/strided_slice/stack_2"], "attr": {"T": {"type": "DT_FLOAT"}, "shrink_axis_mask": {"i": "0"}, "Index": {"type": "DT_INT32"}, "begin_mask": {"i": "2"}, "new_axis_mask": {"i": "1"}, "ellipsis_mask": {"i": "0"}, "end_mask": {"i": "2"}}}, {"name": "StatefulPartitionedCall/autoencoder/StatefulPartitionedCall/strided_slice_4", "op": "StridedSlice", "input": ["f0_hz", "StatefulPartitionedCall/autoencoder/StatefulPartitionedCall/strided_slice_4/stack", "StatefulPartitionedCall/autoencoder/StatefulPartitionedCall/strided_slice_4/stack_1", "StatefulPartitionedCall/autoencoder/StatefulPartitionedCall/strided_slice_4/stack_2"], "attr": {"new_axis_mask": {"i": "1"}, "ellipsis_mask": {"i": "0"}, "T": {"type": "DT_FLOAT"}, "shrink_axis_mask": {"i": "0"}, "begin_mask": {"i": "2"}, "end_mask": {"i": "2"}, "Index": {"type": "DT_INT32"}}}, {"name": "StatefulPartitionedCall/autoencoder/StatefulPartitionedCall/processor_group/random_uniform/mul", "op": "Mul", "input": ["StatefulPartitionedCall/autoencoder/StatefulPartitionedCall/processor_group/random_uniform/RandomUniform", "StatefulPartitionedCall/autoencoder/StatefulPartitionedCall/processor_group/random_uniform/sub"], "attr": {"T": {"type": "DT_FLOAT"}}}, {"name": "StatefulPartitionedCall/autoencoder/StatefulPartitionedCall/strided_slice_1", "op": "StridedSlice", "input": ["StatefulPartitionedCall/autoencoder/StatefulPartitionedCall/strided_slice", "StatefulPartitionedCall/autoencoder/StatefulPartitionedCall/strided_slice_1/stack", "StatefulPartitionedCall/autoencoder/StatefulPartitionedCall/strided_slice_1/stack_1", "StatefulPartitionedCall/autoencoder/StatefulPartitionedCall/strided_slice_1/stack_2"], "attr": {"shrink_axis_mask": {"i": "0"}, "T": {"type": "DT_FLOAT"}, "ellipsis_mask": {"i": "0"}, "end_mask": {"i": "3"}, "begin_mask": {"i": "3"}, "new_axis_mask": {"i": "4"}, "Index": {"type": "DT_INT32"}}}, {"name": "StatefulPartitionedCall/autoencoder/StatefulPartitionedCall/strided_slice_5", "op": "StridedSlice", "input": ["StatefulPartitionedCall/autoencoder/StatefulPartitionedCall/strided_slice_4", "StatefulPartitionedCall/autoencoder/StatefulPartitionedCall/strided_slice_5/stack", "StatefulPartitionedCall/autoencoder/StatefulPartitionedCall/strided_slice_5/stack_1", "StatefulPartitionedCall/autoencoder/StatefulPartitionedCall/strided_slice_5/stack_2"], "attr": {"Index": {"type": "DT_INT32"}, "ellipsis_mask": {"i": "0"}, "new_axis_mask": {"i": "4"}, "begin_mask": {"i": "3"}, "shrink_axis_mask": {"i": "0"}, "end_mask": {"i": "3"}, "T": {"type": "DT_FLOAT"}}}, {"name": "StatefulPartitionedCall/autoencoder/StatefulPartitionedCall/processor_group/random_uniform", "op": "Add", "input": ["StatefulPartitionedCall/autoencoder/StatefulPartitionedCall/processor_group/random_uniform/mul", "StatefulPartitionedCall/autoencoder/StatefulPartitionedCall/processor_group/random_uniform/min"], "attr": {"T": {"type": "DT_FLOAT"}}}, {"name": "StatefulPartitionedCall/autoencoder/StatefulPartitionedCall/strided_slice_2", "op": "StridedSlice", "input": ["StatefulPartitionedCall/autoencoder/StatefulPartitionedCall/strided_slice_1", "StatefulPartitionedCall/autoencoder/StatefulPartitionedCall/strided_slice_2/stack", "StatefulPartitionedCall/autoencoder/StatefulPartitionedCall/strided_slice_2/stack_1", "StatefulPartitionedCall/autoencoder/StatefulPartitionedCall/strided_slice_2/stack_2"], "attr": {"end_mask": {"i": "11"}, "Index": {"type": "DT_INT32"}, "shrink_axis_mask": {"i": "0"}, "T": {"type": "DT_FLOAT"}, "ellipsis_mask": {"i": "0"}, "begin_mask": {"i": "11"}, "new_axis_mask": {"i": "4"}}}, {"name": "StatefulPartitionedCall/autoencoder/StatefulPartitionedCall/strided_slice_6", "op": "StridedSlice", "input": ["StatefulPartitionedCall/autoencoder/StatefulPartitionedCall/strided_slice_5", "StatefulPartitionedCall/autoencoder/StatefulPartitionedCall/strided_slice_6/stack", "StatefulPartitionedCall/autoencoder/StatefulPartitionedCall/strided_slice_6/stack_1", "StatefulPartitionedCall/autoencoder/StatefulPartitionedCall/strided_slice_6/stack_2"], "attr": {"end_mask": {"i": "11"}, "T": {"type": "DT_FLOAT"}, "Index": {"type": "DT_INT32"}, "begin_mask": {"i": "11"}, "ellipsis_mask": {"i": "0"}, "new_axis_mask": {"i": "4"}, "shrink_axis_mask": {"i": "0"}}}, {"name": "StatefulPartitionedCall/autoencoder/StatefulPartitionedCall/processor_group/frame/Reshape", "op": "Reshape", "input": ["StatefulPartitionedCall/autoencoder/StatefulPartitionedCall/processor_group/random_uniform", "StatefulPartitionedCall/autoencoder/StatefulPartitionedCall/processor_group/frame/concat_2"], "attr": {"T": {"type": "DT_FLOAT"}, "Tshape": {"type": "DT_INT32"}}}, {"name": "StatefulPartitionedCall/autoencoder/StatefulPartitionedCall/resize/ResizeBilinear", "op": "ResizeBilinear", "input": ["StatefulPartitionedCall/autoencoder/StatefulPartitionedCall/strided_slice_2", "StatefulPartitionedCall/autoencoder/StatefulPartitionedCall/resize/size"], "attr": {"align_corners": {"b": false}, "T": {"type": "DT_FLOAT"}, "half_pixel_centers": {"b": false}}}, {"name": "StatefulPartitionedCall/autoencoder/StatefulPartitionedCall/resize_1/ResizeBilinear", "op": "ResizeBilinear", "input": ["StatefulPartitionedCall/autoencoder/StatefulPartitionedCall/strided_slice_6", "StatefulPartitionedCall/autoencoder/StatefulPartitionedCall/resize_1/size"], "attr": {"align_corners": {"b": false}, "half_pixel_centers": {"b": false}, "T": {"type": "DT_FLOAT"}}}, {"name": "StatefulPartitionedCall/autoencoder/StatefulPartitionedCall/processor_group/frame/GatherV2", "op": "GatherV2", "input": ["StatefulPartitionedCall/autoencoder/StatefulPartitionedCall/processor_group/frame/Reshape", "StatefulPartitionedCall/autoencoder/StatefulPartitionedCall/processor_group/frame/add_1", "StatefulPartitionedCall/autoencoder/StatefulPartitionedCall/processor_group/frame/GatherV2/axis"], "attr": {"Taxis": {"type": "DT_INT32"}, "Tparams": {"type": "DT_FLOAT"}, "Tindices": {"type": "DT_INT32"}, "batch_dims": {"i": "0"}}}, {"name": "StatefulPartitionedCall/autoencoder/StatefulPartitionedCall/strided_slice_3", "op": "StridedSlice", "input": ["StatefulPartitionedCall/autoencoder/StatefulPartitionedCall/resize/ResizeBilinear", "StatefulPartitionedCall/autoencoder/StatefulPartitionedCall/strided_slice_3/stack", "StatefulPartitionedCall/autoencoder/StatefulPartitionedCall/strided_slice_3/stack_1", "StatefulPartitionedCall/autoencoder/StatefulPartitionedCall/strided_slice_3/stack_2"], "attr": {"Index": {"type": "DT_INT32"}, "T": {"type": "DT_FLOAT"}, "end_mask": {"i": "11"}, "ellipsis_mask": {"i": "0"}, "shrink_axis_mask": {"i": "4"}, "new_axis_mask": {"i": "0"}, "begin_mask": {"i": "11"}}}, {"name": "StatefulPartitionedCall/autoencoder/StatefulPartitionedCall/strided_slice_7", "op": "StridedSlice", "input": ["StatefulPartitionedCall/autoencoder/StatefulPartitionedCall/resize_1/ResizeBilinear", "StatefulPartitionedCall/autoencoder/StatefulPartitionedCall/strided_slice_7/stack", "StatefulPartitionedCall/autoencoder/StatefulPartitionedCall/strided_slice_7/stack_1", "StatefulPartitionedCall/autoencoder/StatefulPartitionedCall/strided_slice_7/stack_2"], "attr": {"Index": {"type": "DT_INT32"}, "shrink_axis_mask": {"i": "4"}, "T": {"type": "DT_FLOAT"}, "new_axis_mask": {"i": "0"}, "begin_mask": {"i": "11"}, "end_mask": {"i": "11"}, "ellipsis_mask": {"i": "0"}}}, {"name": "StatefulPartitionedCall/autoencoder/StatefulPartitionedCall/processor_group/frame/Reshape_3", "op": "Reshape", "input": ["StatefulPartitionedCall/autoencoder/StatefulPartitionedCall/processor_group/frame/GatherV2", "StatefulPartitionedCall/autoencoder/StatefulPartitionedCall/processor_group/frame/concat_3"], "attr": {"Tshape": {"type": "DT_INT32"}, "T": {"type": "DT_FLOAT"}}}, {"name": "StatefulPartitionedCall/autoencoder/StatefulPartitionedCall/truediv_3", "op": "Mul", "input": ["StatefulPartitionedCall/autoencoder/StatefulPartitionedCall/strided_slice_3", "ConstantFolding/StatefulPartitionedCall/autoencoder/StatefulPartitionedCall/truediv_3_recip"], "attr": {"T": {"type": "DT_FLOAT"}}}, {"name": "StatefulPartitionedCall/autoencoder/StatefulPartitionedCall/processor_group/mul_2", "op": "Mul", "input": ["StatefulPartitionedCall/autoencoder/StatefulPartitionedCall/strided_slice_7", "StatefulPartitionedCall/autoencoder/StatefulPartitionedCall/processor_group/strided_slice"], "attr": {"T": {"type": "DT_FLOAT"}}}, {"name": "StatefulPartitionedCall/autoencoder/StatefulPartitionedCall/Log", "op": "Log", "input": ["StatefulPartitionedCall/autoencoder/StatefulPartitionedCall/strided_slice_7"], "attr": {"T": {"type": "DT_FLOAT"}}}, {"name": "StatefulPartitionedCall/autoencoder/StatefulPartitionedCall/processor_group/mul_3", "op": "Mul", "input": ["StatefulPartitionedCall/autoencoder/StatefulPartitionedCall/strided_slice_7", "StatefulPartitionedCall/autoencoder/StatefulPartitionedCall/processor_group/strided_slice_1"], "attr": {"T": {"type": "DT_FLOAT"}}}, {"name": "StatefulPartitionedCall/autoencoder/StatefulPartitionedCall/processor_group/rfft/Pad", "op": "Pad", "input": ["StatefulPartitionedCall/autoencoder/StatefulPartitionedCall/processor_group/frame/Reshape_3", "StatefulPartitionedCall/autoencoder/StatefulPartitionedCall/processor_group/rfft/Pad/paddings"], "attr": {"Tpaddings": {"type": "DT_INT32"}, "T": {"type": "DT_FLOAT"}}}, {"name": "StatefulPartitionedCall/autoencoder/StatefulPartitionedCall/add_1", "op": "AddV2", "input": ["StatefulPartitionedCall/autoencoder/StatefulPartitionedCall/truediv_3", "StatefulPartitionedCall/autoencoder/StatefulPartitionedCall/add_1/y"], "attr": {"T": {"type": "DT_FLOAT"}}}, {"name": "StatefulPartitionedCall/autoencoder/StatefulPartitionedCall/processor_group/GreaterEqual", "op": "GreaterEqual", "input": ["StatefulPartitionedCall/autoencoder/StatefulPartitionedCall/processor_group/mul_2", "StatefulPartitionedCall/autoencoder/StatefulPartitionedCall/processor_group/GreaterEqual/y"], "attr": {"T": {"type": "DT_FLOAT"}}}, {"name": "StatefulPartitionedCall/autoencoder/StatefulPartitionedCall/truediv", "op": "Mul", "input": ["StatefulPartitionedCall/autoencoder/StatefulPartitionedCall/Log", "ConstantFolding/StatefulPartitionedCall/autoencoder/StatefulPartitionedCall/truediv_recip"], "attr": {"T": {"type": "DT_FLOAT"}}}, {"name": "StatefulPartitionedCall/autoencoder/StatefulPartitionedCall/processor_group/strided_slice_2", "op": "StridedSlice", "input": ["StatefulPartitionedCall/autoencoder/StatefulPartitionedCall/processor_group/mul_3", "StatefulPartitionedCall/autoencoder/StatefulPartitionedCall/processor_group/strided_slice_2/stack", "StatefulPartitionedCall/autoencoder/StatefulPartitionedCall/processor_group/strided_slice_2/stack_1", "StatefulPartitionedCall/autoencoder/StatefulPartitionedCall/processor_group/strided_slice_2/stack_2"], "attr": {"Index": {"type": "DT_INT32"}, "shrink_axis_mask": {"i": "0"}, "end_mask": {"i": "11"}, "new_axis_mask": {"i": "4"}, "ellipsis_mask": {"i": "0"}, "T": {"type": "DT_FLOAT"}, "begin_mask": {"i": "11"}}}, {"name": "StatefulPartitionedCall/autoencoder/StatefulPartitionedCall/processor_group/rfft", "op": "RFFT", "input": ["StatefulPartitionedCall/autoencoder/StatefulPartitionedCall/processor_group/rfft/Pad", "StatefulPartitionedCall/autoencoder/StatefulPartitionedCall/processor_group/rfft/fft_length"], "attr": {"Treal": {"type": "DT_FLOAT"}, "Tcomplex": {"type": "DT_COMPLEX64"}}}, {"name": "StatefulPartitionedCall/autoencoder/StatefulPartitionedCall/sub", "op": "Sub", "input": ["StatefulPartitionedCall/autoencoder/StatefulPartitionedCall/truediv", "StatefulPartitionedCall/autoencoder/StatefulPartitionedCall/truediv_1"], "attr": {"T": {"type": "DT_FLOAT"}}}, {"name": "StatefulPartitionedCall/autoencoder/StatefulPartitionedCall/processor_group/resize/ResizeBilinear", "op": "ResizeBilinear", "input": ["StatefulPartitionedCall/autoencoder/StatefulPartitionedCall/processor_group/strided_slice_2", "StatefulPartitionedCall/autoencoder/StatefulPartitionedCall/processor_group/resize/size"], "attr": {"half_pixel_centers": {"b": false}, "align_corners": {"b": false}, "T": {"type": "DT_FLOAT"}}}, {"name": "StatefulPartitionedCall/autoencoder/StatefulPartitionedCall/mul", "op": "Mul", "input": ["StatefulPartitionedCall/autoencoder/StatefulPartitionedCall/mul/x", "StatefulPartitionedCall/autoencoder/StatefulPartitionedCall/sub"], "attr": {"T": {"type": "DT_FLOAT"}}}, {"name": "StatefulPartitionedCall/autoencoder/StatefulPartitionedCall/processor_group/strided_slice_3", "op": "StridedSlice", "input": ["StatefulPartitionedCall/autoencoder/StatefulPartitionedCall/processor_group/resize/ResizeBilinear", "StatefulPartitionedCall/autoencoder/StatefulPartitionedCall/processor_group/strided_slice_3/stack", "StatefulPartitionedCall/autoencoder/StatefulPartitionedCall/processor_group/strided_slice_3/stack_1", "StatefulPartitionedCall/autoencoder/StatefulPartitionedCall/processor_group/strided_slice_3/stack_2"], "attr": {"end_mask": {"i": "11"}, "Index": {"type": "DT_INT32"}, "shrink_axis_mask": {"i": "4"}, "new_axis_mask": {"i": "0"}, "begin_mask": {"i": "11"}, "ellipsis_mask": {"i": "0"}, "T": {"type": "DT_FLOAT"}}}, {"name": "StatefulPartitionedCall/autoencoder/StatefulPartitionedCall/add", "op": "AddV2", "input": ["StatefulPartitionedCall/autoencoder/StatefulPartitionedCall/mul", "StatefulPartitionedCall/autoencoder/StatefulPartitionedCall/add/y"], "attr": {"T": {"type": "DT_FLOAT"}}}, {"name": "StatefulPartitionedCall/autoencoder/StatefulPartitionedCall/processor_group/GreaterEqual_1", "op": "GreaterEqual", "input": ["StatefulPartitionedCall/autoencoder/StatefulPartitionedCall/processor_group/strided_slice_3", "StatefulPartitionedCall/autoencoder/StatefulPartitionedCall/processor_group/GreaterEqual_1/y"], "attr": {"T": {"type": "DT_FLOAT"}}}, {"name": "StatefulPartitionedCall/autoencoder/StatefulPartitionedCall/processor_group/truediv_1", "op": "Mul", "input": ["StatefulPartitionedCall/autoencoder/StatefulPartitionedCall/processor_group/strided_slice_3", "StatefulPartitionedCall/autoencoder/StatefulPartitionedCall/processor_group/mul_6"], "attr": {"T": {"type": "DT_FLOAT"}}}, {"name": "StatefulPartitionedCall/autoencoder/StatefulPartitionedCall/Equal", "op": "Equal", "input": ["StatefulPartitionedCall/autoencoder/StatefulPartitionedCall/add", "StatefulPartitionedCall/autoencoder/StatefulPartitionedCall/Equal/y"], "attr": {"T": {"type": "DT_FLOAT"}, "incompatible_shape_error": {"b": true}}}, {"name": "StatefulPartitionedCall/autoencoder/StatefulPartitionedCall/processor_group/Cumsum", "op": "Cumsum", "input": ["StatefulPartitionedCall/autoencoder/StatefulPartitionedCall/processor_group/truediv_1", "StatefulPartitionedCall/autoencoder/StatefulPartitionedCall/processor_group/Cumsum/axis"], "attr": {"reverse": {"b": false}, "T": {"type": "DT_FLOAT"}, "Tidx": {"type": "DT_INT32"}, "exclusive": {"b": false}}}, {"name": "StatefulPartitionedCall/autoencoder/StatefulPartitionedCall/SelectV2", "op": "SelectV2", "input": ["StatefulPartitionedCall/autoencoder/StatefulPartitionedCall/Equal", "StatefulPartitionedCall/autoencoder/StatefulPartitionedCall/SelectV2/t", "StatefulPartitionedCall/autoencoder/StatefulPartitionedCall/add"], "attr": {"T": {"type": "DT_FLOAT"}}}, {"name": "StatefulPartitionedCall/autoencoder/StatefulPartitionedCall/processor_group/Sin", "op": "Sin", "input": ["StatefulPartitionedCall/autoencoder/StatefulPartitionedCall/processor_group/Cumsum"], "attr": {"T": {"type": "DT_FLOAT"}}}, {"name": "StatefulPartitionedCall/autoencoder/StatefulPartitionedCall/truediv_2", "op": "Mul", "input": ["StatefulPartitionedCall/autoencoder/StatefulPartitionedCall/SelectV2", "ConstantFolding/StatefulPartitionedCall/autoencoder/StatefulPartitionedCall/truediv_2_recip"], "attr": {"T": {"type": "DT_FLOAT"}}}, {"name": "StatefulPartitionedCall/autoencoder/StatefulPartitionedCall/rnn_fc_decoder_2/concat", "op": "ConcatV2", "input": ["StatefulPartitionedCall/autoencoder/StatefulPartitionedCall/add_1", "StatefulPartitionedCall/autoencoder/StatefulPartitionedCall/truediv_2", "StatefulPartitionedCall/autoencoder/StatefulPartitionedCall/rnn_fc_decoder_2/concat/axis"], "attr": {"Tidx": {"type": "DT_INT32"}, "N": {"i": "2"}, "T": {"type": "DT_FLOAT"}}}, {"name": "StatefulPartitionedCall/autoencoder/StatefulPartitionedCall/rnn_fc_decoder_2/gru/transpose", "op": "Transpose", "input": ["StatefulPartitionedCall/autoencoder/StatefulPartitionedCall/rnn_fc_decoder_2/concat", "StatefulPartitionedCall/autoencoder/StatefulPartitionedCall/rnn_fc_decoder_2/gru/transpose/perm"], "attr": {"T": {"type": "DT_FLOAT"}, "Tperm": {"type": "DT_INT32"}}}, {"name": "StatefulPartitionedCall/autoencoder/StatefulPartitionedCall/rnn_fc_decoder_2/gru/TensorArrayUnstack/TensorListFromTensor", "op": "TensorListFromTensor", "input": ["StatefulPartitionedCall/autoencoder/StatefulPartitionedCall/rnn_fc_decoder_2/gru/transpose", "StatefulPartitionedCall/autoencoder/StatefulPartitionedCall/rnn_fc_decoder_2/gru/TensorArrayUnstack/TensorListFromTensor/element_shape"], "attr": {"shape_type": {"type": "DT_INT32"}, "element_dtype": {"type": "DT_FLOAT"}}}, {"name": "StatefulPartitionedCall/autoencoder/StatefulPartitionedCall/rnn_fc_decoder_2/gru/while", "op": "While", "input": ["StatefulPartitionedCall/autoencoder/StatefulPartitionedCall/rnn_fc_decoder_2/gru/while/loop_counter", "StatefulPartitionedCall/autoencoder/StatefulPartitionedCall/rnn_fc_decoder_2/gru/while/maximum_iterations", "StatefulPartitionedCall/autoencoder/StatefulPartitionedCall/rnn_fc_decoder_2/gru/time", "StatefulPartitionedCall/autoencoder/StatefulPartitionedCall/rnn_fc_decoder_2/gru/TensorArrayV2_1", "StatefulPartitionedCall/autoencoder/StatefulPartitionedCall/rnn_fc_decoder_2/gru/zeros", "StatefulPartitionedCall/autoencoder/StatefulPartitionedCall/rnn_fc_decoder_2/gru/strided_slice_1", "StatefulPartitionedCall/autoencoder/StatefulPartitionedCall/rnn_fc_decoder_2/gru/TensorArrayUnstack/TensorListFromTensor", "Func/StatefulPartitionedCall/autoencoder/StatefulPartitionedCall/input/_16", "Func/StatefulPartitionedCall/autoencoder/StatefulPartitionedCall/input/_17", "Func/StatefulPartitionedCall/autoencoder/StatefulPartitionedCall/input/_18"], "attr": {"_lower_using_switch_merge": {"b": false}, "parallel_iterations": {"i": "32"}, "T": {"list": {"type": ["DT_INT32", "DT_INT32", "DT_INT32", "DT_VARIANT", "DT_FLOAT", "DT_INT32", "DT_VARIANT", "DT_FLOAT", "DT_FLOAT", "DT_FLOAT"]}}, "_read_only_resource_inputs": {"list": {"i": ["7", "8", "9"]}}, "_num_original_outputs": {"i": "10"}, "body": {"func": {"name": "__inference_rnn_fc_decoder_2_gru_while_body_29632_5213_frozen"}}, "output_shapes": {"list": {"shape": [{}, {}, {}, {}, {"dim": [{"size": "1"}, {"size": "256"}]}, {}, {}, {"dim": [{"size": "2"}, {"size": "768"}]}, {"dim": [{"size": "2"}, {"size": "768"}]}, {"dim": [{"size": "256"}, {"size": "768"}]}]}}, "cond": {"func": {"name": "__inference_rnn_fc_decoder_2_gru_while_cond_29631_887_frozen"}}}}, {"name": "StatefulPartitionedCall/autoencoder/StatefulPartitionedCall/rnn_fc_decoder_2/gru/TensorArrayV2Stack/TensorListStack", "op": "TensorListStack", "input": ["StatefulPartitionedCall/autoencoder/StatefulPartitionedCall/rnn_fc_decoder_2/gru/while:3", "StatefulPartitionedCall/autoencoder/StatefulPartitionedCall/rnn_fc_decoder_2/gru/TensorArrayV2Stack/TensorListStack/element_shape"], "attr": {"num_elements": {"i": "-1"}, "element_dtype": {"type": "DT_FLOAT"}}}, {"name": "StatefulPartitionedCall/autoencoder/StatefulPartitionedCall/rnn_fc_decoder_2/gru/transpose_1", "op": "Transpose", "input": ["StatefulPartitionedCall/autoencoder/StatefulPartitionedCall/rnn_fc_decoder_2/gru/TensorArrayV2Stack/TensorListStack", "StatefulPartitionedCall/autoencoder/StatefulPartitionedCall/rnn_fc_decoder_2/gru/transpose_1/perm"], "attr": {"T": {"type": "DT_FLOAT"}, "Tperm": {"type": "DT_INT32"}}}, {"name": "StatefulPartitionedCall/autoencoder/StatefulPartitionedCall/rnn_fc_decoder_2/concat_1", "op": "ConcatV2", "input": ["StatefulPartitionedCall/autoencoder/StatefulPartitionedCall/add_1", "StatefulPartitionedCall/autoencoder/StatefulPartitionedCall/truediv_2", "StatefulPartitionedCall/autoencoder/StatefulPartitionedCall/rnn_fc_decoder_2/gru/transpose_1", "StatefulPartitionedCall/autoencoder/StatefulPartitionedCall/rnn_fc_decoder_2/concat_1/axis"], "attr": {"N": {"i": "3"}, "Tidx": {"type": "DT_INT32"}, "T": {"type": "DT_FLOAT"}}}, {"name": "StatefulPartitionedCall/autoencoder/StatefulPartitionedCall/rnn_fc_decoder_2/dense/Tensordot/Reshape", "op": "Reshape", "input": ["StatefulPartitionedCall/autoencoder/StatefulPartitionedCall/rnn_fc_decoder_2/concat_1", "StatefulPartitionedCall/autoencoder/StatefulPartitionedCall/rnn_fc_decoder_2/dense/Tensordot/Reshape/shape"], "attr": {"Tshape": {"type": "DT_INT32"}, "T": {"type": "DT_FLOAT"}}}, {"name": "StatefulPartitionedCall/autoencoder/StatefulPartitionedCall/rnn_fc_decoder_2/dense/Tensordot/MatMul", "op": "MatMul", "input": ["StatefulPartitionedCall/autoencoder/StatefulPartitionedCall/rnn_fc_decoder_2/dense/Tensordot/Reshape", "Func/StatefulPartitionedCall/autoencoder/StatefulPartitionedCall/input/_19"], "device": "/device:CPU:0", "attr": {"transpose_a": {"b": false}, "transpose_b": {"b": false}, "T": {"type": "DT_FLOAT"}}}, {"name": "StatefulPartitionedCall/autoencoder/StatefulPartitionedCall/rnn_fc_decoder_2/dense/Tensordot", "op": "Reshape", "input": ["StatefulPartitionedCall/autoencoder/StatefulPartitionedCall/rnn_fc_decoder_2/dense/Tensordot/MatMul", "StatefulPartitionedCall/autoencoder/StatefulPartitionedCall/rnn_fc_decoder_2/dense/Tensordot/shape"], "attr": {"T": {"type": "DT_FLOAT"}, "Tshape": {"type": "DT_INT32"}}}, {"name": "StatefulPartitionedCall/autoencoder/StatefulPartitionedCall/rnn_fc_decoder_2/dense/BiasAdd", "op": "BiasAdd", "input": ["StatefulPartitionedCall/autoencoder/StatefulPartitionedCall/rnn_fc_decoder_2/dense/Tensordot", "Func/StatefulPartitionedCall/autoencoder/StatefulPartitionedCall/input/_20"], "attr": {"T": {"type": "DT_FLOAT"}, "data_format": {"s": "TkhXQw=="}}}, {"name": "StatefulPartitionedCall/autoencoder/StatefulPartitionedCall/rnn_fc_decoder_2/split", "op": "SplitV", "input": ["StatefulPartitionedCall/autoencoder/StatefulPartitionedCall/rnn_fc_decoder_2/dense/BiasAdd", "StatefulPartitionedCall/autoencoder/StatefulPartitionedCall/rnn_fc_decoder_2/Const", "StatefulPartitionedCall/autoencoder/StatefulPartitionedCall/rnn_fc_decoder_2/split/split_dim"], "attr": {"Tlen": {"type": "DT_INT32"}, "num_split": {"i": "3"}, "T": {"type": "DT_FLOAT"}}}, {"name": "StatefulPartitionedCall/autoencoder/StatefulPartitionedCall/processor_group/Sigmoid", "op": "Sigmoid", "input": ["StatefulPartitionedCall/autoencoder/StatefulPartitionedCall/rnn_fc_decoder_2/split"], "attr": {"T": {"type": "DT_FLOAT"}}}, {"name": "StatefulPartitionedCall/autoencoder/StatefulPartitionedCall/processor_group/Sigmoid_1", "op": "Sigmoid", "input": ["StatefulPartitionedCall/autoencoder/StatefulPartitionedCall/rnn_fc_decoder_2/split:1"], "attr": {"T": {"type": "DT_FLOAT"}}}, {"name": "StatefulPartitionedCall/autoencoder/StatefulPartitionedCall/processor_group/add_2", "op": "AddV2", "input": ["StatefulPartitionedCall/autoencoder/StatefulPartitionedCall/rnn_fc_decoder_2/split:2", "StatefulPartitionedCall/autoencoder/StatefulPartitionedCall/processor_group/add_2/y"], "attr": {"T": {"type": "DT_FLOAT"}}}, {"name": "StatefulPartitionedCall/autoencoder/StatefulPartitionedCall/processor_group/pow", "op": "Pow", "input": ["StatefulPartitionedCall/autoencoder/StatefulPartitionedCall/processor_group/Sigmoid", "StatefulPartitionedCall/autoencoder/StatefulPartitionedCall/processor_group/Log"], "attr": {"T": {"type": "DT_FLOAT"}}}, {"name": "StatefulPartitionedCall/autoencoder/StatefulPartitionedCall/processor_group/pow_1", "op": "Pow", "input": ["StatefulPartitionedCall/autoencoder/StatefulPartitionedCall/processor_group/Sigmoid_1", "StatefulPartitionedCall/autoencoder/StatefulPartitionedCall/processor_group/Log_1"], "attr": {"T": {"type": "DT_FLOAT"}}}, {"name": "StatefulPartitionedCall/autoencoder/StatefulPartitionedCall/processor_group/Sigmoid_2", "op": "Sigmoid", "input": ["StatefulPartitionedCall/autoencoder/StatefulPartitionedCall/processor_group/add_2"], "attr": {"T": {"type": "DT_FLOAT"}}}, {"name": "StatefulPartitionedCall/autoencoder/StatefulPartitionedCall/processor_group/mul", "op": "Mul", "input": ["StatefulPartitionedCall/autoencoder/StatefulPartitionedCall/processor_group/mul/x", "StatefulPartitionedCall/autoencoder/StatefulPartitionedCall/processor_group/pow"], "attr": {"T": {"type": "DT_FLOAT"}}}, {"name": "StatefulPartitionedCall/autoencoder/StatefulPartitionedCall/processor_group/mul_1", "op": "Mul", "input": ["StatefulPartitionedCall/autoencoder/StatefulPartitionedCall/processor_group/mul_1/x", "StatefulPartitionedCall/autoencoder/StatefulPartitionedCall/processor_group/pow_1"], "attr": {"T": {"type": "DT_FLOAT"}}}, {"name": "StatefulPartitionedCall/autoencoder/StatefulPartitionedCall/processor_group/pow_2", "op": "Pow", "input": ["StatefulPartitionedCall/autoencoder/StatefulPartitionedCall/processor_group/Sigmoid_2", "StatefulPartitionedCall/autoencoder/StatefulPartitionedCall/processor_group/Log_2"], "attr": {"T": {"type": "DT_FLOAT"}}}, {"name": "StatefulPartitionedCall/autoencoder/StatefulPartitionedCall/processor_group/add", "op": "AddV2", "input": ["StatefulPartitionedCall/autoencoder/StatefulPartitionedCall/processor_group/mul", "StatefulPartitionedCall/autoencoder/StatefulPartitionedCall/processor_group/add/y"], "attr": {"T": {"type": "DT_FLOAT"}}}, {"name": "StatefulPartitionedCall/autoencoder/StatefulPartitionedCall/processor_group/add_1", "op": "AddV2", "input": ["StatefulPartitionedCall/autoencoder/StatefulPartitionedCall/processor_group/mul_1", "StatefulPartitionedCall/autoencoder/StatefulPartitionedCall/processor_group/add_1/y"], "attr": {"T": {"type": "DT_FLOAT"}}}, {"name": "StatefulPartitionedCall/autoencoder/StatefulPartitionedCall/processor_group/mul_8", "op": "Mul", "input": ["StatefulPartitionedCall/autoencoder/StatefulPartitionedCall/processor_group/mul_8/x", "StatefulPartitionedCall/autoencoder/StatefulPartitionedCall/processor_group/pow_2"], "attr": {"T": {"type": "DT_FLOAT"}}}, {"name": "StatefulPartitionedCall/autoencoder/StatefulPartitionedCall/processor_group/SelectV2", "op": "SelectV2", "input": ["StatefulPartitionedCall/autoencoder/StatefulPartitionedCall/processor_group/GreaterEqual", "StatefulPartitionedCall/autoencoder/StatefulPartitionedCall/processor_group/zeros_like", "StatefulPartitionedCall/autoencoder/StatefulPartitionedCall/processor_group/add_1"], "attr": {"T": {"type": "DT_FLOAT"}}}, {"name": "StatefulPartitionedCall/autoencoder/StatefulPartitionedCall/processor_group/add_3", "op": "AddV2", "input": ["StatefulPartitionedCall/autoencoder/StatefulPartitionedCall/processor_group/mul_8", "StatefulPartitionedCall/autoencoder/StatefulPartitionedCall/processor_group/add_3/y"], "attr": {"T": {"type": "DT_FLOAT"}}}, {"name": "StatefulPartitionedCall/autoencoder/StatefulPartitionedCall/processor_group/Sum", "op": "Sum", "input": ["StatefulPartitionedCall/autoencoder/StatefulPartitionedCall/processor_group/SelectV2", "StatefulPartitionedCall/autoencoder/StatefulPartitionedCall/processor_group/Sum/reduction_indices"], "attr": {"T": {"type": "DT_FLOAT"}, "Tidx": {"type": "DT_INT32"}, "keep_dims": {"b": true}}}, {"name": "StatefulPartitionedCall/autoencoder/StatefulPartitionedCall/processor_group/Complex", "op": "Complex", "input": ["StatefulPartitionedCall/autoencoder/StatefulPartitionedCall/processor_group/add_3", "StatefulPartitionedCall/autoencoder/StatefulPartitionedCall/processor_group/zeros_like_2"], "attr": {"Tout": {"type": "DT_COMPLEX64"}, "T": {"type": "DT_FLOAT"}}}, {"name": "StatefulPartitionedCall/autoencoder/StatefulPartitionedCall/processor_group/truediv", "op": "RealDiv", "input": ["StatefulPartitionedCall/autoencoder/StatefulPartitionedCall/processor_group/SelectV2", "StatefulPartitionedCall/autoencoder/StatefulPartitionedCall/processor_group/Sum"], "attr": {"T": {"type": "DT_FLOAT"}}}, {"name": "StatefulPartitionedCall/autoencoder/StatefulPartitionedCall/processor_group/irfft", "op": "IRFFT", "input": ["StatefulPartitionedCall/autoencoder/StatefulPartitionedCall/processor_group/Complex", "StatefulPartitionedCall/autoencoder/StatefulPartitionedCall/processor_group/irfft/fft_length"], "attr": {"Tcomplex": {"type": "DT_COMPLEX64"}, "Treal": {"type": "DT_FLOAT"}}}, {"name": "StatefulPartitionedCall/autoencoder/StatefulPartitionedCall/processor_group/mul_4", "op": "Mul", "input": ["StatefulPartitionedCall/autoencoder/StatefulPartitionedCall/processor_group/add", "StatefulPartitionedCall/autoencoder/StatefulPartitionedCall/processor_group/truediv"], "attr": {"T": {"type": "DT_FLOAT"}}}, {"name": "StatefulPartitionedCall/autoencoder/StatefulPartitionedCall/processor_group/mul_9", "op": "Mul", "input": ["StatefulPartitionedCall/autoencoder/StatefulPartitionedCall/processor_group/BroadcastTo", "StatefulPartitionedCall/autoencoder/StatefulPartitionedCall/processor_group/irfft"], "attr": {"T": {"type": "DT_FLOAT"}}}, {"name": "StatefulPartitionedCall/autoencoder/StatefulPartitionedCall/processor_group/strided_slice_4", "op": "StridedSlice", "input": ["StatefulPartitionedCall/autoencoder/StatefulPartitionedCall/processor_group/mul_4", "StatefulPartitionedCall/autoencoder/StatefulPartitionedCall/processor_group/strided_slice_4/stack", "StatefulPartitionedCall/autoencoder/StatefulPartitionedCall/processor_group/strided_slice_4/stack_1", "StatefulPartitionedCall/autoencoder/StatefulPartitionedCall/processor_group/strided_slice_4/stack_2"], "attr": {"shrink_axis_mask": {"i": "0"}, "begin_mask": {"i": "5"}, "new_axis_mask": {"i": "0"}, "T": {"type": "DT_FLOAT"}, "ellipsis_mask": {"i": "0"}, "Index": {"type": "DT_INT32"}, "end_mask": {"i": "7"}}}, {"name": "StatefulPartitionedCall/autoencoder/StatefulPartitionedCall/processor_group/fftshift_1", "op": "Roll", "input": ["StatefulPartitionedCall/autoencoder/StatefulPartitionedCall/processor_group/mul_9", "StatefulPartitionedCall/autoencoder/StatefulPartitionedCall/processor_group/fftshift_1/floordiv", "StatefulPartitionedCall/autoencoder/StatefulPartitionedCall/processor_group/fftshift_1/axis"], "attr": {"T": {"type": "DT_FLOAT"}, "Taxis": {"type": "DT_INT32"}, "Tshift": {"type": "DT_INT32"}}}, {"name": "StatefulPartitionedCall/autoencoder/StatefulPartitionedCall/processor_group/concat", "op": "ConcatV2", "input": ["StatefulPartitionedCall/autoencoder/StatefulPartitionedCall/processor_group/mul_4", "StatefulPartitionedCall/autoencoder/StatefulPartitionedCall/processor_group/strided_slice_4", "StatefulPartitionedCall/autoencoder/StatefulPartitionedCall/processor_group/concat/axis"], "attr": {"N": {"i": "2"}, "T": {"type": "DT_FLOAT"}, "Tidx": {"type": "DT_INT32"}}}, {"name": "StatefulPartitionedCall/autoencoder/StatefulPartitionedCall/processor_group/rfft_1/Pad", "op": "Pad", "input": ["StatefulPartitionedCall/autoencoder/StatefulPartitionedCall/processor_group/fftshift_1", "StatefulPartitionedCall/autoencoder/StatefulPartitionedCall/processor_group/rfft_1/Pad/paddings"], "attr": {"Tpaddings": {"type": "DT_INT32"}, "T": {"type": "DT_FLOAT"}}}, {"name": "StatefulPartitionedCall/autoencoder/StatefulPartitionedCall/processor_group/transpose", "op": "Transpose", "input": ["StatefulPartitionedCall/autoencoder/StatefulPartitionedCall/processor_group/concat", "StatefulPartitionedCall/autoencoder/StatefulPartitionedCall/processor_group/transpose/perm"], "attr": {"Tperm": {"type": "DT_INT32"}, "T": {"type": "DT_FLOAT"}}}, {"name": "StatefulPartitionedCall/autoencoder/StatefulPartitionedCall/processor_group/rfft_1", "op": "RFFT", "input": ["StatefulPartitionedCall/autoencoder/StatefulPartitionedCall/processor_group/rfft_1/Pad", "StatefulPartitionedCall/autoencoder/StatefulPartitionedCall/processor_group/rfft_1/fft_length"], "attr": {"Treal": {"type": "DT_FLOAT"}, "Tcomplex": {"type": "DT_COMPLEX64"}}}, {"name": "StatefulPartitionedCall/autoencoder/StatefulPartitionedCall/processor_group/strided_slice_5", "op": "StridedSlice", "input": ["StatefulPartitionedCall/autoencoder/StatefulPartitionedCall/processor_group/transpose", "StatefulPartitionedCall/autoencoder/StatefulPartitionedCall/processor_group/strided_slice_5/stack", "StatefulPartitionedCall/autoencoder/StatefulPartitionedCall/processor_group/strided_slice_5/stack_1", "StatefulPartitionedCall/autoencoder/StatefulPartitionedCall/processor_group/strided_slice_5/stack_2"], "attr": {"ellipsis_mask": {"i": "0"}, "end_mask": {"i": "7"}, "T": {"type": "DT_FLOAT"}, "begin_mask": {"i": "7"}, "new_axis_mask": {"i": "8"}, "Index": {"type": "DT_INT32"}, "shrink_axis_mask": {"i": "0"}}}, {"name": "StatefulPartitionedCall/autoencoder/StatefulPartitionedCall/processor_group/Mul_10", "op": "Mul", "input": ["StatefulPartitionedCall/autoencoder/StatefulPartitionedCall/processor_group/rfft", "StatefulPartitionedCall/autoencoder/StatefulPartitionedCall/processor_group/rfft_1"], "attr": {"T": {"type": "DT_COMPLEX64"}}}, {"name": "StatefulPartitionedCall/autoencoder/StatefulPartitionedCall/processor_group/mul_5", "op": "Mul", "input": ["StatefulPartitionedCall/autoencoder/StatefulPartitionedCall/processor_group/strided_slice_5", "StatefulPartitionedCall/autoencoder/StatefulPartitionedCall/processor_group/strided_slice_6"], "attr": {"T": {"type": "DT_FLOAT"}}}, {"name": "StatefulPartitionedCall/autoencoder/StatefulPartitionedCall/processor_group/irfft_1", "op": "IRFFT", "input": ["StatefulPartitionedCall/autoencoder/StatefulPartitionedCall/processor_group/Mul_10", "StatefulPartitionedCall/autoencoder/StatefulPartitionedCall/processor_group/irfft_1/fft_length"], "attr": {"Treal": {"type": "DT_FLOAT"}, "Tcomplex": {"type": "DT_COMPLEX64"}}}, {"name": "StatefulPartitionedCall/autoencoder/StatefulPartitionedCall/processor_group/overlap_and_add/Pad", "op": "Pad", "input": ["StatefulPartitionedCall/autoencoder/StatefulPartitionedCall/processor_group/mul_5", "StatefulPartitionedCall/autoencoder/StatefulPartitionedCall/processor_group/overlap_and_add/concat"], "attr": {"Tpaddings": {"type": "DT_INT32"}, "T": {"type": "DT_FLOAT"}}}, {"name": "StatefulPartitionedCall/autoencoder/StatefulPartitionedCall/processor_group/overlap_and_add_1/Pad", "op": "Pad", "input": ["StatefulPartitionedCall/autoencoder/StatefulPartitionedCall/processor_group/irfft_1", "StatefulPartitionedCall/autoencoder/StatefulPartitionedCall/processor_group/overlap_and_add_1/concat"], "attr": {"T": {"type": "DT_FLOAT"}, "Tpaddings": {"type": "DT_INT32"}}}, {"name": "StatefulPartitionedCall/autoencoder/StatefulPartitionedCall/processor_group/overlap_and_add/Reshape", "op": "Reshape", "input": ["StatefulPartitionedCall/autoencoder/StatefulPartitionedCall/processor_group/overlap_and_add/Pad", "StatefulPartitionedCall/autoencoder/StatefulPartitionedCall/processor_group/overlap_and_add/concat_1"], "attr": {"T": {"type": "DT_FLOAT"}, "Tshape": {"type": "DT_INT32"}}}, {"name": "StatefulPartitionedCall/autoencoder/StatefulPartitionedCall/processor_group/overlap_and_add_1/Reshape", "op": "Reshape", "input": ["StatefulPartitionedCall/autoencoder/StatefulPartitionedCall/processor_group/overlap_and_add_1/Pad", "StatefulPartitionedCall/autoencoder/StatefulPartitionedCall/processor_group/overlap_and_add_1/concat_1"], "attr": {"T": {"type": "DT_FLOAT"}, "Tshape": {"type": "DT_INT32"}}}, {"name": "StatefulPartitionedCall/autoencoder/StatefulPartitionedCall/processor_group/overlap_and_add/transpose", "op": "Transpose", "input": ["StatefulPartitionedCall/autoencoder/StatefulPartitionedCall/processor_group/overlap_and_add/Reshape", "StatefulPartitionedCall/autoencoder/StatefulPartitionedCall/processor_group/overlap_and_add/transpose/perm"], "attr": {"T": {"type": "DT_FLOAT"}, "Tperm": {"type": "DT_INT32"}}}, {"name": "StatefulPartitionedCall/autoencoder/StatefulPartitionedCall/processor_group/overlap_and_add_1/transpose", "op": "Transpose", "input": ["StatefulPartitionedCall/autoencoder/StatefulPartitionedCall/processor_group/overlap_and_add_1/Reshape", "StatefulPartitionedCall/autoencoder/StatefulPartitionedCall/processor_group/overlap_and_add_1/transpose/perm"], "attr": {"Tperm": {"type": "DT_INT32"}, "T": {"type": "DT_FLOAT"}}}, {"name": "StatefulPartitionedCall/autoencoder/StatefulPartitionedCall/processor_group/overlap_and_add/Reshape_1", "op": "Reshape", "input": ["StatefulPartitionedCall/autoencoder/StatefulPartitionedCall/processor_group/overlap_and_add/transpose", "StatefulPartitionedCall/autoencoder/StatefulPartitionedCall/processor_group/overlap_and_add/concat_3"], "attr": {"Tshape": {"type": "DT_INT32"}, "T": {"type": "DT_FLOAT"}}}, {"name": "StatefulPartitionedCall/autoencoder/StatefulPartitionedCall/processor_group/overlap_and_add_1/Reshape_1", "op": "Reshape", "input": ["StatefulPartitionedCall/autoencoder/StatefulPartitionedCall/processor_group/overlap_and_add_1/transpose", "StatefulPartitionedCall/autoencoder/StatefulPartitionedCall/processor_group/overlap_and_add_1/concat_3"], "attr": {"T": {"type": "DT_FLOAT"}, "Tshape": {"type": "DT_INT32"}}}, {"name": "StatefulPartitionedCall/autoencoder/StatefulPartitionedCall/processor_group/overlap_and_add/strided_slice", "op": "StridedSlice", "input": ["StatefulPartitionedCall/autoencoder/StatefulPartitionedCall/processor_group/overlap_and_add/Reshape_1", "StatefulPartitionedCall/autoencoder/StatefulPartitionedCall/processor_group/overlap_and_add/strided_slice/stack", "StatefulPartitionedCall/autoencoder/StatefulPartitionedCall/processor_group/overlap_and_add/strided_slice/stack_1", "StatefulPartitionedCall/autoencoder/StatefulPartitionedCall/processor_group/overlap_and_add/strided_slice/stack_2"], "attr": {"Index": {"type": "DT_INT32"}, "end_mask": {"i": "4"}, "shrink_axis_mask": {"i": "0"}, "new_axis_mask": {"i": "0"}, "ellipsis_mask": {"i": "1"}, "T": {"type": "DT_FLOAT"}, "begin_mask": {"i": "6"}}}, {"name": "StatefulPartitionedCall/autoencoder/StatefulPartitionedCall/processor_group/overlap_and_add_1/strided_slice", "op": "StridedSlice", "input": ["StatefulPartitionedCall/autoencoder/StatefulPartitionedCall/processor_group/overlap_and_add_1/Reshape_1", "StatefulPartitionedCall/autoencoder/StatefulPartitionedCall/processor_group/overlap_and_add_1/strided_slice/stack", "StatefulPartitionedCall/autoencoder/StatefulPartitionedCall/processor_group/overlap_and_add_1/strided_slice/stack_1", "StatefulPartitionedCall/autoencoder/StatefulPartitionedCall/processor_group/overlap_and_add_1/strided_slice/stack_2"], "attr": {"new_axis_mask": {"i": "0"}, "ellipsis_mask": {"i": "1"}, "end_mask": {"i": "4"}, "T": {"type": "DT_FLOAT"}, "shrink_axis_mask": {"i": "0"}, "begin_mask": {"i": "6"}, "Index": {"type": "DT_INT32"}}}, {"name": "StatefulPartitionedCall/autoencoder/StatefulPartitionedCall/processor_group/overlap_and_add/Reshape_2", "op": "Reshape", "input": ["StatefulPartitionedCall/autoencoder/StatefulPartitionedCall/processor_group/overlap_and_add/strided_slice", "StatefulPartitionedCall/autoencoder/StatefulPartitionedCall/processor_group/overlap_and_add/concat_4"], "attr": {"T": {"type": "DT_FLOAT"}, "Tshape": {"type": "DT_INT32"}}}, {"name": "StatefulPartitionedCall/autoencoder/StatefulPartitionedCall/processor_group/overlap_and_add_1/Reshape_2", "op": "Reshape", "input": ["StatefulPartitionedCall/autoencoder/StatefulPartitionedCall/processor_group/overlap_and_add_1/strided_slice", "StatefulPartitionedCall/autoencoder/StatefulPartitionedCall/processor_group/overlap_and_add_1/concat_4"], "attr": {"T": {"type": "DT_FLOAT"}, "Tshape": {"type": "DT_INT32"}}}, {"name": "StatefulPartitionedCall/autoencoder/StatefulPartitionedCall/processor_group/overlap_and_add/Sum", "op": "Sum", "input": ["StatefulPartitionedCall/autoencoder/StatefulPartitionedCall/processor_group/overlap_and_add/Reshape_2", "StatefulPartitionedCall/autoencoder/StatefulPartitionedCall/processor_group/overlap_and_add/Sum/reduction_indices"], "attr": {"Tidx": {"type": "DT_INT32"}, "T": {"type": "DT_FLOAT"}, "keep_dims": {"b": false}}}, {"name": "StatefulPartitionedCall/autoencoder/StatefulPartitionedCall/processor_group/overlap_and_add_1/Sum", "op": "Sum", "input": ["StatefulPartitionedCall/autoencoder/StatefulPartitionedCall/processor_group/overlap_and_add_1/Reshape_2", "StatefulPartitionedCall/autoencoder/StatefulPartitionedCall/processor_group/overlap_and_add_1/Sum/reduction_indices"], "attr": {"keep_dims": {"b": false}, "T": {"type": "DT_FLOAT"}, "Tidx": {"type": "DT_INT32"}}}, {"name": "StatefulPartitionedCall/autoencoder/StatefulPartitionedCall/processor_group/overlap_and_add/Reshape_3", "op": "Reshape", "input": ["StatefulPartitionedCall/autoencoder/StatefulPartitionedCall/processor_group/overlap_and_add/Sum", "StatefulPartitionedCall/autoencoder/StatefulPartitionedCall/processor_group/overlap_and_add/concat_5"], "attr": {"Tshape": {"type": "DT_INT32"}, "T": {"type": "DT_FLOAT"}}}, {"name": "StatefulPartitionedCall/autoencoder/StatefulPartitionedCall/processor_group/overlap_and_add_1/Reshape_3", "op": "Reshape", "input": ["StatefulPartitionedCall/autoencoder/StatefulPartitionedCall/processor_group/overlap_and_add_1/Sum", "StatefulPartitionedCall/autoencoder/StatefulPartitionedCall/processor_group/overlap_and_add_1/concat_5"], "attr": {"T": {"type": "DT_FLOAT"}, "Tshape": {"type": "DT_INT32"}}}, {"name": "StatefulPartitionedCall/autoencoder/StatefulPartitionedCall/processor_group/overlap_and_add/strided_slice_1", "op": "StridedSlice", "input": ["StatefulPartitionedCall/autoencoder/StatefulPartitionedCall/processor_group/overlap_and_add/Reshape_3", "StatefulPartitionedCall/autoencoder/StatefulPartitionedCall/processor_group/overlap_and_add/strided_slice_1/stack", "StatefulPartitionedCall/autoencoder/StatefulPartitionedCall/processor_group/overlap_and_add/strided_slice_1/stack_1", "StatefulPartitionedCall/autoencoder/StatefulPartitionedCall/processor_group/overlap_and_add/strided_slice_1/stack_2"], "attr": {"new_axis_mask": {"i": "0"}, "begin_mask": {"i": "2"}, "Index": {"type": "DT_INT32"}, "ellipsis_mask": {"i": "1"}, "T": {"type": "DT_FLOAT"}, "shrink_axis_mask": {"i": "0"}, "end_mask": {"i": "0"}}}, {"name": "StatefulPartitionedCall/autoencoder/StatefulPartitionedCall/processor_group/overlap_and_add_1/strided_slice_1", "op": "StridedSlice", "input": ["StatefulPartitionedCall/autoencoder/StatefulPartitionedCall/processor_group/overlap_and_add_1/Reshape_3", "StatefulPartitionedCall/autoencoder/StatefulPartitionedCall/processor_group/overlap_and_add_1/strided_slice_1/stack", "StatefulPartitionedCall/autoencoder/StatefulPartitionedCall/processor_group/overlap_and_add_1/strided_slice_1/stack_1", "StatefulPartitionedCall/autoencoder/StatefulPartitionedCall/processor_group/overlap_and_add_1/strided_slice_1/stack_2"], "attr": {"Index": {"type": "DT_INT32"}, "ellipsis_mask": {"i": "1"}, "T": {"type": "DT_FLOAT"}, "end_mask": {"i": "0"}, "new_axis_mask": {"i": "0"}, "begin_mask": {"i": "2"}, "shrink_axis_mask": {"i": "0"}}}, {"name": "StatefulPartitionedCall/autoencoder/StatefulPartitionedCall/processor_group/transpose_1", "op": "Transpose", "input": ["StatefulPartitionedCall/autoencoder/StatefulPartitionedCall/processor_group/overlap_and_add/strided_slice_1", "StatefulPartitionedCall/autoencoder/StatefulPartitionedCall/processor_group/transpose_1/perm"], "attr": {"T": {"type": "DT_FLOAT"}, "Tperm": {"type": "DT_INT32"}}}, {"name": "StatefulPartitionedCall/autoencoder/StatefulPartitionedCall/processor_group/strided_slice_8", "op": "StridedSlice", "input": ["StatefulPartitionedCall/autoencoder/StatefulPartitionedCall/processor_group/overlap_and_add_1/strided_slice_1", "StatefulPartitionedCall/autoencoder/StatefulPartitionedCall/processor_group/strided_slice_8/stack", "StatefulPartitionedCall/autoencoder/StatefulPartitionedCall/processor_group/strided_slice_8/stack_1", "StatefulPartitionedCall/autoencoder/StatefulPartitionedCall/processor_group/strided_slice_8/stack_2"], "attr": {"ellipsis_mask": {"i": "0"}, "begin_mask": {"i": "1"}, "shrink_axis_mask": {"i": "0"}, "Index": {"type": "DT_INT32"}, "T": {"type": "DT_FLOAT"}, "end_mask": {"i": "1"}, "new_axis_mask": {"i": "0"}}}, {"name": "StatefulPartitionedCall/autoencoder/StatefulPartitionedCall/processor_group/strided_slice_7", "op": "StridedSlice", "input": ["StatefulPartitionedCall/autoencoder/StatefulPartitionedCall/processor_group/transpose_1", "StatefulPartitionedCall/autoencoder/StatefulPartitionedCall/processor_group/strided_slice_7/stack", "StatefulPartitionedCall/autoencoder/StatefulPartitionedCall/processor_group/strided_slice_7/stack_1", "StatefulPartitionedCall/autoencoder/StatefulPartitionedCall/processor_group/strided_slice_7/stack_2"], "attr": {"end_mask": {"i": "5"}, "shrink_axis_mask": {"i": "0"}, "ellipsis_mask": {"i": "0"}, "begin_mask": {"i": "5"}, "T": {"type": "DT_FLOAT"}, "new_axis_mask": {"i": "0"}, "Index": {"type": "DT_INT32"}}}, {"name": "StatefulPartitionedCall/autoencoder/StatefulPartitionedCall/processor_group/SelectV2_1", "op": "SelectV2", "input": ["StatefulPartitionedCall/autoencoder/StatefulPartitionedCall/processor_group/GreaterEqual_1", "StatefulPartitionedCall/autoencoder/StatefulPartitionedCall/processor_group/zeros_like_1", "StatefulPartitionedCall/autoencoder/StatefulPartitionedCall/processor_group/strided_slice_7"], "attr": {"T": {"type": "DT_FLOAT"}}}, {"name": "StatefulPartitionedCall/autoencoder/StatefulPartitionedCall/processor_group/mul_7", "op": "Mul", "input": ["StatefulPartitionedCall/autoencoder/StatefulPartitionedCall/processor_group/SelectV2_1", "StatefulPartitionedCall/autoencoder/StatefulPartitionedCall/processor_group/Sin"], "attr": {"T": {"type": "DT_FLOAT"}}}, {"name": "StatefulPartitionedCall/autoencoder/StatefulPartitionedCall/processor_group/Sum_1", "op": "Sum", "input": ["StatefulPartitionedCall/autoencoder/StatefulPartitionedCall/processor_group/mul_7", "StatefulPartitionedCall/autoencoder/StatefulPartitionedCall/processor_group/Sum_1/reduction_indices"], "attr": {"T": {"type": "DT_FLOAT"}, "Tidx": {"type": "DT_INT32"}, "keep_dims": {"b": false}}}, {"name": "StatefulPartitionedCall/autoencoder/StatefulPartitionedCall/processor_group/add_4", "op": "AddV2", "input": ["StatefulPartitionedCall/autoencoder/StatefulPartitionedCall/processor_group/strided_slice_8", "StatefulPartitionedCall/autoencoder/StatefulPartitionedCall/processor_group/Sum_1"], "attr": {"T": {"type": "DT_FLOAT"}}}, {"name": "Identity", "op": "Identity", "input": ["StatefulPartitionedCall/autoencoder/StatefulPartitionedCall/processor_group/add_4"], "attr": {"T": {"type": "DT_FLOAT"}}}], "library": {"function": [{"signature": {"name": "__inference_rnn_fc_decoder_2_gru_while_cond_29631_887_frozen", "inputArg": [{"name": "rnn_fc_decoder_2_gru_while_rnn_fc_decoder_2_gru_while_loop_counter", "type": "DT_INT32"}, {"name": "rnn_fc_decoder_2_gru_while_rnn_fc_decoder_2_gru_while_maximum_iterations", "type": "DT_INT32"}, {"name": "rnn_fc_decoder_2_gru_while_placeholder", "type": "DT_INT32"}, {"name": "rnn_fc_decoder_2_gru_while_placeholder_1", "type": "DT_VARIANT"}, {"name": "rnn_fc_decoder_2_gru_while_placeholder_2", "type": "DT_FLOAT"}, {"name": "rnn_fc_decoder_2_gru_while_less_rnn_fc_decoder_2_gru_strided_slice_1", "type": "DT_INT32"}, {"name": "rnn_fc_decoder_2_gru_while_rnn_fc_decoder_2_gru_while_cond_29631___redundant_placeholder0", "type": "DT_VARIANT"}, {"name": "rnn_fc_decoder_2_gru_while_rnn_fc_decoder_2_gru_while_cond_29631___redundant_placeholder1", "type": "DT_FLOAT"}, {"name": "rnn_fc_decoder_2_gru_while_rnn_fc_decoder_2_gru_while_cond_29631___redundant_placeholder2", "type": "DT_FLOAT"}, {"name": "rnn_fc_decoder_2_gru_while_rnn_fc_decoder_2_gru_while_cond_29631___redundant_placeholder3", "type": "DT_FLOAT"}], "outputArg": [{"name": "rnn_fc_decoder_2_gru_while_identity", "type": "DT_BOOL"}]}, "nodeDef": [{"name": "rnn_fc_decoder_2/gru/while/Less", "op": "Less", "input": ["rnn_fc_decoder_2_gru_while_placeholder", "rnn_fc_decoder_2_gru_while_less_rnn_fc_decoder_2_gru_strided_slice_1"], "attr": {"T": {"type": "DT_INT32"}}}], "ret": {"rnn_fc_decoder_2_gru_while_identity": "rnn_fc_decoder_2/gru/while/Less:z:0"}}, {"signature": {"name": "__inference_rnn_fc_decoder_2_gru_while_body_29632_5213_frozen", "inputArg": [{"name": "rnn_fc_decoder_2_gru_while_rnn_fc_decoder_2_gru_while_loop_counter", "type": "DT_INT32"}, {"name": "rnn_fc_decoder_2_gru_while_rnn_fc_decoder_2_gru_while_maximum_iterations", "type": "DT_INT32"}, {"name": "rnn_fc_decoder_2_gru_while_placeholder", "type": "DT_INT32"}, {"name": "rnn_fc_decoder_2_gru_while_placeholder_1", "type": "DT_VARIANT"}, {"name": "rnn_fc_decoder_2_gru_while_placeholder_2", "type": "DT_FLOAT"}, {"name": "rnn_fc_decoder_2_gru_while_rnn_fc_decoder_2_gru_strided_slice_1_0", "type": "DT_INT32"}, {"name": "rnn_fc_decoder_2_gru_while_tensorarrayv2read_tensorlistgetitem_rnn_fc_decoder_2_gru_tensorarrayunstack_tensorlistfromtensor_0", "type": "DT_VARIANT"}, {"name": "rnn_fc_decoder_2_gru_while_gru_cell_2_readvariableop_resource_0", "type": "DT_FLOAT"}, {"name": "rnn_fc_decoder_2_gru_while_gru_cell_2_matmul_readvariableop_resource_0", "type": "DT_FLOAT"}, {"name": "rnn_fc_decoder_2_gru_while_gru_cell_2_matmul_1_readvariableop_resource_0", "type": "DT_FLOAT"}], "outputArg": [{"name": "rnn_fc_decoder_2_gru_while_identity", "type": "DT_INT32"}, {"name": "rnn_fc_decoder_2_gru_while_identity_1", "type": "DT_INT32"}, {"name": "rnn_fc_decoder_2_gru_while_identity_2", "type": "DT_INT32"}, {"name": "rnn_fc_decoder_2_gru_while_identity_3", "type": "DT_VARIANT"}, {"name": "rnn_fc_decoder_2_gru_while_identity_4", "type": "DT_FLOAT"}, {"name": "rnn_fc_decoder_2_gru_while_rnn_fc_decoder_2_gru_strided_slice_1", "type": "DT_INT32"}, {"name": "rnn_fc_decoder_2_gru_while_tensorarrayv2read_tensorlistgetitem_rnn_fc_decoder_2_gru_tensorarrayunstack_tensorlistfromtensor", "type": "DT_VARIANT"}, {"name": "rnn_fc_decoder_2_gru_while_gru_cell_2_readvariableop_resource", "type": "DT_FLOAT"}, {"name": "rnn_fc_decoder_2_gru_while_gru_cell_2_matmul_readvariableop_resource", "type": "DT_FLOAT"}, {"name": "rnn_fc_decoder_2_gru_while_gru_cell_2_matmul_1_readvariableop_resource", "type": "DT_FLOAT"}], "isStateful": true}, "nodeDef": [{"name": "__inference_rnn_fc_decoder_2_gru_while_body_29632_5213_frozen/rnn_fc_decoder_2/gru/while/add/y", "op": "Const", "attr": {"dtype": {"type": "DT_INT32"}, "value": {"tensor": {"dtype": "DT_INT32", "tensorShape": {}}}}}, {"name": "__inference_rnn_fc_decoder_2_gru_while_body_29632_5213_frozen/rnn_fc_decoder_2/gru/while/gru_cell_2/sub/x", "op": "Const", "attr": {"dtype": {"type": "DT_FLOAT"}, "value": {"tensor": {"dtype": "DT_FLOAT", "tensorShape": {}}}}}, {"name": "__inference_rnn_fc_decoder_2_gru_while_body_29632_5213_frozen/rnn_fc_decoder_2/gru/while/gru_cell_2/split/split_dim", "op": "Const", "attr": {"dtype": {"type": "DT_INT32"}, "value": {"tensor": {"dtype": "DT_INT32", "tensorShape": {}}}}}, {"name": "__inference_rnn_fc_decoder_2_gru_while_body_29632_5213_frozen/rnn_fc_decoder_2/gru/while/TensorArrayV2Read/TensorListGetItem/element_shape", "op": "Const", "attr": {"value": {"tensor": {"dtype": "DT_INT32", "tensorShape": {"dim": [{"size": "2"}]}}}, "dtype": {"type": "DT_INT32"}}}, {"name": "__inference_rnn_fc_decoder_2_gru_while_body_29632_5213_frozen/rnn_fc_decoder_2/gru/while/gru_cell_2/Const_1", "op": "Const", "attr": {"value": {"tensor": {"dtype": "DT_INT32", "tensorShape": {"dim": [{"size": "3"}]}}}, "dtype": {"type": "DT_INT32"}}}, {"name": "__inference_rnn_fc_decoder_2_gru_while_body_29632_5213_frozen/rnn_fc_decoder_2/gru/while/gru_cell_2/split_1/split_dim", "op": "Const", "attr": {"dtype": {"type": "DT_INT32"}, "value": {"tensor": {"dtype": "DT_INT32", "tensorShape": {}}}}}, {"name": "__inference_rnn_fc_decoder_2_gru_while_body_29632_5213_frozen/rnn_fc_decoder_2/gru/while/add_1/y", "op": "Const", "attr": {"dtype": {"type": "DT_INT32"}, "value": {"tensor": {"dtype": "DT_INT32", "tensorShape": {}}}}}, {"name": "rnn_fc_decoder_2/gru/while/gru_cell_2/unstack", "op": "Unpack", "input": ["rnn_fc_decoder_2_gru_while_gru_cell_2_readvariableop_resource_0"], "attr": {"T": {"type": "DT_FLOAT"}, "num": {"i": "2"}, "axis": {"i": "0"}}}, {"name": "rnn_fc_decoder_2/gru/while/gru_cell_2/MatMul_1", "op": "MatMul", "input": ["rnn_fc_decoder_2_gru_while_placeholder_2", "rnn_fc_decoder_2_gru_while_gru_cell_2_matmul_1_readvariableop_resource_0"], "attr": {"transpose_a": {"b": false}, "T": {"type": "DT_FLOAT"}, "transpose_b": {"b": false}}}, {"name": "rnn_fc_decoder_2/gru/while/add", "op": "AddV2", "input": ["rnn_fc_decoder_2_gru_while_placeholder", "__inference_rnn_fc_decoder_2_gru_while_body_29632_5213_frozen/rnn_fc_decoder_2/gru/while/add/y:output:0"], "attr": {"T": {"type": "DT_INT32"}}}, {"name": "rnn_fc_decoder_2/gru/while/TensorArrayV2Read/TensorListGetItem", "op": "TensorListGetItem", "input": ["rnn_fc_decoder_2_gru_while_tensorarrayv2read_tensorlistgetitem_rnn_fc_decoder_2_gru_tensorarrayunstack_tensorlistfromtensor_0", "rnn_fc_decoder_2_gru_while_placeholder", "__inference_rnn_fc_decoder_2_gru_while_body_29632_5213_frozen/rnn_fc_decoder_2/gru/while/TensorArrayV2Read/TensorListGetItem/element_shape:output:0"], "attr": {"element_dtype": {"type": "DT_FLOAT"}}}, {"name": "rnn_fc_decoder_2/gru/while/add_1", "op": "AddV2", "input": ["rnn_fc_decoder_2_gru_while_rnn_fc_decoder_2_gru_while_loop_counter", "__inference_rnn_fc_decoder_2_gru_while_body_29632_5213_frozen/rnn_fc_decoder_2/gru/while/add_1/y:output:0"], "attr": {"T": {"type": "DT_INT32"}}}, {"name": "rnn_fc_decoder_2/gru/while/gru_cell_2/BiasAdd_1", "op": "BiasAdd", "input": ["rnn_fc_decoder_2/gru/while/gru_cell_2/MatMul_1:product:0", "rnn_fc_decoder_2/gru/while/gru_cell_2/unstack:output:1"], "attr": {"T": {"type": "DT_FLOAT"}, "data_format": {"s": "TkhXQw=="}}}, {"name": "rnn_fc_decoder_2/gru/while/gru_cell_2/MatMul", "op": "MatMul", "input": ["rnn_fc_decoder_2/gru/while/TensorArrayV2Read/TensorListGetItem:item:0", "rnn_fc_decoder_2_gru_while_gru_cell_2_matmul_readvariableop_resource_0"], "attr": {"transpose_b": {"b": false}, "T": {"type": "DT_FLOAT"}, "transpose_a": {"b": false}}}, {"name": "rnn_fc_decoder_2/gru/while/gru_cell_2/split_1", "op": "SplitV", "input": ["rnn_fc_decoder_2/gru/while/gru_cell_2/BiasAdd_1:output:0", "__inference_rnn_fc_decoder_2_gru_while_body_29632_5213_frozen/rnn_fc_decoder_2/gru/while/gru_cell_2/Const_1:output:0", "__inference_rnn_fc_decoder_2_gru_while_body_29632_5213_frozen/rnn_fc_decoder_2/gru/while/gru_cell_2/split_1/split_dim:output:0"], "attr": {"num_split": {"i": "3"}, "T": {"type": "DT_FLOAT"}, "Tlen": {"type": "DT_INT32"}}}, {"name": "rnn_fc_decoder_2/gru/while/gru_cell_2/BiasAdd", "op": "BiasAdd", "input": ["rnn_fc_decoder_2/gru/while/gru_cell_2/MatMul:product:0", "rnn_fc_decoder_2/gru/while/gru_cell_2/unstack:output:0"], "attr": {"T": {"type": "DT_FLOAT"}, "data_format": {"s": "TkhXQw=="}}}, {"name": "rnn_fc_decoder_2/gru/while/gru_cell_2/split", "op": "Split", "input": ["__inference_rnn_fc_decoder_2_gru_while_body_29632_5213_frozen/rnn_fc_decoder_2/gru/while/gru_cell_2/split/split_dim:output:0", "rnn_fc_decoder_2/gru/while/gru_cell_2/BiasAdd:output:0"], "attr": {"num_split": {"i": "3"}, "T": {"type": "DT_FLOAT"}}}, {"name": "rnn_fc_decoder_2/gru/while/gru_cell_2/add", "op": "AddV2", "input": ["rnn_fc_decoder_2/gru/while/gru_cell_2/split:output:0", "rnn_fc_decoder_2/gru/while/gru_cell_2/split_1:output:0"], "attr": {"T": {"type": "DT_FLOAT"}}}, {"name": "rnn_fc_decoder_2/gru/while/gru_cell_2/add_1", "op": "AddV2", "input": ["rnn_fc_decoder_2/gru/while/gru_cell_2/split:output:1", "rnn_fc_decoder_2/gru/while/gru_cell_2/split_1:output:1"], "attr": {"T": {"type": "DT_FLOAT"}}}, {"name": "rnn_fc_decoder_2/gru/while/gru_cell_2/Sigmoid", "op": "Sigmoid", "input": ["rnn_fc_decoder_2/gru/while/gru_cell_2/add:z:0"], "attr": {"T": {"type": "DT_FLOAT"}}}, {"name": "rnn_fc_decoder_2/gru/while/gru_cell_2/Sigmoid_1", "op": "Sigmoid", "input": ["rnn_fc_decoder_2/gru/while/gru_cell_2/add_1:z:0"], "attr": {"T": {"type": "DT_FLOAT"}}}, {"name": "rnn_fc_decoder_2/gru/while/gru_cell_2/mul_1", "op": "Mul", "input": ["rnn_fc_decoder_2/gru/while/gru_cell_2/Sigmoid:y:0", "rnn_fc_decoder_2_gru_while_placeholder_2"], "attr": {"T": {"type": "DT_FLOAT"}}}, {"name": "rnn_fc_decoder_2/gru/while/gru_cell_2/sub", "op": "Sub", "input": ["__inference_rnn_fc_decoder_2_gru_while_body_29632_5213_frozen/rnn_fc_decoder_2/gru/while/gru_cell_2/sub/x:output:0", "rnn_fc_decoder_2/gru/while/gru_cell_2/Sigmoid:y:0"], "attr": {"T": {"type": "DT_FLOAT"}}}, {"name": "rnn_fc_decoder_2/gru/while/gru_cell_2/mul", "op": "Mul", "input": ["rnn_fc_decoder_2/gru/while/gru_cell_2/Sigmoid_1:y:0", "rnn_fc_decoder_2/gru/while/gru_cell_2/split_1:output:2"], "attr": {"T": {"type": "DT_FLOAT"}}}, {"name": "rnn_fc_decoder_2/gru/while/gru_cell_2/add_2", "op": "AddV2", "input": ["rnn_fc_decoder_2/gru/while/gru_cell_2/split:output:2", "rnn_fc_decoder_2/gru/while/gru_cell_2/mul:z:0"], "attr": {"T": {"type": "DT_FLOAT"}}}, {"name": "rnn_fc_decoder_2/gru/while/gru_cell_2/Tanh", "op": "Tanh", "input": ["rnn_fc_decoder_2/gru/while/gru_cell_2/add_2:z:0"], "attr": {"T": {"type": "DT_FLOAT"}}}, {"name": "rnn_fc_decoder_2/gru/while/gru_cell_2/mul_2", "op": "Mul", "input": ["rnn_fc_decoder_2/gru/while/gru_cell_2/sub:z:0", "rnn_fc_decoder_2/gru/while/gru_cell_2/Tanh:y:0"], "attr": {"T": {"type": "DT_FLOAT"}}}, {"name": "rnn_fc_decoder_2/gru/while/gru_cell_2/add_3", "op": "AddV2", "input": ["rnn_fc_decoder_2/gru/while/gru_cell_2/mul_1:z:0", "rnn_fc_decoder_2/gru/while/gru_cell_2/mul_2:z:0"], "attr": {"T": {"type": "DT_FLOAT"}}}, {"name": "rnn_fc_decoder_2/gru/while/TensorArrayV2Write/TensorListSetItem", "op": "TensorListSetItem", "input": ["rnn_fc_decoder_2_gru_while_placeholder_1", "rnn_fc_decoder_2_gru_while_placeholder", "rnn_fc_decoder_2/gru/while/gru_cell_2/add_3:z:0"], "attr": {"element_dtype": {"type": "DT_FLOAT"}}}], "ret": {"rnn_fc_decoder_2_gru_while_identity": "rnn_fc_decoder_2/gru/while/add_1:z:0", "rnn_fc_decoder_2_gru_while_gru_cell_2_matmul_readvariableop_resource": "rnn_fc_decoder_2_gru_while_gru_cell_2_matmul_readvariableop_resource_0", "rnn_fc_decoder_2_gru_while_identity_1": "rnn_fc_decoder_2_gru_while_rnn_fc_decoder_2_gru_while_maximum_iterations", "rnn_fc_decoder_2_gru_while_gru_cell_2_readvariableop_resource": "rnn_fc_decoder_2_gru_while_gru_cell_2_readvariableop_resource_0", "rnn_fc_decoder_2_gru_while_tensorarrayv2read_tensorlistgetitem_rnn_fc_decoder_2_gru_tensorarrayunstack_tensorlistfromtensor": "rnn_fc_decoder_2_gru_while_tensorarrayv2read_tensorlistgetitem_rnn_fc_decoder_2_gru_tensorarrayunstack_tensorlistfromtensor_0", "rnn_fc_decoder_2_gru_while_identity_3": "rnn_fc_decoder_2/gru/while/TensorArrayV2Write/TensorListSetItem:output_handle:0", "rnn_fc_decoder_2_gru_while_gru_cell_2_matmul_1_readvariableop_resource": "rnn_fc_decoder_2_gru_while_gru_cell_2_matmul_1_readvariableop_resource_0", "rnn_fc_decoder_2_gru_while_identity_2": "rnn_fc_decoder_2/gru/while/add:z:0", "rnn_fc_decoder_2_gru_while_rnn_fc_decoder_2_gru_strided_slice_1": "rnn_fc_decoder_2_gru_while_rnn_fc_decoder_2_gru_strided_slice_1_0", "rnn_fc_decoder_2_gru_while_identity_4": "rnn_fc_decoder_2/gru/while/gru_cell_2/add_3:z:0"}}]}, "versions": {"producer": 421, "minConsumer": 12}}, "weightsManifest": [{"paths": ["group1-shard1of5.bin", "group1-shard2of5.bin", "group1-shard3of5.bin", "group1-shard4of5.bin", "group1-shard5of5.bin"], "weights": [{"name": "StatefulPartitionedCall/autoencoder/StatefulPartitionedCall/processor_group/random_uniform/shape", "shape": [2], "dtype": "int32"}, {"name": "StatefulPartitionedCall/autoencoder/StatefulPartitionedCall/processor_group/random_uniform/sub", "shape": [], "dtype": "float32"}, {"name": "StatefulPartitionedCall/autoencoder/StatefulPartitionedCall/processor_group/random_uniform/min", "shape": [], "dtype": "float32"}, {"name": "StatefulPartitionedCall/autoencoder/StatefulPartitionedCall/processor_group/frame/concat_2", "shape": [3], "dtype": "int32"}, {"name": "StatefulPartitionedCall/autoencoder/StatefulPartitionedCall/processor_group/frame/add_1", "shape": [1000, 1], "dtype": "int32"}, {"name": "StatefulPartitionedCall/autoencoder/StatefulPartitionedCall/processor_group/frame/GatherV2/axis", "shape": [], "dtype": "int32"}, {"name": "StatefulPartitionedCall/autoencoder/StatefulPartitionedCall/processor_group/frame/concat_3", "shape": [3], "dtype": "int32"}, {"name": "StatefulPartitionedCall/autoencoder/StatefulPartitionedCall/processor_group/rfft/Pad/paddings", "shape": [3, 2], "dtype": "int32"}, {"name": "StatefulPartitionedCall/autoencoder/StatefulPartitionedCall/processor_group/rfft/fft_length", "shape": [1], "dtype": "int32"}, {"name": "StatefulPartitionedCall/autoencoder/StatefulPartitionedCall/processor_group/BroadcastTo", "shape": [1, 1000, 128], "dtype": "float32"}, {"name": "StatefulPartitionedCall/autoencoder/StatefulPartitionedCall/processor_group/mul_8/x", "shape": [], "dtype": "float32"}, {"name": "StatefulPartitionedCall/autoencoder/StatefulPartitionedCall/processor_group/add_2/y", "shape": [], "dtype": "float32"}, {"name": "StatefulPartitionedCall/autoencoder/StatefulPartitionedCall/processor_group/Log_2", "shape": [], "dtype": "float32"}, {"name": "StatefulPartitionedCall/autoencoder/StatefulPartitionedCall/processor_group/add_3/y", "shape": [], "dtype": "float32"}, {"name": "StatefulPartitionedCall/autoencoder/StatefulPartitionedCall/processor_group/zeros_like_2", "shape": [1, 1000, 65], "dtype": "float32"}, {"name": "StatefulPartitionedCall/autoencoder/StatefulPartitionedCall/processor_group/irfft/fft_length", "shape": [1], "dtype": "int32"}, {"name": "StatefulPartitionedCall/autoencoder/StatefulPartitionedCall/processor_group/fftshift_1/floordiv", "shape": [], "dtype": "int32"}, {"name": "StatefulPartitionedCall/autoencoder/StatefulPartitionedCall/processor_group/fftshift_1/axis", "shape": [], "dtype": "int32"}, {"name": "StatefulPartitionedCall/autoencoder/StatefulPartitionedCall/processor_group/rfft_1/Pad/paddings", "shape": [3, 2], "dtype": "int32"}, {"name": "StatefulPartitionedCall/autoencoder/StatefulPartitionedCall/processor_group/rfft_1/fft_length", "shape": [1], "dtype": "int32"}, {"name": "StatefulPartitionedCall/autoencoder/StatefulPartitionedCall/processor_group/irfft_1/fft_length", "shape": [1], "dtype": "int32"}, {"name": "StatefulPartitionedCall/autoencoder/StatefulPartitionedCall/processor_group/overlap_and_add_1/concat", "shape": [3, 2], "dtype": "int32"}, {"name": "StatefulPartitionedCall/autoencoder/StatefulPartitionedCall/processor_group/overlap_and_add_1/concat_1", "shape": [4], "dtype": "int32"}, {"name": "StatefulPartitionedCall/autoencoder/StatefulPartitionedCall/processor_group/overlap_and_add_1/transpose/perm", "shape": [4], "dtype": "int32"}, {"name": "StatefulPartitionedCall/autoencoder/StatefulPartitionedCall/processor_group/overlap_and_add_1/concat_3", "shape": [3], "dtype": "int32"}, {"name": "StatefulPartitionedCall/autoencoder/StatefulPartitionedCall/processor_group/overlap_and_add_1/strided_slice/stack", "shape": [3], "dtype": "int32"}, {"name": "StatefulPartitionedCall/autoencoder/StatefulPartitionedCall/processor_group/overlap_and_add_1/strided_slice/stack_1", "shape": [3], "dtype": "int32"}, {"name": "StatefulPartitionedCall/autoencoder/StatefulPartitionedCall/processor_group/overlap_and_add_1/strided_slice/stack_2", "shape": [3], "dtype": "int32"}, {"name": "StatefulPartitionedCall/autoencoder/StatefulPartitionedCall/processor_group/overlap_and_add_1/concat_4", "shape": [4], "dtype": "int32"}, {"name": "StatefulPartitionedCall/autoencoder/StatefulPartitionedCall/processor_group/overlap_and_add_1/Sum/reduction_indices", "shape": [], "dtype": "int32"}, {"name": "StatefulPartitionedCall/autoencoder/StatefulPartitionedCall/processor_group/overlap_and_add_1/concat_5", "shape": [2], "dtype": "int32"}, {"name": "StatefulPartitionedCall/autoencoder/StatefulPartitionedCall/processor_group/overlap_and_add_1/strided_slice_1/stack", "shape": [2], "dtype": "int32"}, {"name": "StatefulPartitionedCall/autoencoder/StatefulPartitionedCall/processor_group/overlap_and_add_1/strided_slice_1/stack_1", "shape": [2], "dtype": "int32"}, {"name": "StatefulPartitionedCall/autoencoder/StatefulPartitionedCall/processor_group/overlap_and_add_1/strided_slice_1/stack_2", "shape": [2], "dtype": "int32"}, {"name": "StatefulPartitionedCall/autoencoder/StatefulPartitionedCall/processor_group/strided_slice_8/stack", "shape": [2], "dtype": "int32"}, {"name": "StatefulPartitionedCall/autoencoder/StatefulPartitionedCall/processor_group/strided_slice_8/stack_1", "shape": [2], "dtype": "int32"}, {"name": "StatefulPartitionedCall/autoencoder/StatefulPartitionedCall/processor_group/strided_slice_8/stack_2", "shape": [2], "dtype": "int32"}, {"name": "StatefulPartitionedCall/autoencoder/StatefulPartitionedCall/processor_group/GreaterEqual_1/y", "shape": [], "dtype": "float32"}, {"name": "StatefulPartitionedCall/autoencoder/StatefulPartitionedCall/processor_group/zeros_like_1", "shape": [1, 64000, 60], "dtype": "float32"}, {"name": "StatefulPartitionedCall/autoencoder/StatefulPartitionedCall/processor_group/mul/x", "shape": [], "dtype": "float32"}, {"name": "StatefulPartitionedCall/autoencoder/StatefulPartitionedCall/processor_group/Log", "shape": [], "dtype": "float32"}, {"name": "StatefulPartitionedCall/autoencoder/StatefulPartitionedCall/processor_group/add/y", "shape": [], "dtype": "float32"}, {"name": "StatefulPartitionedCall/autoencoder/StatefulPartitionedCall/processor_group/strided_slice", "shape": [1, 1, 60], "dtype": "float32"}, {"name": "StatefulPartitionedCall/autoencoder/StatefulPartitionedCall/processor_group/GreaterEqual/y", "shape": [], "dtype": "float32"}, {"name": "StatefulPartitionedCall/autoencoder/StatefulPartitionedCall/processor_group/zeros_like", "shape": [1, 1000, 60], "dtype": "float32"}, {"name": "StatefulPartitionedCall/autoencoder/StatefulPartitionedCall/processor_group/mul_1/x", "shape": [], "dtype": "float32"}, {"name": "StatefulPartitionedCall/autoencoder/StatefulPartitionedCall/rnn_fc_decoder_2/gru/while/loop_counter", "shape": [], "dtype": "int32"}, {"name": "StatefulPartitionedCall/autoencoder/StatefulPartitionedCall/rnn_fc_decoder_2/gru/while/maximum_iterations", "shape": [], "dtype": "int32"}, {"name": "StatefulPartitionedCall/autoencoder/StatefulPartitionedCall/rnn_fc_decoder_2/gru/time", "shape": [], "dtype": "int32"}, {"name": "StatefulPartitionedCall/autoencoder/StatefulPartitionedCall/rnn_fc_decoder_2/gru/TensorArrayV2_1/element_shape", "shape": [2], "dtype": "int32"}, {"name": "StatefulPartitionedCall/autoencoder/StatefulPartitionedCall/rnn_fc_decoder_2/gru/zeros", "shape": [1, 256], "dtype": "float32"}, {"name": "StatefulPartitionedCall/autoencoder/StatefulPartitionedCall/rnn_fc_decoder_2/gru/strided_slice_1", "shape": [], "dtype": "int32"}, {"name": "StatefulPartitionedCall/autoencoder/StatefulPartitionedCall/strided_slice/stack", "shape": [2], "dtype": "int32"}, {"name": "StatefulPartitionedCall/autoencoder/StatefulPartitionedCall/strided_slice/stack_1", "shape": [2], "dtype": "int32"}, {"name": "StatefulPartitionedCall/autoencoder/StatefulPartitionedCall/strided_slice/stack_2", "shape": [2], "dtype": "int32"}, {"name": "StatefulPartitionedCall/autoencoder/StatefulPartitionedCall/strided_slice_1/stack", "shape": [3], "dtype": "int32"}, {"name": "StatefulPartitionedCall/autoencoder/StatefulPartitionedCall/strided_slice_1/stack_1", "shape": [3], "dtype": "int32"}, {"name": "StatefulPartitionedCall/autoencoder/StatefulPartitionedCall/strided_slice_1/stack_2", "shape": [3], "dtype": "int32"}, {"name": "StatefulPartitionedCall/autoencoder/StatefulPartitionedCall/strided_slice_2/stack", "shape": [4], "dtype": "int32"}, {"name": "StatefulPartitionedCall/autoencoder/StatefulPartitionedCall/strided_slice_2/stack_1", "shape": [4], "dtype": "int32"}, {"name": "StatefulPartitionedCall/autoencoder/StatefulPartitionedCall/strided_slice_2/stack_2", "shape": [4], "dtype": "int32"}, {"name": "StatefulPartitionedCall/autoencoder/StatefulPartitionedCall/resize/size", "shape": [2], "dtype": "int32"}, {"name": "StatefulPartitionedCall/autoencoder/StatefulPartitionedCall/strided_slice_3/stack", "shape": [4], "dtype": "int32"}, {"name": "StatefulPartitionedCall/autoencoder/StatefulPartitionedCall/strided_slice_3/stack_1", "shape": [4], "dtype": "int32"}, {"name": "StatefulPartitionedCall/autoencoder/StatefulPartitionedCall/strided_slice_3/stack_2", "shape": [4], "dtype": "int32"}, {"name": "ConstantFolding/StatefulPartitionedCall/autoencoder/StatefulPartitionedCall/truediv_3_recip", "shape": [], "dtype": "float32"}, {"name": "StatefulPartitionedCall/autoencoder/StatefulPartitionedCall/add_1/y", "shape": [], "dtype": "float32"}, {"name": "StatefulPartitionedCall/autoencoder/StatefulPartitionedCall/Equal/y", "shape": [], "dtype": "float32"}, {"name": "StatefulPartitionedCall/autoencoder/StatefulPartitionedCall/SelectV2/t", "shape": [], "dtype": "float32"}, {"name": "StatefulPartitionedCall/autoencoder/StatefulPartitionedCall/mul/x", "shape": [], "dtype": "float32"}, {"name": "ConstantFolding/StatefulPartitionedCall/autoencoder/StatefulPartitionedCall/truediv_recip", "shape": [], "dtype": "float32"}, {"name": "StatefulPartitionedCall/autoencoder/StatefulPartitionedCall/truediv_1", "shape": [], "dtype": "float32"}, {"name": "StatefulPartitionedCall/autoencoder/StatefulPartitionedCall/add/y", "shape": [], "dtype": "float32"}, {"name": "ConstantFolding/StatefulPartitionedCall/autoencoder/StatefulPartitionedCall/truediv_2_recip", "shape": [], "dtype": "float32"}, {"name": "StatefulPartitionedCall/autoencoder/StatefulPartitionedCall/rnn_fc_decoder_2/concat/axis", "shape": [], "dtype": "int32"}, {"name": "StatefulPartitionedCall/autoencoder/StatefulPartitionedCall/rnn_fc_decoder_2/gru/transpose/perm", "shape": [3], "dtype": "int32"}, {"name": "StatefulPartitionedCall/autoencoder/StatefulPartitionedCall/rnn_fc_decoder_2/gru/TensorArrayUnstack/TensorListFromTensor/element_shape", "shape": [2], "dtype": "int32"}, {"name": "Func/StatefulPartitionedCall/autoencoder/StatefulPartitionedCall/input/_16", "shape": [2, 768], "dtype": "float32"}, {"name": "Func/StatefulPartitionedCall/autoencoder/StatefulPartitionedCall/input/_17", "shape": [2, 768], "dtype": "float32"}, {"name": "Func/StatefulPartitionedCall/autoencoder/StatefulPartitionedCall/input/_18", "shape": [256, 768], "dtype": "float32"}, {"name": "StatefulPartitionedCall/autoencoder/StatefulPartitionedCall/rnn_fc_decoder_2/gru/TensorArrayV2Stack/TensorListStack/element_shape", "shape": [2], "dtype": "int32"}, {"name": "StatefulPartitionedCall/autoencoder/StatefulPartitionedCall/rnn_fc_decoder_2/gru/transpose_1/perm", "shape": [3], "dtype": "int32"}, {"name": "StatefulPartitionedCall/autoencoder/StatefulPartitionedCall/rnn_fc_decoder_2/concat_1/axis", "shape": [], "dtype": "int32"}, {"name": "StatefulPartitionedCall/autoencoder/StatefulPartitionedCall/rnn_fc_decoder_2/dense/Tensordot/Reshape/shape", "shape": [2], "dtype": "int32"}, {"name": "Func/StatefulPartitionedCall/autoencoder/StatefulPartitionedCall/input/_19", "shape": [258, 126], "dtype": "float32"}, {"name": "StatefulPartitionedCall/autoencoder/StatefulPartitionedCall/rnn_fc_decoder_2/dense/Tensordot/shape", "shape": [3], "dtype": "int32"}, {"name": "Func/StatefulPartitionedCall/autoencoder/StatefulPartitionedCall/input/_20", "shape": [126], "dtype": "float32"}, {"name": "StatefulPartitionedCall/autoencoder/StatefulPartitionedCall/rnn_fc_decoder_2/Const", "shape": [3], "dtype": "int32"}, {"name": "StatefulPartitionedCall/autoencoder/StatefulPartitionedCall/rnn_fc_decoder_2/split/split_dim", "shape": [], "dtype": "int32"}, {"name": "StatefulPartitionedCall/autoencoder/StatefulPartitionedCall/processor_group/Log_1", "shape": [], "dtype": "float32"}, {"name": "StatefulPartitionedCall/autoencoder/StatefulPartitionedCall/processor_group/add_1/y", "shape": [], "dtype": "float32"}, {"name": "StatefulPartitionedCall/autoencoder/StatefulPartitionedCall/processor_group/Sum/reduction_indices", "shape": [], "dtype": "int32"}, {"name": "StatefulPartitionedCall/autoencoder/StatefulPartitionedCall/processor_group/strided_slice_4/stack", "shape": [3], "dtype": "int32"}, {"name": "StatefulPartitionedCall/autoencoder/StatefulPartitionedCall/processor_group/strided_slice_4/stack_1", "shape": [3], "dtype": "int32"}, {"name": "StatefulPartitionedCall/autoencoder/StatefulPartitionedCall/processor_group/strided_slice_4/stack_2", "shape": [3], "dtype": "int32"}, {"name": "StatefulPartitionedCall/autoencoder/StatefulPartitionedCall/processor_group/concat/axis", "shape": [], "dtype": "int32"}, {"name": "StatefulPartitionedCall/autoencoder/StatefulPartitionedCall/processor_group/transpose/perm", "shape": [3], "dtype": "int32"}, {"name": "StatefulPartitionedCall/autoencoder/StatefulPartitionedCall/processor_group/strided_slice_5/stack", "shape": [4], "dtype": "int32"}, {"name": "StatefulPartitionedCall/autoencoder/StatefulPartitionedCall/processor_group/strided_slice_5/stack_1", "shape": [4], "dtype": "int32"}, {"name": "StatefulPartitionedCall/autoencoder/StatefulPartitionedCall/processor_group/strided_slice_5/stack_2", "shape": [4], "dtype": "int32"}, {"name": "StatefulPartitionedCall/autoencoder/StatefulPartitionedCall/processor_group/strided_slice_6", "shape": [1, 1, 1, 128], "dtype": "float32"}, {"name": "StatefulPartitionedCall/autoencoder/StatefulPartitionedCall/processor_group/overlap_and_add/concat", "shape": [4, 2], "dtype": "int32"}, {"name": "StatefulPartitionedCall/autoencoder/StatefulPartitionedCall/processor_group/overlap_and_add/concat_1", "shape": [5], "dtype": "int32"}, {"name": "StatefulPartitionedCall/autoencoder/StatefulPartitionedCall/processor_group/overlap_and_add/transpose/perm", "shape": [5], "dtype": "int32"}, {"name": "StatefulPartitionedCall/autoencoder/StatefulPartitionedCall/processor_group/overlap_and_add/concat_3", "shape": [4], "dtype": "int32"}, {"name": "StatefulPartitionedCall/autoencoder/StatefulPartitionedCall/processor_group/overlap_and_add/strided_slice/stack", "shape": [3], "dtype": "int32"}, {"name": "StatefulPartitionedCall/autoencoder/StatefulPartitionedCall/processor_group/overlap_and_add/strided_slice/stack_1", "shape": [3], "dtype": "int32"}, {"name": "StatefulPartitionedCall/autoencoder/StatefulPartitionedCall/processor_group/overlap_and_add/strided_slice/stack_2", "shape": [3], "dtype": "int32"}, {"name": "StatefulPartitionedCall/autoencoder/StatefulPartitionedCall/processor_group/overlap_and_add/concat_4", "shape": [5], "dtype": "int32"}, {"name": "StatefulPartitionedCall/autoencoder/StatefulPartitionedCall/processor_group/overlap_and_add/Sum/reduction_indices", "shape": [], "dtype": "int32"}, {"name": "StatefulPartitionedCall/autoencoder/StatefulPartitionedCall/processor_group/overlap_and_add/concat_5", "shape": [3], "dtype": "int32"}, {"name": "StatefulPartitionedCall/autoencoder/StatefulPartitionedCall/processor_group/overlap_and_add/strided_slice_1/stack", "shape": [2], "dtype": "int32"}, {"name": "StatefulPartitionedCall/autoencoder/StatefulPartitionedCall/processor_group/overlap_and_add/strided_slice_1/stack_1", "shape": [2], "dtype": "int32"}, {"name": "StatefulPartitionedCall/autoencoder/StatefulPartitionedCall/processor_group/overlap_and_add/strided_slice_1/stack_2", "shape": [2], "dtype": "int32"}, {"name": "StatefulPartitionedCall/autoencoder/StatefulPartitionedCall/processor_group/transpose_1/perm", "shape": [3], "dtype": "int32"}, {"name": "StatefulPartitionedCall/autoencoder/StatefulPartitionedCall/processor_group/strided_slice_7/stack", "shape": [3], "dtype": "int32"}, {"name": "StatefulPartitionedCall/autoencoder/StatefulPartitionedCall/processor_group/strided_slice_7/stack_1", "shape": [3], "dtype": "int32"}, {"name": "StatefulPartitionedCall/autoencoder/StatefulPartitionedCall/processor_group/strided_slice_7/stack_2", "shape": [3], "dtype": "int32"}, {"name": "StatefulPartitionedCall/autoencoder/StatefulPartitionedCall/strided_slice_4/stack", "shape": [2], "dtype": "int32"}, {"name": "StatefulPartitionedCall/autoencoder/StatefulPartitionedCall/strided_slice_4/stack_1", "shape": [2], "dtype": "int32"}, {"name": "StatefulPartitionedCall/autoencoder/StatefulPartitionedCall/strided_slice_4/stack_2", "shape": [2], "dtype": "int32"}, {"name": "StatefulPartitionedCall/autoencoder/StatefulPartitionedCall/strided_slice_5/stack", "shape": [3], "dtype": "int32"}, {"name": "StatefulPartitionedCall/autoencoder/StatefulPartitionedCall/strided_slice_5/stack_1", "shape": [3], "dtype": "int32"}, {"name": "StatefulPartitionedCall/autoencoder/StatefulPartitionedCall/strided_slice_5/stack_2", "shape": [3], "dtype": "int32"}, {"name": "StatefulPartitionedCall/autoencoder/StatefulPartitionedCall/strided_slice_6/stack", "shape": [4], "dtype": "int32"}, {"name": "StatefulPartitionedCall/autoencoder/StatefulPartitionedCall/strided_slice_6/stack_1", "shape": [4], "dtype": "int32"}, {"name": "StatefulPartitionedCall/autoencoder/StatefulPartitionedCall/strided_slice_6/stack_2", "shape": [4], "dtype": "int32"}, {"name": "StatefulPartitionedCall/autoencoder/StatefulPartitionedCall/resize_1/size", "shape": [2], "dtype": "int32"}, {"name": "StatefulPartitionedCall/autoencoder/StatefulPartitionedCall/strided_slice_7/stack", "shape": [4], "dtype": "int32"}, {"name": "StatefulPartitionedCall/autoencoder/StatefulPartitionedCall/strided_slice_7/stack_1", "shape": [4], "dtype": "int32"}, {"name": "StatefulPartitionedCall/autoencoder/StatefulPartitionedCall/strided_slice_7/stack_2", "shape": [4], "dtype": "int32"}, {"name": "StatefulPartitionedCall/autoencoder/StatefulPartitionedCall/processor_group/strided_slice_1", "shape": [1, 1, 60], "dtype": "float32"}, {"name": "StatefulPartitionedCall/autoencoder/StatefulPartitionedCall/processor_group/strided_slice_2/stack", "shape": [4], "dtype": "int32"}, {"name": "StatefulPartitionedCall/autoencoder/StatefulPartitionedCall/processor_group/strided_slice_2/stack_1", "shape": [4], "dtype": "int32"}, {"name": "StatefulPartitionedCall/autoencoder/StatefulPartitionedCall/processor_group/strided_slice_2/stack_2", "shape": [4], "dtype": "int32"}, {"name": "StatefulPartitionedCall/autoencoder/StatefulPartitionedCall/processor_group/resize/size", "shape": [2], "dtype": "int32"}, {"name": "StatefulPartitionedCall/autoencoder/StatefulPartitionedCall/processor_group/strided_slice_3/stack", "shape": [4], "dtype": "int32"}, {"name": "StatefulPartitionedCall/autoencoder/StatefulPartitionedCall/processor_group/strided_slice_3/stack_1", "shape": [4], "dtype": "int32"}, {"name": "StatefulPartitionedCall/autoencoder/StatefulPartitionedCall/processor_group/strided_slice_3/stack_2", "shape": [4], "dtype": "int32"}, {"name": "StatefulPartitionedCall/autoencoder/StatefulPartitionedCall/processor_group/mul_6", "shape": [], "dtype": "float32"}, {"name": "StatefulPartitionedCall/autoencoder/StatefulPartitionedCall/processor_group/Cumsum/axis", "shape": [], "dtype": "int32"}, {"name": "StatefulPartitionedCall/autoencoder/StatefulPartitionedCall/processor_group/Sum_1/reduction_indices", "shape": [], "dtype": "int32"}, {"name": "__inference_rnn_fc_decoder_2_gru_while_body_29632_5213_frozen/rnn_fc_decoder_2/gru/while/add/y", "shape": [], "dtype": "int32"}, {"name": "__inference_rnn_fc_decoder_2_gru_while_body_29632_5213_frozen/rnn_fc_decoder_2/gru/while/gru_cell_2/sub/x", "shape": [], "dtype": "float32"}, {"name": "__inference_rnn_fc_decoder_2_gru_while_body_29632_5213_frozen/rnn_fc_decoder_2/gru/while/gru_cell_2/split/split_dim", "shape": [], "dtype": "int32"}, {"name": "__inference_rnn_fc_decoder_2_gru_while_body_29632_5213_frozen/rnn_fc_decoder_2/gru/while/TensorArrayV2Read/TensorListGetItem/element_shape", "shape": [2], "dtype": "int32"}, {"name": "__inference_rnn_fc_decoder_2_gru_while_body_29632_5213_frozen/rnn_fc_decoder_2/gru/while/gru_cell_2/Const_1", "shape": [3], "dtype": "int32"}, {"name": "__inference_rnn_fc_decoder_2_gru_while_body_29632_5213_frozen/rnn_fc_decoder_2/gru/while/gru_cell_2/split_1/split_dim", "shape": [], "dtype": "int32"}, {"name": "__inference_rnn_fc_decoder_2_gru_while_body_29632_5213_frozen/rnn_fc_decoder_2/gru/while/add_1/y", "shape": [], "dtype": "int32"}]}]}
